lightning_logs/version_4/checkpoints/epoch=99-step=1800.ckpt (torch, 37072 bytes, 45 tensors)

model.0.weight f4 [8]
0.9659222 1.0182166 1.0022783 0.8706705 0.58670735 1.0957408 1.2021371 1.1083544
00000000: ad46 773f ec54 823f a84a 803f 43e4 5e3f
00000010: 7432 163f 3c41 8c3f a1df 993f 8fde 8d3f

model.0.bias f4 [8]
-0.08212251 0.019217122 -0.07653021 -0.13412997 -0.027788099 0.14483948 0.026627937 0.068347365
00000000: d92f a8bd 3a6d 9d3c dfbb 9cbd 5e59 09be
00000010: dea3 e3bc cd50 143e d522 da3c b4f9 8b3d

model.0.running_mean f4 [8]
5905.792 5955.832 5853.102 104566.38 -4.8735194e-05 2022.5897 6.3846364 16.094965
00000000: 568e b845 a81e ba45 d1e8 b645 313b cc47
00000010: 0469 4cb8 dfd2 fc44 f14e cc40 7dc2 8041

model.0.running_var f4 [8]
57854.586 58127.117 56395.074 4.883197e+09 0.00010258136 0.04213093 5.1326528 77.04195
00000000: 96fe 6147 1e0f 6347 134b 5c47 d687 914f
00000010: f320 d738 7b91 2c3d b13e a440 7a15 9a42

model.1.weight f4 [16, 8]
-0.05911178 -0.23294517 -0.044357624 -0.16117519 0.061947692 -0.4039939 -0.2415248 0.21479367
0.1456538 0.12426304 -0.3574776 -0.36835247 0.01842368 -0.22208023 -0.38296953 -0.047259003
0.22971381 -0.037766475 -0.06829016 -0.25287452 -0.0032575042 0.12616308 -0.18876328 -0.21002811
0.079270445 0.1815238 0.23850046 -0.178471 -0.31290963 -0.21287686 -0.21081026 -0.4816204
0.18737678 0.08313069 -0.016305164 -0.13952848 -0.12874241 -0.13016596 -0.15906882 -0.24738486
-0.008203001 -0.10802107 -0.10870389 -0.068202645 -0.054468673 0.047868688 0.22357397 -0.53744465
-0.03187357 -0.4681308 -0.19132844 0.033048004 0.24069893 -0.2885811 0.09275059 -0.12313711
-0.044850476 0.21171696 -0.11236112 -0.21800564 0.118318506 0.12423728 -0.16488554 0.25530863
-0.19407581 -0.2364781 0.15886654 0.16479862 0.023005478 0.008482197 0.2916273 0.18424064
0.10497597 -0.20162082 -0.17539106 0.049324982 0.08803971 0.18776768 0.43623272 -0.14098965
-0.36998716 -0.13795371 -0.0187571 0.064867124 0.051215846 0.22759321 0.29210657 0.09633172
-0.24858482 -0.3686697 -0.25953543 0.07564029 0.11581375 0.15223278 -0.2728964 0.15481073
-0.3121217 -0.3256376 -0.12615016 0.002122169 0.13908157 0.015829472 -0.14026469 0.1731946
-0.1797375 0.1435557 0.04103207 0.18173262 -0.03598137 -0.020961363 0.46018454 -0.10863868
-0.27119204 0.060142364 -0.06344643 0.10040244 -0.0020148633 -0.46296373 0.18985787 -0.15222636
0.1626476 0.19276732 0.2991658 -0.0024573843 -0.2263971 -0.20179854 -0.30437005 -0.022108385
00000000: 321f 72bd 2e89 6ebe 57b0 35bd 1c0b 25be
00000010: ddbc 7d3d 4ad8 cebe 4752 77be dff2 5b3e
00000020: 4526 153e 9f7d fe3d 4e07 b7be b298 bcbe
00000030: 42ed 963c 0069 63be 9514 c4be a892 41bd
00000040: 193a 6b3e 05b1 1abd b6db 8bbd c578 81be
00000050: da7b 55bb e530 013e 294b 41be 9c11 57be
00000060: 8b58 a23d 60e1 393e 7739 743e 1ac1 36be
00000070: b135 a0be 64fc 59be a5de 57be f396 f6be
00000080: b3df 3f3e 6c40 aa3d 6892 85bc 8ee0 0ebe
00000090: 0dd5 03be 3a4a 05be f0e2 22be 7552 7dbe
000000a0: e165 06bc 273a ddbd 25a0 debd d4ad 8bbd
000000b0: 8b1a 5fbd f511 443d 93f0 643e f995 09bf
000000c0: dc8d 02bd d7ae efbe 9aeb 43be 585d 073d
000000d0: c879 763e e7c0 93be 05f4 bd3d 4f2f fcbd
000000e0: 22b5 37bd 55cc 583e 961d e6bd df3c 5fbe
000000f0: f950 f23d 1d70 fe3d c1d7 28be d0b7 823e
00000100: cfbb 46be 5127 72be e9ad 223e f8c0 283e
00000110: fc75 bc3c eaf8 0a3c 2c50 953e 94a9 3c3e
00000120: a4fd d63d b075 4ebe b799 33be fe08 4a3d
00000130: 2a4e b43d 2c46 403e e559 df3e 975f 10be
00000140: f56e bdbe bd43 0dbe 7da8 99bc 0ed9 843d
00000150: b5c7 513d 320e 693e fe8e 953e 9149 c53d
00000160: 058d 7ebe 46c2 bcbe d4e1 84be 4ce9 9a3d
00000170: c22f ed3d e9e2 1b3e 14b9 8bbe b486 1e3e
00000180: 6ace 9fbe f9b9 a6be 822d 01be 1614 0b3b
00000190: 666b 0e3e cfac 813c 8ca1 0fbe ed59 313e
000001a0: 1b0d 38be 4400 133e 3e11 283d 1e18 3a3e
000001b0: 3361 13bd 2ab7 abbc 4f9d eb3e f57d debd
000001c0: afd9 8abe d757 763d 34f0 81bd cb9f cd3d
000001d0: cc0b 04bb 9509 edbe 1a6a 423e 3ae1 1bbe
000001e0: 188d 263e cc64 453e 422c 993e 110c 21bb
000001f0: a4d4 67be 47a4 4ebe 64d6 9bbe a51c b5bc

model.1.bias f4 [16]
0.11085533 -0.085873224 -0.10901067 0.12653233 0.15994954 -0.2623697 0.13198575 0.25997108
-0.25793043 0.19233294 -0.13882276 -0.05109579 -0.1408966 0.0035517467 -0.13322313 -0.11661033
00000000: 1f08 e33d 4dde afbd fc40 dfbd b191 013e
00000010: d0c9 233e 5255 86be 4627 073e ee1a 853e
00000020: 750f 84be edf2 443e 8e27 0ebe d249 51bd
00000030: 3347 10be 6cc4 683b a56b 08be 66d1 eebd

model.2.weight f4 [16]
0.8744142 1.1413646 0.70844 0.9422729 1.0145988 0.825044 0.8026663 0.6420638
1.1143336 0.86600953 0.911475 0.766538 1.040634 0.9353325 0.8455313 0.90020895
00000000: 9cd9 5f3f 3c18 923f 535c 353f cc38 713f
00000010: 60de 813f 1536 533f 8a7b 4d3f 4b5e 243f
00000020: 7ca2 8e3f cdb2 5d3f 6d56 693f d63b 443f
00000030: 7f33 853f f371 6f3f bd74 583f 1874 663f

model.2.bias f4 [16]
-0.60874146 -0.655011 0.7618335 -0.09644146 -0.24353525 -0.5391298 -0.34920183 0.092073165
-0.5613521 -0.24527599 -0.30577943 -0.6112595 -0.2933742 -0.070471354 -0.43399036 -0.22773398
00000000: 7bd6 1bbf cdae 27bf 8507 433f 1a83 c5bd
00000010: 4e61 79be 6904 0abf 95ca b2be db90 bc3d
00000020: c5b4 0fbf a129 7bbe 1f8f 9cbe 817b 1cbf
00000030: 2535 96be 4953 90bd fc33 debe 1933 69be

model.2.running_mean f4 [16]
0.09055147 -0.062221296 -0.09045135 0.07326826 0.13238163 -0.26800376 0.085330844 0.330135
-0.2599193 0.20796274 -0.07763414 -0.012117236 -0.10631034 -0.00093680713 -0.18323188 -0.17954741
00000000: 0d73 b93d c2db 7ebd 8f3e b9bd ab0d 963d
00000010: 0d8f 073e ca37 89be f0c1 ae3d 7407 a93e
00000020: 2414 85be 2ff4 543e a6fe 9ebd 5f87 46bc
00000030: 3cb9 d9bd 1094 75ba 23a1 3bbe 47db 37be

model.2.running_var f4 [16]
0.31778416 0.34398255 0.22058977 0.6620244 0.19911474 0.5428827 0.57975215 0.22815561
0.2960067 0.4315774 0.43124744 0.8801211 0.64638025 0.44281858 0.31483892 0.60045534
00000000: 9bb4 a23e 7b1e b03e 49e2 613e 6e7a 293f
00000010: bce4 4b3e 5cfa 0a3f a36a 143f a0a1 693e
00000020: 318e 973e b7f7 dc3e 77cc dc3e 9e4f 613f
00000030: 2d79 253f 1eb9 e23e 9132 a13e 71b7 193f

model.4.weight f4 [32, 16]
0.04649856 -0.03155174 -0.0831453 -0.14530371 0.2038594 0.06645492 -0.14922808 -0.01658078
-0.1315785 -0.22138174 -0.062055793 0.048751324 0.08748526 -0.34122303 0.2528436 -0.029676791
-0.5323836 0.08421347 -0.08424084 0.051077724 0.030022861 -0.09665287 -0.048908267 -0.11119584
-0.010657536 0.049174167 -0.024751239 -0.10104022 0.28981832 -0.07304189 0.0766997 -0.047876917
0.03051327 0.18147902 -0.17195472 -0.27307102 -0.20000131 -0.055414353 -0.038389105 -0.0698396
-0.047263518 0.13306737 0.126004 -0.21601759 0.15355495 0.0061711334 -0.08045655 0.13086605
0.025157297 0.11262919 0.05868675 0.11715127 -0.16017795 0.018123986 0.16152306 -0.052553523
0.07314329 -0.10529102 -0.6366453 -0.016517181 -0.09716404 0.047756698 0.19059022 0.030643538
0.018057633 -0.064110756 0.03774263 -0.12673518 0.19033884 0.013017824 0.010307854 0.060278628
-0.47095236 -0.070286915 -0.05595962 0.12261785 0.101844385 -0.13132255 0.22857614 0.022767251
0.04394882 0.082204 0.03399586 0.034426667 -0.05625873 0.0040818397 0.18834244 -0.050196238
0.06915658 -0.06597019 -0.6449934 0.0031340322 -0.08471035 0.019228812 0.19585854 0.021340536
0.010135399 0.1701842 -0.14669318 -0.40251893 -0.27784365 0.05259515 -0.07984403 -0.032307465
0.041446026 0.15386322 0.11994823 -0.020591652 0.10114158 0.020160627 -0.13280971 0.1418114
0.03543765 0.16275209 0.025539368 0.15117659 -0.13076267 -0.0015932223 0.14023818 4.507306e-05
0.029175159 0.040475897 -0.039547775 -0.18765937 -0.7203013 0.08923828 -0.18181181 0.00354212
0.11427988 0.0501209 0.25419784 -0.050207365 -0.10398964 -0.20995018 -0.040306065 -0.07886167
-0.43318683 0.10531183 0.09317541 -0.015308811 -0.17145358 0.085168004 0.13908508 -0.00034022107
-0.029408818 0.020633493 -0.054070406 0.17355716 -0.1459897 0.044598337 0.12335181 0.063281246
0.06810077 -0.69781345 -0.075428985 -0.17299934 0.027916055 -0.044395667 0.12061224 -0.019943474
0.04908405 -0.50228655 -0.20500797 0.011818027 0.19175036 0.019602377 0.058273163 0.09403933
0.04900372 0.090488106 0.06306589 -0.015087315 -0.0132850595 -0.025792414 -0.045040764 -0.0015561769
0.18433687 -0.054567296 0.018489463 -0.0128517365 0.070058845 0.051913884 -0.044326633 0.034002826
0.06786407 0.15925033 -0.026784096 -0.17765102 0.16583505 0.049208116 -0.030983942 -0.73052895
-0.19469018 -0.038590286 0.061615087 -0.1339791 0.14351921 0.21309254 -0.021297583 0.039518252
0.062355265 -0.08251237 0.067827106 0.03820366 -0.39900574 0.27336743 -0.31578252 0.02015802
0.120426156 0.08217254 0.23120199 -0.010405682 -0.13211818 -0.016936205 -0.058538884 -0.054689284
-0.40332648 -0.027763793 0.15745915 -0.09355793 -0.15909067 0.1535976 0.063799724 0.0338951
-0.018430391 0.003945574 0.25100404 0.09530658 -0.1327295 -0.02851641 0.030989638 0.0005465985
-0.32487 0.0794803 -0.06971978 0.033055957 0.07588466 0.07460914 0.024287714 0.072411925
0.017424893 0.14143029 -0.15488324 -0.14169435 -0.32524824 -0.100377165 0.019719275 -0.00022400604
0.030968186 0.25092024 0.02775144 -0.09621924 0.112981364 -0.06326731 -0.14061652 0.13595243
00000000: 4675 3e3d 663c 01bd 1548 aabd 7fca 14be
00000010: 85c0 503e 8419 883d 3fcf 18be 6ad4 87bc
00000020: 84bc 06be e5b1 62be 372e 7ebd 78af 473d
00000030: 792b b33d c9b4 aebe b774 813e be1c f3bc
00000040: 4b4a 08bf 1d78 ac3d 7686 acbd e036 513d
00000050: 81f2 f53c f1f1 c5bd 0954 48bd a5ba e3bd
00000060: f29c 2ebc da6a 493d 1cc3 cabc 2dee cebd
00000070: 1163 943e fd96 95bd bb14 9d3d 961a 44bd
00000080: f7f6 f93c a3d5 393e e614 30be f7cf 8bbe
00000090: 25cd 4cbe 29fa 62bd e53d 1dbd 1008 8fbd
000000a0: 6497 41bd d042 083e 3107 013e b733 5dbe
000000b0: 823d 1d3e 3837 ca3b 67c6 a4bd c001 063e
000000c0: ad16 ce3c 22aa e63d 8461 703d 01ed ef3d
000000d0: b005 24be c178 943c 4d66 253e 5d42 57bd
000000e0: 26cc 953d d1a2 d7bd 30fb 22bf 0a4f 87bc
000000f0: f1fd c6bd 879c 433d 152a 433e 2808 fb3c
00000100: 9aed 933c 804c 83bd 0498 1a3d dec6 01be
00000110: 2fe8 423e b648 553c 46e2 283c b9e6 763d
00000120: ab20 f1be 96f2 8fbd ea35 65bd 111f fb3d
00000130: ca93 d03d 6b79 06be dd0f 6a3e 6382 ba3c
00000140: ae03 343d 925a a83d 3e3f 0b3d fa02 0d3d
00000150: 8e6f 66bd f4c0 853b d7dc 403e 929a 4dbd
00000160: f7a1 8d3d 611b 87bd 4a1e 25bf 5664 4d3b
00000170: 9f7c adbd be85 9d3c 248f 483e 59d2 ae3c
00000180: f20e 263c c444 2e3e bd36 16be f616 cebe
00000190: 8641 8ebe 036e 573d 4485 a3bd d554 04bd
000001a0: 4fc3 293d 528e 1d3e 6ba7 f53d d3af a8bc
000001b0: 5123 cf3d e627 a53c 45ff 07be 0237 113e
000001c0: 1227 113d 7ca8 263e f037 d13c 09ce 1a3e
000001d0: a6e6 05be abd3 d0ba 999a 0f3e d40c 3d38
000001e0: be00 ef3c 0eca 253d d9fc 21bd c729 40be
000001f0: aa65 38bf 8fc2 b63d e02c 3abe ea22 683b
00000200: 920b ea3d 934b 4d3d 3826 823e 3da6 4dbd
00000210: 85f8 d4bd 2efd 56be f917 25bd 3a82 a1bd
00000220: aaca ddbe bbad d73d c0d2 be3d cfd1 7abc
00000230: 8791 2fbe 906c ae3d 526c 0e3e b35f b2b9
00000240: c3ea f0bc 9207 a93c ee78 5dbd f8b8 313e
00000250: 537e 15be bfac 363d e09f fc3d 9999 813d
00000260: 6b78 8b3d e7a3 32bf 837a 9abd bd26 31be
00000270: 36b0 e43c 3bd8 35bd 8d03 f73d 7f60 a3bc
00000280: 5b0c 493d da95 00bf 9ced 51be 66a0 413c
00000290: 355a 443e 2a95 a03c d7af 6e3d b197 c03d
000002a0: 20b8 483d d451 b93d b028 813d c930 77bc
000002b0: 94a9 59bc 9d4a d3bc aa7c 38bd a2f8 cbba
000002c0: cec2 3c3e f581 5fbd 3777 973c 1790 52bc
000002d0: 037b 8f3d a7a3 543d d88f 35bd 8c46 0b3d
000002e0: 51fc 8a3d 8512 233e 526a dbbc 26ea 35be
000002f0: aad0 293e 738e 493d 09d2 fdbc f203 3bbf
00000300: dd5c 47be d910 1ebd 1a60 7c3d d131 09be
00000310: b3f6 123e ee34 5a3e 4578 aebc e4dd 213d
00000320: 3c68 7f3d 3ffc a8bd f0e8 8a3d 717b 1c3d
00000330: 7b4a ccbe d1f6 8b3e 3fae a1be 6f22 a53c
00000340: fda1 f63d 144a a83d 37c0 6c3e 987c 2abc
00000350: fd49 07be ccbd 8abc 78c6 6fbd df01 60bd
00000360: cf80 cebe e570 e3bc f93c 213e 4d9b bfbd
00000370: aae8 22be b048 1d3e 6ea9 823d 97d5 0a3d
00000380: 55fb 96bc e049 813b 9a83 803e 1930 c33d
00000390: 3eea 07be 3f9b e9bc fbdd fd3c 9b49 0f3a
000003a0: 5c55 a6be 91c6 a23d 3ec9 8ebd af65 073d
000003b0: 6b69 9b3d adcc 983d 07f7 c63c b44c 943d
000003c0: a6be 8e3c 1ad3 103e b699 1ebe 5318 11be
000003d0: f086 a6be 8b92 cdbd 518a a13c 2ae3 6ab9
000003e0: feb0 fd3c 9e78 803e fd56 e33c 980e c5bd
000003f0: c662 e73d 4b92 81bd c7fd 0fbe 1d37 0b3e

model.4.bias f4 [32]
0.25515604 0.041532937 0.021886261 -0.1665986 0.03642458 0.22524622 0.047583897 0.13912675
0.1943938 -0.024153208 0.15907142 0.11065924 0.16490814 0.27110255 -0.14106303 -0.05128597
-0.12007317 0.16243306 -0.08862478 -0.09183396 0.083962485 0.1389935 -0.11472333 -0.0816472
0.026144052 -0.10425862 0.1596093 0.13357219 -0.16485754 -0.051852055 -0.123829775 0.019326955
00000000: d0a3 823e 711e 2a3d d14a b33c d398 2abe
00000010: f131 153d f2a6 663e 55e7 423d 3e77 0e3e
00000020: 2b0f 473e f3dc c5bc 9ee3 223e 50a1 e23d
00000030: aedd 283e f4cd 8a3e d472 10be 3d11 52bd
00000040: ece8 f5bd da54 263e e980 b5bd 7113 bcbd
00000050: 86f4 ab3d 5054 0e3e 11f4 eabd a636 a7bd
00000060: 0d2c d63c 8b85 d5bd 9f70 233e 26c7 083e
00000070: 6ad0 28be d262 54bd 779a fdbd 9053 9e3c

model.5.weight f4 [32]
3.0306122 3.0581744 3.0307922 3.040705 2.991831 3.0132148 3.0883646 3.054342
3.027951 3.0180118 3.0634353 3.04732 3.0315285 3.0344636 3.0180528 3.0557733
3.0437555 3.030795 3.0209725 3.0091681 3.007371 2.9885957 3.055365 3.0526521
3.021739 3.0526657 3.002643 3.007906 3.0152724 3.0500689 3.0148516 3.049343
00000000: 8df5 4140 21b9 4340 80f8 4140 e99a 4240
00000010: 297a 3f40 83d8 4040 c4a7 4540 577a 4340
00000020: f3c9 4140 1b27 4140 530f 4440 4a07 4340
00000030: 9004 4240 a734 4240 c727 4140 ca91 4340
00000040: e4cc 4240 8cf8 4140 9d57 4140 3696 4040
00000050: c478 4040 2745 3f40 1a8b 4340 a75e 4340
00000060: 2c64 4140 e05e 4340 4e2b 4040 8881 4040
00000070: 39fa 4040 5434 4340 54f3 4040 7028 4340

model.5.bias f4 [32]
2.1053696 2.138615 2.0815885 2.115167 2.0845714 2.0826864 2.1313322 2.1006227
2.1127346 2.0977445 2.1445336 2.0912106 2.1086226 2.113614 2.0991695 2.1139748
2.1472378 2.0849733 2.0972822 2.0779958 2.1036532 2.0720868 2.1307685 2.09088
2.12733 2.1386306 2.0860932 2.0778818 2.1247091 2.1125324 2.08318 2.1384816
00000000: 60be 0640 11df 0840 bf38 0540 e55e 0740
00000010: 9e69 0540 bc4a 0540 bf67 0840 9a70 0640
00000020: 0b37 0740 7241 0640 0a40 0940 65d6 0540
00000030: acf3 0640 7445 0740 cb58 0640 5d4b 0740
00000040: 586c 0940 3470 0540 df39 0640 e2fd 0440
00000050: 41a2 0640 129d 0440 835e 0840 fad0 0540
00000060: 2d26 0840 53df 0840 8d82 0540 04fc 0440
00000070: 3cfb 0740 bb33 0740 d252 0540 e2dc 0840

model.5.running_mean f4 [32]
0.026086485 -0.054562297 -0.17748502 -0.21974026 -0.0068407007 0.15905496 -0.15707876 0.01641902
0.26557124 -0.18847562 0.04120663 0.06330034 0.16684632 0.3707517 0.05265933 -0.22308849
-0.18899661 0.01859117 -0.23294702 -0.07351243 -0.0034794975 0.29042295 -0.23633595 -0.0924758
-0.11094872 -0.2507515 0.31154788 0.001250637 -0.19686963 -0.11826353 -0.26645944 -0.08237487
00000000: 53b3 d53c b77c 5fbd a2be 35be 9703 61be
00000010: f527 e0bb 4edf 223e 41d9 20be 2e81 863c
00000020: f4f8 873e c1ff 40be 49c8 283d 9ca3 813d
00000030: c3d9 2a3e 2bd3 bd3e 4fb1 573d 4f71 64be
00000040: 5488 41be 824c 983c aa89 6ebe af8d 96bd
00000050: 4808 64bb 51b2 943e 0d02 72be f463 bdbd
00000060: 1539 e3bd 8062 80be 3483 9f3e 6aec a33a
00000070: 3198 49be 2634 f2bd 5f6d 88be 28b4 a8bd

model.5.running_var f4 [32]
0.0645183 0.018235235 0.101433836 0.049076773 0.07458261 0.040786047 0.17709768 0.12822832
0.053400487 0.072374776 0.050266977 0.14063571 0.060237344 0.052923832 0.056781936 0.096348636
0.012638079 0.07006663 0.11772631 0.06399997 0.11122871 0.10989041 0.06785719 0.057300825
0.073591344 0.0809943 0.07543062 0.13576213 0.05825223 0.06844616 0.15912873 0.06018088
00000000: 2c22 843d 0f62 953c 8bbc cf3d ba04 493d
00000010: c4be 983d 450f 273d 1859 353e 494e 033e
00000020: 78ba 5a3d 3a39 943d bfe4 4d3d cf02 103e
00000030: 6fbb 763d a9c6 583d 2d94 683d 6f52 c53d
00000040: f20f 4f3c 187f 8f3d 7e1a f13d 6b12 833d
00000050: e1cb e33d 390e e13d b6f8 8a3d 45b4 6a3d
00000060: 0fb7 963d 57e0 a53d 5e7b 9a3d 3a05 0b3e
00000070: e499 6e3d 802d 8c3d a4f2 223e 3a80 763d

model.7.weight f4 [16, 32]
-1.8700182 -2.064169 -1.816762 -1.8393034 -1.9934984 -1.9166703 -1.9280114 -1.9732422
-1.8394133 -1.8555976 -1.8982701 -2.0042253 -1.9635204 -1.8830907 -1.7458745 -1.9505706
-1.9031358 -1.7742414 -1.9481878 -1.8842812 -2.0161607 -1.780451 -1.8393139 -2.1058292
-1.917315 -2.072319 -2.0439806 -1.8316221 -1.9851317 -1.79057 -1.9897033 -2.0727003
1.8552794 1.860943 2.1742418 1.8149978 2.1447048 2.0676754 2.0549088 1.8791256
1.9736633 2.0223937 2.064474 2.0433445 2.0562217 1.8648233 2.1097414 2.0795894
2.0448954 2.0003705 1.8396422 2.052759 2.028304 2.1427536 2.1069176 2.138926
2.17652 1.8546199 1.9702888 2.0521119 1.9342889 1.9379871 2.0760972 2.016855
-1.9368187 -2.0163205 -1.7557592 -1.7040122 -1.8099018 -1.7075744 -1.9396726 -1.9548434
-1.8377043 -2.0696948 -1.9185135 -1.8204151 -1.8796697 -1.7525198 -1.9138124 -1.8722069
-2.038608 -1.9045409 -1.7379345 -2.0132039 -1.8559711 -1.841645 -1.886955 -1.9240614
-1.8817637 -1.7698684 -1.9774619 -2.0054631 -1.7190806 -1.9175874 -1.8318262 -1.7636515
1.7457849 2.0570009 2.0728812 1.7669231 1.858699 1.8082145 1.8120376 1.9285834
1.7673976 1.9727793 1.8483827 1.8685268 1.9395274 1.8124768 1.9503503 1.9370496
1.7626635 1.7693764 1.9843369 1.766467 1.8292141 1.7281193 1.9417608 1.9405209
1.9415108 1.8629212 2.039045 1.8632152 1.9317343 2.0408413 1.8771305 1.8630358
1.7785059 1.960526 1.8754596 1.8311319 1.7523153 1.9689217 1.7241764 1.6869646
1.8242527 1.7286469 1.8574978 1.8665117 1.9718478 1.7677834 2.0003068 1.8922602
2.0393229 1.7921277 1.9097077 1.8881673 1.6952261 2.0164356 2.0377157 1.7938799
1.9351707 1.9468951 1.8205028 1.7179554 2.0050151 1.8392574 1.8068191 1.9930165
-2.0201783 -1.953435 -1.8987284 -1.9351012 -1.8480469 -1.9228812 -1.7908006 -2.0897827
-1.9854952 -2.1084626 -2.092063 -1.8659618 -1.8512466 -2.012324 -2.08851 -1.8102715
-2.09007 -2.0870872 -1.9393424 -2.0840805 -1.9876239 -1.9664181 -1.9223984 -1.8493849
-2.0125844 -1.8837415 -1.9653012 -1.9700949 -1.942305 -1.9731789 -1.8583105 -1.9386039
-1.9900279 -1.764633 -1.9755948 -1.8725088 -1.8056804 -1.6877398 -1.9649754 -1.671607
-1.7156435 -1.7924905 -1.7312577 -1.7359471 -1.8080251 -1.9220774 -1.7121712 -1.8034495
-1.9369278 -1.9378341 -1.9653422 -1.9734415 -1.7559654 -1.7844098 -1.6995362 -1.7387487
-2.0213265 -2.031721 -1.9781578 -1.8306156 -1.9697633 -1.955686 -1.9961834 -1.7692147
1.8540814 1.7093548 1.7962598 1.9599915 1.8914666 1.8400489 1.9951893 1.9906603
1.9537995 1.840808 1.7582561 1.9683778 1.7520865 1.8984475 1.8073182 1.9605873
1.7751582 2.0381992 1.8456516 1.9741378 2.031682 1.7089028 2.025878 1.7980684
1.7847756 1.8378301 1.7965488 1.7951627 1.6925547 2.027773 1.7858301 1.7722442
00000000: c25c efbf 581b 04c0 a88b e8bf 4b6e ebbf
00000010: f52a ffbf 7455 f5bf 14c9 f6bf 3393 fcbf
00000020: e571 ebbf 3984 edbf 84fa f2bf 3a45 00c0
00000030: a354 fbbf 1e09 f1bf d178 dfbf 4cac f9bf
00000040: f499 f3bf 581a e3bf 385e f9bf 2030 f1bf
00000050: c708 01c0 d2e5 e3bf a36e ebbf e8c5 06c0
00000060: 946a f5bf e0a0 04c0 94d0 02c0 9872 eabf
00000070: cc18 febf 6631 e5bf 99ae febf 1fa7 04c0
00000080: cc79 ed3f 6133 ee3f c726 0b40 d951 e83f
00000090: d842 0940 cb54 0440 a083 0340 3087 f03f
000000a0: 00a1 fc3f e66e 0140 5820 0440 28c6 0240
000000b0: 2399 0340 88b2 ee3f 0106 0740 fe17 0540
000000c0: 91df 0240 1206 0040 6579 eb3f 6760 0340
000000d0: bccf 0140 e022 0940 bdd7 0640 2ae4 0840
000000e0: 1b4c 0b40 2f64 ed3f 6c32 fc3f cd55 0340
000000f0: c796 f73f f60f f83f c7de 0440 2714 0140
00000100: ade9 f7bf 650b 01c0 b8bc e0bf 121d dabf
00000110: ddaa e7bf cc91 dabf 3147 f8bf 4f38 fabf
00000120: e539 ebbf e175 04c0 da91 f5bf 5d03 e9bf
00000130: 0499 f0bf 9252 e0bf cef7 f4bf 7aa4 efbf
00000140: 8e78 02c0 ffc7 f3bf a374 debf 55d8 00c0
00000150: 7690 edbf 06bb ebbf be87 f1bf a547 f6bf
00000160: a2dd f0bf 0c8b e2bf 791d fdbf 8259 00c0
00000170: d50a dcbf 8173 f5bf 4879 eabf 55bf e1bf
00000180: e175 df3f e7a5 0340 16aa 0440 892a e23f
00000190: d9e9 ed3f 9373 e73f d9f0 e73f d2db f63f
000001a0: 163a e23f 0884 fc3f ce97 ec3f e32b ef3f
000001b0: 6f42 f83f 3dff e73f 14a5 f93f 3ef1 f73f
000001c0: f59e e13f ed7a e23f c0fe fd3f 971b e23f
000001d0: b023 ea3f 0333 dd3f 9e8b f83f fd62 f83f
000001e0: 6d83 f83f 3474 ee3f b77f 0240 d67d ee3f
000001f0: 1243 f73f 259d 0240 d045 f03f f577 ee3f
00000200: 15a6 e33f 84f2 fa3f 0f0f f03f 8862 ea3f
00000210: de4b e03f a005 fc3f d0b1 dc3f 75ee d73f
00000220: 1d81 e93f 4d44 dd3f 7dc2 ed3f dbe9 ee3f
00000230: 8265 fc3f ba46 e23f 0705 0040 9535 f23f
00000240: 4484 0240 7164 e53f 4d71 f43f 77af f13f
00000250: 2bfd d83f 480d 0140 ef69 0240 db9d e53f
00000260: acb3 f73f dc33 f93f 3c06 e93f f6e5 db3f
00000270: 2b52 0040 c96c eb3f d945 e73f 2a1b ff3f
00000280: 9a4a 01c0 280a fabf 8809 f3bf 65b1 f7bf
00000290: cd8c ecbf f920 f6bf f438 e5bf 00bf 05c0
000002a0: b524 febf 0df1 06c0 5ce4 05c0 d6d7 eebf
000002b0: a6f5 ecbf ebc9 00c0 26aa 05c0 fab6 e7bf
000002c0: b5c3 05c0 d692 05c0 5f3c f8bf 9361 05c0
000002d0: 766a febf 97b3 fbbf 2711 f6bf a5b8 ecbf
000002e0: 2fce 00c0 711e f1bf fd8e fbbf 122c fcbf
000002f0: 739d f8bf 2091 fcbf 1edd edbf 2c24 f8bf
00000300: 3cb9 febf 7fdf e1bf 4ae0 fcbf 5eae efbf
00000310: 8920 e7bf dc07 d8bf 5084 fbbf 38f7 d5bf
00000320: 359a dbbf 5470 e5bf da99 ddbf 8433 debf
00000330: 5e6d e7bf a206 f6bf 6d28 dbbf 6fd7 e6bf
00000340: 40ed f7bf f30a f8bf 5590 fbbf bb99 fcbf
00000350: 79c3 e0bf 8a67 e4bf 678a d9bf 518f debf
00000360: 6a5d 01c0 b807 02c0 4634 fdbf 9d51 eabf
00000370: 3421 fcbf eb53 fabf f082 ffbf a175 e2bf
00000380: 8a52 ed3f 23cc da3f d7eb e53f 00e1 fa3f
00000390: 941b f23f b986 eb3f 5d62 ff3f f5cd fe3f
000003a0: 1a16 fa3f 999f eb3f 890e e13f cef3 fb3f
000003b0: 5f44 e03f 5400 f33f 3456 e73f 86f4 fa3f
000003c0: 6238 e33f db71 0240 503e ec3f 8cb0 fc3f
000003d0: 1407 0240 54bd da3f fca7 0140 1b27 e63f
000003e0: 8773 e43f 043e eb3f 50f5 e53f e4c7 e53f
000003f0: a2a5 d83f 08c7 0140 1596 e43f e6d8 e23f

model.7.bias f4 [16]
-1.658699 1.6522704 -1.5344734 1.5533737 1.4268922 -1.7241452 -1.4732757 1.6809479
-1.4534094 -1.5398282 -1.6828552 1.7400684 1.4110258 1.5359435 -1.7867949 -1.644583
00000000: 4050 d4bf 997d d33f a069 c4bf f3d4 c63f
00000010: 67a4 b63f cab0 dcbf 4c94 bcbf 4d29 d73f
00000020: 5209 babf 1719 c5bf cd67 d7bf 90ba de3f
00000030: 7e9c b43f cc99 c43f b2b5 e4bf b281 d2bf

model.8.weight f4 [1, 16]
-2.116987 2.000882 -2.1930459 2.1660948 2.2331192 -2.0637867 -2.2500892 2.2148535
-2.0897586 -2.137117 -2.142772 2.0609362 2.1561184 2.1774046 -2.0025175 -2.0528312
00000000: b77c 07c0 730e 0040 dd5a 0cc0 4ca1 0a40
00000010: 6deb 0e40 1515 04c0 7601 10c0 29c0 0d40
00000020: 9bbe 05c0 86c6 08c0 2d23 09c0 61e6 0340
00000030: d8fd 0940 995a 0b40 3f29 00c0 9661 03c0

exp_avg f4 [8]
6572.868 7327.786 8720.538 -13135.637 749.79285 1312.6412 -8239.037 -2846.8179
00000000: f266 cd45 4afe e445 2742 0846 8c3e 4dc6
00000010: be72 3b44 8514 a444 26bc 00c6 16ed 31c5

exp_avg_sq f4 [8]
3.7971436e+09 5.138094e+09 3.3219796e+09 2.558487e+09 7.7158163e+08 1.7709443e+08 6.39595e+09 3.5288535e+09
00000000: d053 624f 8c20 994f 6301 464f 6a7f 184f
00000010: 9bf5 374e f2e3 284d 3a9d be4f 0856 524f

exp_avg f4 [8]
-0.0032554553 0.0006773388 -0.0005150531 -0.00050797465 -0.0004290514 -0.0007729607 0.0013291831 -0.00018741318
00000000: 7a59 55bb 708f 313a a104 07ba 9a29 05ba
00000010: 4ef2 e0b9 84a0 4aba fc37 ae3a 5884 44b9

exp_avg_sq f4 [8]
7.4050644e-05 6.035729e-05 4.862385e-05 6.761082e-05 1.3614463e-05 6.012764e-05 0.00013006775 6.410195e-05
00000000: a34b 9b38 2628 7d38 76f1 4b38 48ca 8d38
00000010: ac69 6437 9031 7c38 cc62 0839 796e 8638

exp_avg f4 [16, 8]
15267.364 7050.014 9750.025 12597.566 5331.246 -3316.3691 310.25543 15443.269
-23690.48 -37065.867 -32268.41 16368.419 4893.2764 -480.4653 -8368.656 21972.219
18195.725 11055.656 18840.262 1057.3285 -4287.9536 -872.18274 12247.463 -127.767365
-4359.6655 -133.31824 -640.84546 -1454.4203 3188.4758 211.10558 -1167.8748 -2144.1848
-11519.703 -13213.924 -12243.704 11619.797 -5580.476 3797.5012 -13867.756 -8559.123
-6909.504 -7910.127 -6837.367 8858.543 6481.346 -5423.091 12163.2 6087.056
2023.596 3283.6658 1668.4103 4763.9556 1112.9135 -547.32 8720.314 -4160.89
13048.737 16226.797 15425.02 -10289.31 1923.2792 -248.80104 2106.5042 -12890.987
-18204.027 -25558.404 -12642.694 -13336.781 -1397.7318 -1593.5286 -28069.729 14808.372
-3692.248 -4683.4526 -5767.738 -10077.261 -278.39664 5817.861 -3651.623 5121.413
-6093.882 -17120.068 -9240.043 -12968.522 -1613.5254 -3738.985 -14732.971 12699.52
4648.314 -954.87494 1192.4672 5118.285 -5431.243 239.86227 -7826.8364 -5648.4146
-14171.429 -8513.932 -13189.452 -1625.9017 7444.6436 -404.78162 38194.51 -27148.67
-240.65848 1788.5762 96.764084 -3352.0989 1947.9275 127.47109 1838.4868 4656.012
-4321.46 -9204.718 -4641.1084 903.5156 -3205.6013 120.564896 -6519.157 -1193.2074
-2875.0518 598.9051 -2868.0366 1139.8174 867.55914 -2211.2305 -3343.3628 4844.878
00000000: 758d 6e46 1d50 dc45 1a58 1846 44d6 4446
00000010: f899 a645 e845 4fc5 b220 9b43 134d 7146
00000020: f614 b9c6 dec9 10c7 d218 fcc6 adc1 7f46
00000030: 36ea 9845 8f3b f0c3 a0c2 02c6 70a8 ab46
00000040: 7327 8e46 a0be 2c46 8630 9346 832a 8444
00000050: a1ff 85c5 b20b 5ac4 da5d 3f46 e488 ffc2
00000060: 533d 88c5 7851 05c3 1c36 20c4 73cd b5c4
00000070: 9d47 4745 071b 5343 fefb 91c4 f502 06c5
00000080: d0fe 33c6 b277 4ec6 d14e 3fc6 308f 3546
00000090: cf63 aec5 0558 6d45 06af 58c6 7ebc 05c6
000000a0: 08ec d7c5 0431 f7c5 f0aa d5c5 2c6a 0a46
000000b0: c58a ca45 ba78 a9c5 cd0c 3e46 7338 be45
000000c0: 12f3 fc44 a73a 4d45 218d d044 a5df 9445
000000d0: 3b1d 8b44 7bd4 08c4 4241 0846 1f07 82c5
000000e0: f3e2 4b46 308b 7d46 1404 7146 3dc5 20c6
000000f0: ef68 f044 11cd 78c3 11a8 0345 f36b 49c6
00000100: 0e38 8ec6 cfac c7c6 c78a 45c6 2063 50c6
00000110: 6bb7 aec4 ea30 c7c4 754b dbc6 7d61 6746
00000120: f8c3 66c5 9f5b 92c5 e73d b4c5 0b75 1dc6
00000130: c532 8bc3 e3ce b545 f839 64c5 4e0b a045
00000140: 0e6f bec5 23c0 85c6 2c60 10c6 17a2 4ac6
00000150: d0b0 c9c4 c3af 69c5 e233 66c6 146e 4646
00000160: 8342 9145 ffb7 6ec4 f30e 9544 48f2 9f45
00000170: f2b9 a9c5 bedc 6f43 b196 f4c5 5183 b0c5
00000180: b76d 5dc6 ba07 05c6 cf15 4ec6 db3c cbc4
00000190: 26a5 e845 0c64 cac3 8332 1547 5719 d4c6
000001a0: 92a8 70c3 7092 df44 3687 c142 9581 51c5
000001b0: ae7d f344 33f1 fe42 94cf e544 1980 9145
000001c0: ae0b 87c5 dfd2 0fc6 de08 91c5 00e1 6144
000001d0: 9f59 48c5 3a21 f142 42b9 cbc5 a326 95c4
000001e0: d4b0 33c5 edb9 1544 9640 33c5 287a 8e44
000001f0: c9e3 5844 b033 0ac5 cef5 50c5 0667 9745

exp_avg_sq f4 [16, 8]
9.068338e+09 1.0313688e+10 9.759542e+09 1.0125227e+10 1.6277243e+09 9.538694e+08 1.237037e+10 9.153971e+09
1.3121929e+10 1.4977441e+10 1.6682187e+10 2.9615334e+09 4.397116e+09 2.5343211e+08 3.643314e+09 2.8991408e+10
3.5214802e+09 4.6361354e+09 3.847407e+09 1.8042141e+09 6.2668666e+08 9.601118e+07 5.138336e+09 5.1650253e+09
2.5055084e+09 3.0560305e+09 2.4527521e+09 2.2296512e+09 4.2763805e+08 2.4107685e+08 4.697272e+09 1.7323494e+09
1.5876638e+10 1.6844742e+10 1.5268892e+10 5.6511135e+09 1.8432644e+09 1.3192095e+09 1.8251682e+10 1.4403978e+10
1.5950872e+09 2.002057e+09 1.75177e+09 1.9129656e+09 4.498598e+08 3.3884416e+08 1.5921212e+09 8.559671e+08
9.023273e+07 7.932939e+07 7.751688e+07 6.680669e+08 7.181621e+07 3.0612462e+07 4.413717e+08 7.547549e+08
1.4057901e+09 1.514093e+09 1.516984e+09 4.9668317e+08 1.649694e+08 1.373792e+08 5.2650768e+08 9.27748e+08
2.8460157e+10 3.232958e+10 3.102297e+10 3.550467e+10 6.984096e+09 6.5040237e+08 3.5619095e+10 3.001806e+10
3.0834e+09 3.480509e+09 2.8073587e+09 5.7874253e+09 9.429456e+08 1.5505399e+09 2.3804214e+09 2.762706e+09
7.091442e+09 1.0096043e+10 9.268351e+09 1.3303904e+10 2.9139963e+09 2.2162589e+08 2.135662e+10 1.8748994e+10
1.909556e+08 2.6601451e+08 3.1726093e+08 2.379322e+09 3.488282e+08 2.8760834e+07 1.5590004e+09 1.6677348e+09
1.9546226e+09 2.7280407e+09 3.393158e+09 1.226285e+10 2.4972867e+09 2.7974166e+08 1.191213e+10 2.0231414e+10
1.7175441e+09 2.0773299e+09 1.8151686e+09 2.845218e+09 5.504904e+08 1.0041601e+08 9.0531846e+08 2.1173501e+09
2.3583173e+09 2.9299361e+09 2.47268e+09 4.5653837e+09 1.5461714e+09 4.0906188e+07 4.3311334e+09 2.823548e+09
1.1454195e+09 1.4513601e+09 1.1138939e+09 3.224989e+09 3.1945184e+08 2.0195747e+08 5.445346e+09 1.1279671e+10
00000000: f720 0750 99af 1950 b36d 1150 ade0 1650
00000010: 340a c24e 916b 634e 3755 3850 a167 0850
00000020: 3088 4350 672e 5f50 7e95 7850 6a85 304f
00000030: 550b 834f 13b1 714d 8f28 594f b900 d850
00000040: 86e5 514f e82a 8a4f c652 654f 3f14 d74e
00000050: eb69 154e 7620 b74c 6422 994f 04ee 994f
00000060: 0657 154f 5327 364f 0732 124f c7e5 044f
00000070: e9e9 cb4d a7e8 654d 57fd 8b4f 1c83 ce4e
00000080: 9194 6c50 9701 7b50 3386 6350 936a a84f
00000090: f7bb db4e 1443 9d4e 52fc 8750 d1a2 5650
000000a0: 3326 be4e eea9 ee4e c7d3 d04e 140b e44e
000000b0: 8782 d64d d092 a14d afcb bd4e 1614 4c4e
000000c0: f31a ac4c 0e4f 974c 0ada 934c 9147 1f4e
000000d0: 82fa 884c f78d e94b 6276 d24d 95f2 334e
000000e0: 4f95 a74e 747e b44e aed6 b44e 45d6 ec4d
000000f0: bc53 1d4d d803 034d f50e fb4d 3e31 5d4e
00000100: 710b d450 c8df f050 9f23 e750 e443 0451
00000110: 6c24 d04f 6911 1b4e 04b1 0451 e8a6 df50
00000120: f3c8 374f 5a74 4f4f e554 274f 8d7a ac4f
00000130: d5d0 604e b9d6 b84e 59e2 0d4f 8cab 244f
00000140: 6957 d34f 5971 1650 f41b 0a50 5e3e 4650
00000150: 0eb0 2d4f e25b 534d 851e 9f50 deb0 8b50
00000160: 051c 364d f3b0 7d4d 2448 974d 93d1 0d4f
00000170: 9155 a64d 816d db4b ebd8 b94e 3acf c64e
00000180: 5902 e94e 999a 224f 7b3f 4a4f 0fbb 3650
00000190: 92d9 144f 2764 854d 2b81 3150 5cbc 9650
000001a0: 49bf cc4e 14a3 f74e 8d62 d84e 9596 294f
000001b0: 443f 034e 4187 bf4c 41d8 574e 6668 fc4e
000001c0: 1191 0c4f 47a3 2e4f 1a62 134f 1d0f 884f
000001d0: 6851 b84e 730b 1c4c ed13 814f ec4b 284f
000001e0: 6e8b 884e ff03 ad4e 58c9 844e 6d39 404f
000001f0: 9653 984d 069a 404d b148 a24f 8814 2850

exp_avg f4 [16]
0.0035859153 -0.0025546197 0.00030195044 0.0013742446 -0.00037765948 0.0007034762 0.00041469344 6.168514e-05
0.00013754 -0.0010518153 0.0008333327 -0.003507511 0.000556536 0.0018490587 0.0010085334 -0.00090802927
00000000: ad01 6b3b 686b 27bb 1a4f 9e39 ff1f b43a
00000010: 9900 c6b9 7d69 383a 366b d939 f55c 8138
00000020: 9d38 1039 11dd 89ba 0374 5a3a 45de 65bb
00000030: 80e4 113a 1d5c f23a c430 843a d008 6eba

exp_avg_sq f4 [16]
0.000112801834 0.00020044552 4.0604606e-05 2.4918221e-05 9.975399e-05 2.2632252e-05 4.553659e-06 6.095085e-06
0.00027678724 3.4763863e-05 0.000116117924 1.3257606e-05 0.00010077557 1.6468779e-05 4.0289837e-05 2.6299434e-05
00000000: 0690 ec38 af2e 5239 dd4e 2a38 7907 d137
00000010: 0433 d138 64da bd37 a2cb 9836 6284 cc36
00000020: c11d 9139 6acf 1138 5684 f338 fc6c 5e37
00000030: 7957 d338 6f26 8a37 e2fc 2838 9b9d dc37

exp_avg f4 [16]
4434.1055 3160.5874 2545.8618 12868.04 -2471.1138 -2322.69 1914.0576 -5168.9717
1947.8647 5929.0693 -5169.75 15033.304 -15124.796 1390.712 3390.222 7717.009
00000000: d890 8a45 6689 4545 ca1d 1f45 2910 4946
00000010: d271 1ac5 0a2b 11c5 d841 ef44 c687 a1c5
00000020: ac7b f344 8e48 b945 008e a1c5 37e5 6a46
00000030: 2f53 6cc6 c9d6 ad44 8de3 5345 1228 f145

exp_avg_sq f4 [16]
6.321462e+09 2.7876667e+09 1.8390714e+09 1.7254976e+09 9.509255e+08 6.8278464e+08 4.6742234e+08 2.746255e+08
2.3847519e+09 2.2376187e+09 1.9523736e+09 3.22783e+09 1.2849559e+10 1.0591784e+09 2.0575452e+09 7.885543e+08
00000000: ed64 bc4f 6b28 264f 013c db4e 02b2 cd4e
00000010: e3b7 624e dec9 224e 64e2 de4d 9ff3 824d
00000020: 6d24 0e4f 5a5f 054f b7bd e84e c764 404f
00000030: 2d79 3f50 1e87 7c4e 4c47 f54e 8901 3c4e

exp_avg f4 [16]
5598.7827 -661.2269 -4690.249 2095.9412 -4646.967 1092.4862 1543.8679 -3750.2363
7731.4814 -1062.8973 1285.9224 22153.732 -11579.236 -1488.2042 7463.646 1954.7911
00000000: 43f6 ae45 864e 25c4 fe91 92c5 0fff 0245
00000010: bc37 91c5 8f8f 8844 c6fb c044 c863 6ac5
00000020: da9b f145 b7dc 84c4 84bd a044 7713 ad46
00000030: f2ec 34c6 8906 bac4 2b3d e945 5159 f444

exp_avg_sq f4 [16]
5.124019e+09 3.6436864e+09 8.768677e+08 5.695716e+08 8.80897e+08 5.5668845e+08 2.7786134e+08 2.1484648e+08
4.3687736e+09 1.0567478e+09 2.4202734e+09 1.8861693e+09 4.781946e+09 5.917828e+08 1.2550551e+09 3.034492e+08
00000000: 2ab5 984f 3e2e 594f c20f 514e e4cb 074e
00000010: b005 524e 91b9 044e 9f7e 844d c1e4 4c4d
00000020: 1933 824f c4f2 7b4e 7142 104f 52d9 e04e
00000030: 5a83 8e4f 8e17 0d4e 3e9d 954e 24b2 904d

exp_avg f4 [32, 16]
-4885.785 -497.3212 11511.317 15084.667 16375.722 -2043.0712 -4880.881 -107.34512
-2868.2656 -82.1525 -4449.2983 -2275.9976 -12143.668 -2458.196 -2123.768 17511.127
-300.33804 3535.688 14399.425 15996.263 22331.553 -3840.924 569.92474 7634.535
1443.3728 -9326.756 -69.74614 6219.397 4479.604 -11490.539 -5478.1465 26875.814
-5548.717 -1613.521 -2723.023 93.332695 -2.2851534 2847.2786 -330.48758 -1534.9702
5814.035 6292.7695 2409.612 923.3003 -6382.3174 9054.16 6118.974 5530.059
-7575.76 -2437.61 6507.8096 14647.674 15466.694 5335.9854 520.83 -2729.5261
3441.3955 2170.7974 3369.728 -1529.2244 -6039.352 4828.8823 5949.8423 18159.598
-4187.534 238.53055 10637.959 14162.387 15748.966 -778.3364 -454.50357 -4639.2603
-104.904045 3353.6467 -284.51483 -948.47406 -12510.317 5727.9956 2717.2078 15446.404
-8449.781 -1534.1818 8365.499 15962.783 17337.64 5065.598 -1212.5813 -3885.2827
2642.3022 2589.2668 2366.9187 -2514.6426 -7669.2656 4880.1475 4537.314 19496.236
-4542.7827 -879.8514 -589.48193 1150.0144 1266.5226 2225.3252 -888.67584 -1593.639
4083.415 4641.988 544.75653 281.8812 -5965.3657 6648.87 3919.6553 4732.818
-349.92245 1746.7201 5971.0605 6424.015 7193.848 789.08887 -1772.0845 4671.8833
198.9917 -2552.3223 -1129.5791 386.4856 -123.79267 -2618.9822 421.0674 11077.12
-4919.4375 3316.815 6543.492 14119.945 16423.283 2296.0857 -2834.5742 176.45297
5524.2285 4311.15 -1231.0406 -2309.6812 -10440.126 7562.453 6925.362 18654.889
-5920.101 -3508.2795 3912.485 13182.485 12757.193 -2300.8787 -4410.5977 -2039.8711
-682.057 -97.25559 -2966.7964 -3770.2651 -12550.16 1496.9553 1246.1178 16329.653
-5579.4414 -1426.4938 11318.334 9158.899 10165.001 1598.8687 3117.5647 -3871.321
1902.7976 1173.738 -242.18723 2617.241 -2830.2273 4832.5474 5054.687 12787.459
-5100.0337 -1093.7723 3931.9216 1185.4332 2575.3555 3747.118 2001.5142 -1878.0913
6784.4604 3932.1775 3675.9888 1292.5739 -3303.6326 3223.346 4900.833 -416.83856
1553.6469 4453.5054 8981.368 10239.615 10988.009 -3758.106 -3182.541 7949.919
-3310.4702 -9900.124 -6310.069 1341.3987 -348.55725 -5008.311 -2288.8535 14290.483
-6488.647 841.15497 4802.257 15013.537 16989.336 3929.1025 -2671.7805 -857.92017
4244.2515 2367.612 -1148.2423 -2652.5854 -10423.433 5019.634 5827.7373 18098.816
-6449.3545 209.30055 3114.3672 12724.35 14379.382 2622.5806 -1748.652 -3373.6982
2159.0269 134.50482 -1417.2673 -1566.6476 -8367.76 2069.217 2053.675 11798.825
-5143.72 -903.92303 -1586.1101 244.17403 340.6587 3668.591 -335.72513 -1885.2753
5930.281 7543.651 1976.9724 1010.0919 -6472.7104 9159.162 5990.5205 3877.97
00000000: 48ae 98c5 1da9 f8c3 45dd 3346 abb2 6b46
00000010: e3de 7f46 4762 ffc4 0c87 98c5 b4b0 d6c2
00000020: 4044 33c5 144e a4c2 630a 8bc5 f63f 0ec5
00000030: acbe 3dc6 23a3 19c5 4abc 04c5 41ce 8846
00000040: 452b 96c3 02fb 5c45 b3fd 6046 0df1 7946
00000050: 1b77 ae46 c90e 70c5 2f7b 0e44 4894 ee45
00000060: ee6b b444 06bb 11c6 067e 8bc2 2d5b c245
00000070: d5fc 8b45 288a 33c6 2c31 abc5 a1f7 d146
00000080: bc65 adc5 acb0 c9c4 5e30 2ac5 57aa ba42
00000090: f43f 12c0 75f4 3145 693e a5c3 0cdf bfc4
000000a0: 48b0 b545 28a6 c445 cb99 1645 38d3 6644
000000b0: 8a72 c7c5 a478 0d46 cb37 bf45 79d0 ac45
000000c0: 14be ecc5 c359 18c5 7a5e cb45 b2de 6446
000000d0: c7aa 7146 e2bf a645 1f35 0244 6b98 2ac5
000000e0: 5416 5745 c2ac 0745 a69b 5245 2e27 bfc4
000000f0: d1ba bcc5 0fe7 9645 bdee b945 32df 8d46
00000100: 46dc 82c5 d287 6e43 d637 2646 8c49 5d46
00000110: dd13 7646 8895 42c4 7540 e3c3 15fa 90c5
00000120: dfce d1c2 599a 5145 e641 8ec3 571e 6dc4
00000130: 4579 43c6 f7ff b245 53d3 2945 9e59 7146
00000140: 2007 04c6 d1c5 bfc4 ffb5 0246 226b 7946
00000150: 4873 8746 c94c 9e45 9a92 97c4 86d4 72c5
00000160: d624 2545 45d4 2145 b3ee 1345 482a 1dc5
00000170: 20aa efc5 2e81 9845 83ca 8d45 7950 9846
00000180: 43f6 8dc5 7df6 5bc4 d85e 13c4 76c0 8f44
00000190: b950 9e44 3415 0b45 412b 5ec4 7334 c7c4
000001a0: a436 7f45 e70f 9145 6b30 0844 cbf0 8c43
000001b0: ed6a bac5 f6c6 cf45 7cfa 7445 8be6 9345
000001c0: 13f6 aec3 0b57 da44 7c98 ba45 1fc0 c845
000001d0: c9ce e045 b045 4544 b482 ddc4 11ff 9145
000001e0: e0fd 4643 2885 1fc5 8832 8dc4 283e c143
000001f0: d995 f7c2 b7af 23c5 a188 d243 7b14 2d46
00000200: 80bb 99c5 0a4d 4f45 f07b cc45 c89f 5c46
00000210: 914e 8046 5f81 0f45 3029 31c5 f673 3043
00000220: d4a1 ac45 33b9 8645 4de1 99c4 e65a 10c5
00000230: 8120 23c6 a053 ec45 e56a d845 c7bd 9146
00000240: cf00 b9c5 7944 5bc5 c387 7445 f1f9 4d46
00000250: c654 4746 0fce 0fc5 c8d4 89c5 e0fb fec4
00000260: a683 2ac4 dd82 c2c2 be6c 39c5 3ea4 6bc5
00000270: a418 44c6 921e bb44 c5c3 9b44 9d26 7f46
00000280: 885b aec5 cd4f b2c4 56d9 3046 991b 0f46
00000290: 01d4 1e46 ccdb c744 09d9 4245 23f5 71c5
000002a0: 86d9 ed44 9eb7 9244 ee2f 72c3 db93 2345
000002b0: a3e3 30c5 6104 9745 7ff5 9d45 d6cd 4746
000002c0: 4560 9fc5 b7b8 88c4 bfbe 7545 dd2d 9444
000002d0: b0f5 2045 e331 6a45 7430 fa44 ecc2 eac4
000002e0: af03 d445 d7c2 7545 d2bf 6545 5d92 a144
000002f0: 1f7a 4ec5 8975 4945 aa26 9945 566b d0c3
00000300: b334 c244 0b2c 8b45 7955 0c46 76fe 1f46
00000310: 09b0 2b46 b2e1 6ac5 a8e8 46c5 5a6f f845
00000320: 86e7 4ec5 7fb0 1ac6 8d30 c5c5 c2ac a744
00000330: 5447 aec3 7d82 9cc5 a80d 0fc5 ef49 5f46
00000340: 2dc5 cac5 eb49 5244 0e12 9645 2696 6a46
00000350: acba 8446 a491 7545 7dfc 26c5 e47a 56c4
00000360: 03a2 8445 cbf9 1345 c187 8fc4 5ec9 25c5
00000370: bbdd 22c6 12dd 9c45 e61d b645 a265 8d46
00000380: d68a c9c5 f14c 5143 e0a5 4245 66d1 4646
00000390: 87ad 6046 4ae9 2345 dd94 dac4 2cdb 52c5
000003a0: 6ef0 0645 3c81 0643 8e28 b1c4 b9d4 c3c4
000003b0: 0abf 02c6 7953 0145 cd5a 0045 4d5b 3846
000003c0: c3bd a0c5 13fb 61c4 8643 c6c4 8d2c 7443
000003d0: 5054 aa43 7549 6545 d1dc a7c3 cfa8 ebc4
000003e0: 3f52 b945 35bd eb45 1e1f f744 e285 7c44
000003f0: af45 cac5 a61c 0f46 2a34 bb45 855f 7245

exp_avg_sq f4 [32, 16]
1.6784692e+09 1.9067694e+09 3.568887e+09 2.3149412e+09 2.4579144e+09 7.544274e+08 9.665239e+08 1.1041518e+09
1.5432788e+09 6.022262e+08 1.3768812e+09 1.4225987e+09 3.033645e+09 3.6650928e+08 4.3437866e+08 2.207135e+09
1.9526925e+09 2.6443602e+09 1.167677e+10 8.822681e+09 8.609922e+09 1.7592515e+09 3.6363446e+09 1.8093496e+09
5.8756654e+09 2.8653087e+09 4.6092897e+09 2.7193495e+09 1.0064465e+10 5.026688e+09 2.5536484e+09 7.025873e+09
6.1356205e+08 6.719788e+08 4.4532182e+08 1.4801979e+08 1.4888214e+08 6.280132e+08 6.7407885e+08 5.610201e+08
6.0029734e+08 8.5699616e+08 7.9213357e+08 5.1450022e+08 1.3809699e+09 1.0251367e+09 6.5978426e+08 4.3202515e+08
7.818219e+08 8.8277037e+08 1.5563639e+09 1.3794472e+09 1.5606388e+09 8.5784403e+08 5.1765658e+08 1.0025485e+09
8.340642e+08 1.0614093e+09 2.0163846e+08 3.5754112e+08 7.992076e+08 1.5611942e+09 1.01745395e+09 1.6564389e+09
1.5094232e+09 1.1314753e+09 1.8264248e+09 1.496935e+09 1.6000166e+09 5.7187046e+08 8.103293e+08 1.0898191e+09
4.1112563e+08 5.8643706e+08 8.970912e+08 1.1906244e+09 2.6334958e+09 7.136996e+08 4.312533e+08 1.8622634e+09
8.627776e+08 9.8607674e+08 1.744025e+09 1.5849912e+09 1.7907052e+09 8.784512e+08 5.538413e+08 1.0738577e+09
8.6292915e+08 1.0905347e+09 2.0453576e+08 3.923982e+08 9.200905e+08 1.6685125e+09 1.0765577e+09 1.8727153e+09
3.7281382e+08 4.1026902e+08 2.853673e+08 4.969685e+07 5.8384644e+07 3.3408646e+08 4.1856218e+08 3.665944e+08
3.7029232e+08 4.523621e+08 5.3246538e+08 3.1207968e+08 8.777225e+08 5.411617e+08 3.3564714e+08 2.5581373e+08
1.610064e+08 3.3740714e+08 7.520848e+08 6.494381e+08 6.439622e+08 4.8687446e+08 3.0747946e+08 3.3756253e+08
9.640684e+08 6.682086e+08 4.713616e+08 4.1012744e+07 2.9618064e+07 8.540305e+08 4.997801e+08 4.6140666e+08
7.3384723e+08 8.8394496e+08 8.6525664e+08 9.169771e+08 1.1213876e+09 5.8531974e+08 5.4618234e+08 8.369397e+08
4.395402e+08 7.46764e+08 5.531933e+08 3.6890707e+08 8.741183e+08 1.1980973e+09 6.968327e+08 1.2900196e+09
1.075568e+09 1.0508961e+09 2.317456e+09 1.3365336e+09 1.5799688e+09 1.262769e+08 5.5150586e+08 8.102935e+08
1.2126176e+09 3.101236e+07 1.0950216e+09 8.0664186e+08 1.9732772e+09 3.540222e+08 1.6770456e+08 1.3605713e+09
5.5113626e+08 2.012391e+08 1.9140698e+09 2.1071949e+09 1.9379361e+09 8.1832915e+08 8.489231e+08 6.779649e+08
1.7813311e+09 1.407897e+09 1.4884246e+09 6.045062e+08 1.8923653e+09 1.6311366e+09 9.787187e+08 1.3348922e+09
4.9247197e+08 4.6765664e+08 5.505445e+08 4.1993008e+08 3.29855e+08 4.0454122e+08 4.7101987e+08 4.0210515e+08
7.2727174e+08 6.2139245e+08 7.161207e+08 3.199724e+08 8.329805e+08 1.012061e+09 5.928801e+08 4.500604e+07
4.922267e+08 1.6006872e+09 3.0072678e+09 2.8891172e+09 2.9199409e+09 1.5596486e+09 9.16111e+08 1.8235045e+09
3.801181e+09 2.1379969e+09 1.6096846e+09 3.8231808e+08 5.986811e+08 2.7614958e+09 1.9195199e+09 2.947708e+09
6.527345e+08 8.248457e+08 8.312953e+08 9.391752e+08 1.156526e+09 6.823945e+08 5.439738e+08 7.033943e+08
2.8053683e+08 7.7750694e+08 4.966832e+08 3.2671216e+08 7.6851085e+08 9.446508e+08 6.430203e+08 1.1941386e+09
8.7077555e+08 9.766861e+08 6.985893e+08 9.8517805e+08 1.0770662e+09 3.7693904e+08 6.785517e+08 7.8192557e+08
2.5323838e+08 5.1145146e+08 5.2754298e+08 6.126695e+08 1.2889345e+09 6.3402714e+08 3.148284e+08 1.259732e+09
6.466057e+08 6.66268e+08 4.136033e+08 1.4245578e+08 1.4074613e+08 6.732885e+08 6.8946554e+08 6.707464e+08
6.52618e+08 8.874615e+08 8.7241446e+08 5.315708e+08 1.4618673e+09 1.036858e+09 6.6647597e+08 4.5457408e+08
00000000: d116 c84e fc4d e34e e5b8 544f 33fb 094f
00000010: cc80 124f 98de 334e f06f 664e 0aa0 834e
00000020: 22f9 b74e f894 0f4e 1423 a44e 4496 a94e
00000030: c0d1 344f e7c3 ae4d bd20 cf4d 358e 034f
00000040: 72c7 e84e bc9d 1d4f 58ff 2d50 db77 0350
00000050: 3f4c 0050 18b8 d14e 37be 584f f8b0 d74e
00000060: c51b af4f 24c9 2a4f 175e 894f fb15 224f
00000070: e3f8 1550 96ce 954f 9535 184f 2863 d14f
00000080: db48 124e 5536 204e 9358 d44d a529 0d4d
00000090: 2efc 0d4d e2ba 154e 82b6 204e f3c1 054e
000000a0: 3e1f 0f4e e552 4c4e ffdb 3c4e 3455 f54d
000000b0: db9f a44e 6169 744e 094e 1d4e 7201 ce4d
000000c0: 9f66 3a4e 0778 524e 7588 b94e 6371 a44e
000000d0: eb0a ba4e a586 4c4e 80d6 f64d b406 6f4e
000000e0: 3ddb 464e 480f 7d4e 244c 404d 287d aa4d
000000f0: c38b 3e4e de1b ba4e 7694 724e 8176 c54e
00000100: f1ef b34e e3e1 864e 10ba d94e d572 b24e
00000110: a2bc be4e 3458 084e 9332 414e a4ea 814e
00000120: 3c0a c44d 47d1 0b4e 1ae2 554e f9ee 8d4e
00000130: f5f7 1c4f c428 2a4e 3aa3 cd4d c5ff dd4e
00000140: c4b3 4d4e 5919 6b4e 6be7 cf4e 18f2 bc4e
00000150: fc77 d54e 6870 514e ca0b 044e 8903 804e
00000160: 04bd 4d4e 7a00 824e 7d0f 434d 2c1c bb4d
00000170: de5d 5b4e f6e6 c64e ef55 804e bc3e df4e
00000180: 80c5 b14d aba1 c34d e012 884d 1494 3d4c
00000190: 41b8 5e4c 0a4e 9f4d 0496 c74d 4bce ae4d
000001a0: b391 b04d fcb3 d74d 37e6 fd4d aacf 944d
000001b0: ee43 514e e405 014e 8d0c a04d 86f6 734d
000001c0: 348c 194d 65e3 a04d 9d4f 334e 8ed6 1a4e
000001d0: 5588 194e eb28 e84d 1d9e 924d 5df6 a04d
000001e0: 11da 654e 3750 1f4e 42c3 e04d 8273 1c4c
000001f0: c8f7 e14b e39d 4b4e 5050 ee4d 0e04 dc4d
00000200: 7bf6 2e4e b8bf 524e 134b 4e4e d79f 5a4e
00000210: 09ae 854e 158d 0b4e 5338 024e bf8a 474e
00000220: cf96 d14d dc0a 324e 3de4 034e 9ae8 af4d
00000230: f267 504e 07d3 8e4e 4b23 264e 46c8 994e
00000240: bb37 804e 9c8d 7a4e 9221 0a4f c553 9f4e
00000250: d258 bc4e a4da f04c 3f7d 034e 6430 414e
00000260: 278e 904e 049b ec4b 6889 824e 8351 404e
00000270: a43b eb4e 9acf a84d 7fef 1f4d 5731 a24e
00000280: b066 034e a4ea 3f4d c62c e44e 7c32 fb4e
00000290: 1e05 e74e d91a 434e 2766 4a4e b2a3 214e
000002a0: e959 d44e 9bd5 a74e 1d6f b14e 2120 104e
000002b0: 6896 e14e 5772 c24e 4058 694e ad21 9f4e
000002c0: 35d4 ea4d fefe de4d 9242 034e ff3c c84d
000002d0: 8149 9d4d 79e6 c04d 8b99 e04d 1abd bf4d
000002e0: 2565 2d4e c926 144e 8abc 2a4e 2293 984d
000002f0: 1899 464e 4d4b 714e 885a 0d4e 36af 2b4c
00000300: 44b6 ea4d 19d1 be4e 443f 334f 6e34 2c4f
00000310: c30a 2e4f b3ec b94e fa6a 5a4e f160 d94e
00000320: 6b91 624f 7dde fe4e ade3 bf4e b04d b64d
00000330: 98bc 0e4e 1599 244f 19d3 e44e 74b2 2f4f
00000340: c19f 1b4e 96a8 444e 3d32 464e b4ea 5f4e
00000350: 5fde 894e 0eb2 224e 87b1 014e c8b3 274e
00000360: 38c5 854d 425f 394e 46d6 ec4d dbc9 9b4d
00000370: 2e3a 374e e938 614e d84e 194e 385a 8e4e
00000380: ec9b 4f4e 30dc 684e 828e 264e 7fe2 6a4e
00000390: 7465 804e 11bd b34d 82c7 214e f36c 3a4e
000003a0: c781 714d 0ae1 f34d 568d fb4d 6112 124e
000003b0: 29a7 994e f229 174e 341f 964d f82b 964e
000003c0: ae29 1a4e c6d9 1e4e af38 c54d 3edb 074d
000003d0: d939 064d 4586 204e a361 244e 1ceb 1f4e
000003e0: a498 1b4e 5a96 534e f4ff 4f4e 0479 fd4d
000003f0: a644 ae4e ca34 774e 77e6 1e4e 00c2 d84d

exp_avg f4 [32]
-0.007066968 -0.008979744 -0.0035014262 -0.0027016983 5.41334e-05 0.00823641 0.0006861978 0.00025173245
-0.0030751296 -0.0004955191 0.0060334182 0.0011768528 0.00079453527 -0.0024912048 -0.0029331457 -0.0038899614
-0.01699865 0.0018143309 -0.0033475845 -0.0064929645 -0.007619429 -0.0019995912 -0.00044379666 0.006873893
-0.003109231 -0.0024066255 -0.0018350433 0.0027097862 0.004828966 -0.011930979 -0.0021894986 0.0021718652
00000000: 0692 e7bb c71f 13bc 2f78 65bb fa0e 31bb
00000010: 4c0d 6338 02f2 063c f4e1 333a f5fa 8339
00000020: 1d88 49bb b9e5 01ba fbb3 c53b a140 9a3a
00000030: 5c48 503a 7b43 23bb 053a 40bb b9ee 7ebb
00000040: c140 8bbc d8ce ed3a 2663 5bbb efc2 d4bb
00000050: 67ac f9bb 930b 03bb 61ad e8b9 653e e13b
00000060: 3dc4 4bbb 7ab8 1dbb d685 f0ba ab96 313b
00000070: 4e3c 9e3b 277a 43bc b17d 0fbb da55 0e3b

exp_avg_sq f4 [32]
0.0011581569 0.0031980886 0.0005683174 0.0013579625 0.0008414766 0.0010842356 0.0002926489 0.0006496487
0.0012727488 0.0009862416 0.00086665765 0.00043061102 0.0024630546 0.0009772124 0.0009580244 0.0005738748
0.005675825 0.0004555323 0.0004452999 0.0016115461 0.0005582798 0.00049718685 0.00075585133 0.00093162456
0.00078899716 0.0005588198 0.0005380618 0.000553639 0.0011586577 0.0012875849 0.00037760666 0.00072278944
00000000: 4ccd 973a 0697 513b 23fb 143a a9fd b13a
00000010: 8a96 5c3a e91c 8e3a ac6e 9939 304d 2a3a
00000020: 5dd2 a63a c744 813a 6930 633a a2c3 e139
00000030: 336b 213b cf15 803a ee23 7b3a 1670 163a
00000040: 45fc b93b 83d4 ee39 2477 e939 843a d33a
00000050: 8659 123a a555 023a 5324 463a 4438 743a
00000060: b4d4 4e3a c37d 123a b70c 0d3a 1622 113a
00000070: 1ade 973a 2ec4 a83a 82f9 c539 9479 3d3a

exp_avg f4 [32]
-8061.481 -6687.77 -7018.3867 -4768.8477 -5425.294 -5324.987 -6697.214 -5185.4253
-5325.856 -7125.476 -5744.149 -7907.5493 -4632.914 -4886.313 -5529.912 -6626.855
-6326.092 -6535.006 -5064.413 -6805.594 -4948.9214 -6127.8433 -5624.4727 -7631.1504
-5111.8174 -6068.79 -5451.3447 -6459.252 -4582.214 -6862.569 -4894.216 -5603.716
00000000: d9eb fbc5 29fe d0c5 1853 dbc5 c806 95c5
00000010: 5a8a a9c5 e567 a6c5 b649 d1c5 670b a2c5
00000020: d96e a6c5 cfab dec5 3181 b3c5 651c f7c5
00000030: 50c7 90c5 81b2 98c5 4ccf acc5 d716 cfc5
00000040: bcb0 c5c5 0c38 ccc5 4e43 9ec5 c1ac d4c5
00000050: 5fa7 9ac5 bf7e bfc5 c8c3 afc5 3479 eec5
00000060: 8abe 9fc5 52a6 bdc5 c25a aac5 04da c9c5
00000070: b631 8fc5 8d74 d6c5 baf1 98c5 ba1d afc5

exp_avg_sq f4 [32]
2.3958118e+09 2.2415132e+09 2.458403e+09 2.2690074e+09 2.2246976e+09 2.3497672e+09 2.5089065e+09 2.3801142e+09
2.2702812e+09 2.2997916e+09 2.587772e+09 2.5107482e+09 2.3934095e+09 2.2210012e+09 2.3616648e+09 2.4903206e+09
2.268362e+09 2.4642995e+09 2.362621e+09 2.416037e+09 2.2355648e+09 2.2563948e+09 2.6224986e+09 2.5972477e+09
2.036952e+09 2.64202e+09 2.3694252e+09 2.430898e+09 2.175404e+09 2.2719677e+09 2.2402578e+09 2.5671913e+09
00000000: 30cd 0e4f c79a 054f 4188 124f 4e3e 074f
00000010: 319a 044f 9a0e 0c4f e08a 154f a9dd 0d4f
00000020: be51 074f 0914 094f 443e 1a4f faa6 154f
00000030: 88a8 0e4f ca61 044f 25c4 0c4f 476f 144f
00000040: 7534 074f 3ae2 124f bcd2 0c4f cd01 104f
00000050: 0340 054f da7d 064f 2750 1c4f dbce 1a4f
00000060: d8d2 f24e 077a 1d4f 8f3a 0d4f 8fe4 104f
00000070: 08aa 014f 7a6b 074f 9f87 054f 3b04 194f

exp_avg f4 [32]
-11058.453 -14476.942 -13299.186 -11851.706 -12920.3955 -11385.231 -13307.475 -11230.956
-12864.784 -11947.925 -13034.332 -13627.262 -11831.535 -12862.288 -12171.192 -13724.223
-14474.144 -13760.716 -11679.164 -12016.019 -11475.979 -11634.134 -13353.298 -13989.156
-14155.709 -13139.967 -12995.266 -13481.077 -14348.629 -11854.74 -11561.246 -13401.594
00000000: d0c9 2cc6 c533 62c6 becc 4fc6 d32e 39c6
00000010: 95e1 49c6 ede4 31c6 e6ed 4fc6 d37b 2fc6
00000020: 2303 49c6 b3af 3ac6 54a9 4bc6 0ced 54c6
00000030: 24de 38c6 27f9 48c6 c52c 3ec6 e470 56c6
00000040: 9328 62c6 dd02 57c6 a87c 36c6 13c0 3bc6
00000050: ea4f 33c6 89c8 35c6 31a5 50c6 a094 5ac6
00000060: d62e 5dc6 de4f 4dc6 100d 4bc6 4fa4 52c6
00000070: 8432 60c6 f63a 39c6 fca4 34c6 6066 51c6

exp_avg_sq f4 [32]
9.076662e+09 9.984322e+09 9.122046e+09 8.282339e+09 8.93558e+09 8.481388e+09 9.354396e+09 9.728075e+09
9.116652e+09 9.697185e+09 9.240879e+09 9.066561e+09 8.977204e+09 8.854751e+09 8.690549e+09 9.1959e+09
1.0024029e+10 9.185156e+09 1.0024519e+10 9.524225e+09 9.302233e+09 8.4465183e+09 9.615716e+09 8.850625e+09
9.994584e+09 9.048357e+09 9.23532e+09 8.990802e+09 1.0428813e+10 8.942823e+09 9.456587e+09 9.135243e+09
00000000: b840 0750 2ac7 1450 d8ed 0750 3bd5 f64f
00000010: 8826 0550 dbc3 fc4f 3064 0b50 a9f5 1050
00000020: 44d9 0750 d37f 1050 28b3 0950 2f1a 0750
00000030: 51c5 0550 32f2 0350 d07f 0150 9307 0950
00000040: a35e 1550 97de 0850 8160 1550 09ec 0d50
00000050: 349d 0a50 d2b9 fb4f 0c49 0f50 74e2 0350
00000060: 50ee 1450 bed4 0650 f39d 0950 30f9 0550
00000070: c466 1b50 2a42 0550 04ea 0c50 3020 0850
