lightning_logs/version_0/checkpoints/epoch=99-step=1600.ckpt (torch, 37072 bytes, 45 tensors)

model.0.weight f4 [8]
1.3156149 0.9227486 1.2021096 0.65363795 0.6214635 0.9767857 0.9083122 1.0174723
00000000: 1266 a83f 4139 6c3f bade 993f d154 273f
00000010: 3b18 1f3f a10e 7a3f 2687 683f 883c 823f

model.0.bias f4 [8]
-0.06594954 -0.02932678 0.1253896 -0.0015255308 -0.03310962 -0.0042467644 -0.09201481 0.03139059
00000000: 8d10 87bd b73e f0bc 2266 003e 52f4 c7ba
00000010: f49d 07bd 7128 8bbb 4372 bcbd 6b93 003d

model.0.running_mean f4 [8]
5890.039 5941.949 5835.8315 65941.5 9.515485e-05 2022.166 6.584886 16.340338
00000000: 5010 b845 98af b945 a75e b645 c0ca 8047
00000010: df8d c738 50c5 fc44 63b7 d240 03b9 8241

model.0.running_var f4 [8]
68616.516 68927.05 66494.38 1.6819437e+09 0.000115882234 0.064556435 7.931127 74.95954
00000000: 4204 8647 869f 8647 31df 8147 d980 c84e
00000010: cd05 f338 2a36 843d cbcb fd40 49eb 9542

model.1.weight f4 [16, 8]
-0.028805781 0.06525951 0.33857056 -0.003916175 -0.13462858 -0.23932238 -0.19650282 0.17016113
-0.59947765 -0.31005946 -0.15791968 -0.09693422 0.0063806283 0.03082301 0.088860534 -0.10374883
0.09704673 0.30391806 0.31673893 -0.17134309 -0.12071435 -0.2617713 -0.013193047 0.27401936
-0.51750416 -0.0808803 -0.2740054 0.029433852 -0.037709594 -0.14583537 -0.23273809 0.2898706
0.10556359 0.10936003 0.26541528 -0.13687466 -0.020540005 -0.13802385 -0.018649148 0.20745751
0.118528605 0.12924364 -0.34865257 -0.10750396 0.03559227 -0.090896025 0.13354886 -0.31894848
0.24937068 -0.13877292 0.355545 -0.032537576 -0.07416222 -0.025924686 -0.21839614 0.17704995
-0.29612392 -0.19393085 0.0394076 0.039495148 0.0086888885 0.14505216 -0.089037634 0.07867537
-0.28638265 -0.12309235 -0.31682017 -0.21365663 0.04571506 -0.6642354 0.17612754 0.05773624
-0.40725288 -0.04752055 -0.22684327 -0.044223715 0.0044556763 -0.12282086 -0.08258752 0.16175218
0.43303707 -0.03949064 0.28314525 -0.29423016 0.16449286 0.10468752 -0.037417255 0.33033082
-0.42981803 -0.31269696 0.045998737 0.18166132 -0.008648348 -0.054078672 -0.20749699 0.20389256
0.04280702 0.05674812 0.3622667 0.0916182 -0.16262613 0.6756146 -0.2897264 -0.14979313
-0.36454374 -0.21410881 -0.105241746 -0.011187273 0.013328652 0.14969747 -0.10377486 0.12590702
-0.5291148 -0.26892048 -0.25046474 -0.1196032 0.0018334377 -0.122929156 0.029387163 -0.035093542
0.32978296 -0.016297352 0.30002883 -0.09622508 -0.23572294 -0.29360422 0.10857238 0.46583813
00000000: 1afa ebbc c7a6 853d 1f59 ad3e 4253 80bb
00000010: 13dc 09be ed10 75be 0938 49be b83e 2e3e
00000020: 5e77 19bf 1dc0 9ebe b2b5 21be 7385 c6bd
00000030: 9714 d13b 8980 fc3c 83fc b53d 447a d4bd
00000040: 70c0 c63d 269b 9b3e 9b2b a23e 9074 2fbe
00000050: 1639 f7bd e306 86be a627 58bc 444c 8c3e
00000060: 277b 04bf 92a4 a5bd 704a 8cbe 431f f13c
00000070: 6075 1abd de55 15be e552 6ebe eb69 943e
00000080: b931 d83d 27f8 df3d 83e4 873e df28 0cbe
00000090: 8343 a8bc 2056 0dbe 19c6 98bc be6f 543e
000000a0: 20bf f23d 7258 043e 9782 b2be 092b dcbd
000000b0: 33c9 113d b227 babd 08c1 083e 374d a3be
000000c0: 075b 7f3e 7d1a 0ebe ff09 b63e 1f46 05bd
000000d0: 5de2 97bd 0260 d4bc 3da3 5fbe 954c 353e
000000e0: 8e9d 97be cf95 46be dd69 213d aac5 213d
000000f0: d75b 0e3c 8e88 143e 5d59 b6bd 8d20 a13d
00000100: bfa0 92be d817 fcbd 4136 a2be cec8 5abe
00000110: b73f 3b3d 550b 2abf c75a 343e d67c 6c3d
00000120: 7383 d0be e9a4 42bd 9a49 68be ed23 35bd
00000130: ec00 923b 8189 fbbd a523 a9bd 5da2 253e
00000140: 09b7 dd3e f0c0 21bd 6af8 903e 56a5 96be
00000150: d170 283e 6966 d63d d642 19bd 1f21 a93e
00000160: 1c11 dcbe d119 a0be 2c69 3c3d 6d05 3a3e
00000170: cdb1 0dbc 9981 5dbd 177a 54be 36c9 503e
00000180: 6a56 2f3d b770 683d 057b b93e 53a2 bb3d
00000190: 7787 26be 14f5 2c3f 0557 94be 5f63 19be
000001a0: 7aa5 babe 573f 5bbe fc88 d7bd d34a 37bc
000001b0: 6b60 5a3c 4b4a 193e ea87 d4bd c5ed 003e
000001c0: 1174 07bf f2af 89be ea3c 80be 86f2 f4bd
000001d0: f64f f03a 48c2 fbbd 59bd f03c 3fbe 0fbd
000001e0: 50d9 a83e 0682 85bc 619d 993e a811 c5bd
000001f0: 5b61 71be 4b53 96be 325b de3d 5682 ee3e

model.1.bias f4 [16]
0.129145 -0.08916594 0.16659068 -0.1696213 -0.1897989 -0.19544278 -0.03814145 -0.03883459
-0.17571115 0.20429821 -0.11637089 -0.013164207 -0.05130676 0.11224265 0.15457265 0.047587674
00000000: 963e 043e a29c b6bd bf96 2a3e 35b1 2dbe
00000010: a55a 42be 2722 48be 363a 1cbd 0511 1fbd
00000020: a0ed 33be 8d33 513e dc53 eebd b0ae 57bc
00000030: 0a27 52bd 79df e53d 4b48 1e3e 4beb 423d

model.2.weight f4 [16]
0.80656487 0.8456579 0.76761913 0.817239 0.86372066 0.9078813 0.88693523 0.77837044
0.74083847 1.1846224 0.85968304 0.9838122 0.6535661 1.0609262 0.93197095 0.7040572
00000000: 097b 4e3f 097d 583f b082 443f 9336 513f
00000010: cc1c 5d3f e96a 683f 300e 633f 4943 473f
00000020: 97a7 3d3f b5a1 973f 3014 5c3f 1edb 7b3f
00000030: 1c50 273f 6ecc 873f a695 6e3f 183d 343f

model.2.bias f4 [16]
-0.45248836 -0.3608633 0.04941216 -0.7606674 -0.057529617 -0.3440007 0.0974888 -0.77427065
-0.45818403 -0.3955414 -0.052795116 -0.45523396 -0.5585164 -0.24984859 -0.3503309 -0.3890923
00000000: 8eac e7be 13c3 b8be 6864 4a3d 19bb 42bf
00000010: 2da4 6bbd dc20 b0be 35a8 c73d 9a36 46bf
00000020: 1997 eabe 6784 cabe b13f 58bd 6d14 e9be
00000030: eefa 0ebf 4fd8 7fbe 925e b3be 1b37 c7be

model.2.running_mean f4 [16]
0.20217863 -0.07829676 0.21146569 -0.13352937 -0.15647566 -0.2748579 0.024659555 -7.921062e-05
-0.20725703 0.21459761 -0.10032677 0.0544147 0.01778534 0.13729014 0.15995306 0.078078695
00000000: ea07 4f3e 0d5a a0bd 768a 583e ecbb 08be
00000010: 283b 20be 2dba 8cbe d602 ca3c e11d a6b8
00000020: 303b 54be 7abf 5b3e 1f78 cdbd f3e1 5e3d
00000030: 90b2 913c c995 0c3e bcca 233e b9e7 9f3d

model.2.running_var f4 [16]
0.26579142 1.6060232 0.7195338 1.304598 0.3674732 0.1589629 0.5023685 0.29377106
0.9963399 0.7684039 0.9291917 0.7049734 0.66287726 0.6760981 1.5428115 0.85748357
00000000: d015 883e 2b92 cd3f 5e33 383f 11fd a63f
00000010: 7325 bc3e 2cc7 223e 399b 003f 2969 963e
00000020: 2210 7f3f 1eb6 443f 82df 6d3f 2379 343f
00000030: 53b2 293f c414 2d3f d97a c53f 0b84 5b3f

model.4.weight f4 [32, 16]
-0.31921697 -0.00033147782 -0.27511737 -0.100004554 0.1585098 0.063387975 -0.20169397 -0.16060539
-0.03807448 0.12447499 0.17384566 -0.023435034 0.22684038 0.23704623 -0.0655032 -0.12990087
-0.025479723 0.08837304 -0.02899237 0.002679348 0.13085426 0.013726344 0.0713081 0.32827947
0.2304864 -0.28799313 -0.10132001 0.18247196 -0.049678586 -0.046899464 -0.32564285 -0.039621007
-0.07081921 0.077118486 -0.072661035 0.017851137 0.17815061 -0.00057147 0.08261976 0.21464443
0.22814198 -0.47255728 -0.12123403 0.21099305 -0.0449544 0.078173295 -0.18014073 0.006522204
0.02128309 0.07111245 -0.04485967 -0.13753691 0.17800413 -0.2633966 0.08277945 -0.28768668
-0.13136505 0.15373369 -0.084562324 -0.0153426835 -0.07164574 0.060885902 0.023032067 -0.10467098
-0.016480383 0.07169969 0.03854102 -0.042051315 0.050725974 -0.24680178 0.06878953 -0.3383144
-0.1457194 0.11341224 -0.030169629 -0.008081037 -0.064525254 0.014057107 0.1043907 -0.06957435
-0.6111183 0.07990253 -0.3098681 -0.03187427 0.014764105 0.06380521 -0.044700734 -0.071035944
-0.018606192 0.29209563 0.15715112 0.019642428 -0.0572134 0.030120268 -0.17877828 0.11664182
-0.20968573 -0.028537106 -0.22004072 -0.07786049 0.09704916 0.053062182 -0.15487692 -0.129261
-0.04045343 0.10745809 0.122638226 -0.015135878 0.13525309 0.16218694 -0.010939872 -0.07946839
0.0106933955 0.10910276 -0.02794503 -0.5382529 0.17367192 -0.0062457663 0.025491897 0.07421551
0.13532983 -0.09944405 -0.09447474 -0.35012993 -0.02716589 -0.07140489 0.0003184887 -0.05198202
-0.43570203 -0.012071728 -0.16975339 -0.07500414 -0.011844987 0.06618558 -0.17210092 -0.110663414
-0.049275547 0.2704022 0.16247289 0.0526477 0.15697618 0.03557507 -0.05143925 -0.05146259
-0.24202718 -0.11232052 -0.07410766 -0.09522825 0.15103154 0.039073024 -0.24069747 -0.1577152
0.055045817 0.2428655 0.004280863 0.032742497 0.28662717 0.09384811 -0.008513591 -0.289943
0.016549822 -0.0035106356 0.030036476 -0.44663265 -0.014522374 0.0028297151 0.043850385 0.27237797
0.18810023 0.02595619 0.012161162 -0.52757466 -0.03550325 -0.20012677 -0.02750612 0.013585958
-0.03169721 0.08329256 0.062273987 -0.61274713 -0.009942238 0.008559927 0.075260095 0.06212532
-0.08545612 -0.15334997 -0.049594615 0.14878821 -0.030355854 0.1879509 -0.09704945 -0.045292184
0.08554765 0.25221688 -0.03171985 -0.335781 0.0022186062 -0.033336293 -0.04002104 0.10998279
-0.008702311 0.03279963 0.0626491 -0.3812269 -0.0037889248 -0.4072338 0.022344137 0.018692108
-0.34774566 -0.006285564 -0.0022933148 -0.06796799 -0.00067737035 0.024720665 -0.19259723 -0.12142954
0.011911568 0.2525513 -0.06313777 0.0648686 0.15779403 0.013709152 -0.038663905 -0.06906095
-0.08469041 0.2517737 -0.043520812 -0.28965488 0.22840188 -0.01989408 0.08285875 0.0435602
-0.16837755 -0.24979635 -0.16889977 -0.07836446 -0.060236778 0.050099265 -0.064231634 -0.027961776
-0.12591176 0.040252913 0.118484125 -0.07121557 -0.17517675 0.017098079 -0.024284132 -0.05165523
-0.029965453 0.08968495 -0.045236576 -0.03767151 -0.067778856 0.070844606 -0.09487323 0.302811
00000000: 6870 a3be 33ca adb9 2fdc 8cbe 30cf ccbd
00000010: 6550 223e 8ed1 813d dd88 4ebe bd75 24be
00000020: fcf3 1bbd beec fe3d 9904 323e d4fa bfbc
00000030: d848 683e 3fbc 723e 8b26 86bd bc04 05be
00000040: daba d0bc edfc b43d 6881 edbc 0098 2f3b
00000050: a9fe 053e 76e4 603c fb09 923d 3f14 a83e
00000060: a004 6c3e d673 93be de80 cfbd eed9 3a3e
00000070: c67b 4bbd a719 40bd a9ba a6be a349 22bd
00000080: a909 91bd 4cf0 9d3d 4fcf 94bd 8c3c 923c
00000090: 1d6d 363e b4ce 15ba 8c34 a93d c0cb 5b3e
000000a0: 0d9e 693e 07f3 f1be 8c49 f8bd 900e 583e
000000b0: 1b22 38bd 5219 a03d d076 38be 36b8 d53b
000000c0: e059 ae3c 67a3 913d c6be 37bd 7ad6 0cbe
000000d0: b746 363e ebdb 86be 4688 a93d ab4b 93be
000000e0: 8f84 06be 5d6c 1d3e 032f adbd e15f 7bbc
000000f0: 00bb 92bd 7f63 793d bfad bc3c bd5d d6bd
00000100: de01 87bc 49d7 923d 30dd 1d3d 003e 2cbd
00000110: 0ac6 4f3d 9bb9 7cbe 86e1 8c3d 8c37 adbe
00000120: 7737 15be ad44 e83d 4c26 f7bc 5366 04bc
00000130: d125 84bd c84f 663c cbca d53d ff7c 8ebd
00000140: 4072 1cbf f0a3 a33d 08a7 9ebe 988e 02bd
00000150: 25e5 713c 4eac 823d 1e18 37bd 4b7b 91bd
00000160: 036c 98bc 8f8d 953e 39ec 203e 28e9 a03c
00000170: 9958 6abd c8be f63c a711 37be e8e1 ee3d
00000180: dbb7 56be a6c6 e9bc 5b52 61be 5275 9fbd
00000190: b6c1 c63d bb57 593d 0e98 1ebe ff5c 04be
000001a0: 7fb2 25bd fd12 dc3d c029 fb3d 79fc 77bc
000001b0: c97f 0a3e 5514 263e 263d 33bc 53c0 a2bd
000001c0: 5a33 2f3c 4571 df3d faec e4bc f1ca 09bf
000001d0: 0dd7 313e 49a9 ccbb 62d4 d03c 4dfe 973d
000001e0: e793 0a3e 52a9 cbbd f97b c1bd 3b44 b3be
000001f0: 008b debc ba3c 92bd d4fa a639 19eb 54bd
00000200: 5614 dfbe 7fc8 45bc d5d3 2dbe c59b 99bd
00000210: 7a11 42bc 4e8c 873d 393b 30be 80a3 e2bd
00000220: 28d5 49bd 2872 8a3e 4b5f 263e 1da5 573d
00000230: 5dbe 203e 2ab7 113d f7b1 52bd 70ca 52bd
00000240: f9d5 77be 4d08 e6bd c2c5 97bd 0707 c3bd
00000250: 03a8 1a3e 090b 203d 6679 76be 1880 21be
00000260: b977 613d bcb1 783e 7b46 8c3b ff1c 063d
00000270: ccc0 923e 7033 c03d 977c 0bbc 6973 94be
00000280: 7e93 873c b112 66bb 0e0f f63c 09ad e4be
00000290: 40ef 6dbc be72 393b 769c 333d 2075 8b3e
000002a0: 599d 403e 13a2 d43c 9c3f 473c 220f 07bf
000002b0: db6b 11bd 08ee 4cbe 8454 e1bc a397 5e3c
000002c0: efd4 01bd 4a95 aa3d 0213 7f3d ffdc 1cbf
000002d0: c5e4 22bc f03e 0c3c f721 9a3d 1f77 7e3d
000002e0: 9e03 afbd c607 1dbe b923 4bbd f05b 183e
000002f0: d7ac f8bc 3376 403e ddc1 c6bd 4c84 39bd
00000300: 9b33 af3d 9222 813e acec 01bd 7deb abbe
00000310: 0966 113b a38b 08bd 1aed 23bd a83e e13d
00000320: 2394 0ebc e858 063d 2c4e 803d 2c30 c3be
00000330: 9c4f 78bb f380 d0be 0d0b b73c 3120 993c
00000340: b80b b2be 22f7 cdbb 704b 16bb cd32 8bbd
00000350: 8e91 31ba fe82 ca3c 3538 45be 0db0 f8bd
00000360: bd28 433c 674e 813e 604e 81bd d4d9 843d
00000370: c294 213e 5a9c 603c 0b5e 1ebd d46f 8dbd
00000380: 2a72 adbd 7be8 803e e142 32bd a54d 94be
00000390: 2fe2 693e e9f8 a2bc d9b1 a93d 2e6c 323d
000003a0: 2a6b 2cbe 9dca 7fbe 10f4 2cbe 8c7d a0bd
000003b0: d7ba 76bd e334 4d3d e08b 83bd 1810 e5bc
000003c0: 03ef 00be 3de0 243d cea7 f23d 78d9 91bd
000003d0: 8961 33be 4511 8c3c 84ef c6bc 6f94 53bd
000003e0: 1c7a f5bc beac b73d fd49 39bd 714d 1abd
000003f0: a4cf 8abd fa16 913d e54c c2bd 0b0a 9b3e

model.4.bias f4 [32]
0.22564551 0.20650809 0.12052958 0.14530274 0.19592802 -0.15221567 -0.060452815 -0.008026619
0.013483567 0.084440134 0.08166372 0.19113374 0.10323871 -0.16807103 -0.06118466 0.101820126
-0.1323402 -0.07330905 0.05041922 0.21379961 -0.14570728 0.14263807 -0.024870973 -0.11965007
-0.02848163 0.24641043 -0.021430673 -0.013238698 0.15304273 -0.12242049 0.13037759 0.02129369
00000000: 9e0f 673e db76 533e 36d8 f63d 3eca 143e
00000010: 5ba1 483e 6dde 1bbe 5f9d 77bd 1582 03bc
00000020: 2eea 5c3c f3ee ac3d 4f3f a73d 90b8 433e
00000030: d16e d33d d01a 2cbe c49c 7abd 1287 d03d
00000040: 3084 07be 0e23 96bd 6284 4e3d 49ee 5a3e
00000050: 4a34 15be b70f 123e 36be cbbc 190b f5bd
00000060: 4f52 e9bc 0453 7c3e 618f afbc 20e7 58bc
00000070: 3cb7 1c3e 98b7 fabd b481 053e 1b70 ae3c

model.5.weight f4 [32]
3.0416367 3.0197186 3.0373864 3.049969 3.0324156 3.0697477 2.990903 3.0175643
3.04721 3.0398536 2.9887068 3.0058637 2.970128 3.0832658 2.9488113 3.0855598
3.001802 2.9719677 2.9881392 3.0100427 3.0150242 3.0454183 3.0409117 3.0720694
3.0111814 3.0165968 3.013359 3.0878189 3.017969 3.0450387 3.0069602 3.0295763
00000000: 2daa 4240 1243 4140 8a64 4240 b132 4340
00000010: 1913 4240 bf76 4440 f46a 3f40 c61f 4140
00000020: 7d05 4340 f68c 4240 f946 3f40 1260 4040
00000030: 9416 3e40 3a54 4540 53b9 3c40 d079 4540
00000040: 861d 4040 b834 3e40 ac3d 3f40 8aa4 4040
00000050: 28f6 4040 22e8 4240 4c9e 4240 c99c 4440
00000060: 32b7 4040 ec0f 4140 e0da 4040 d39e 4540
00000070: 6726 4140 eae1 4240 0972 4040 94e4 4140

model.5.bias f4 [32]
2.0870783 2.0502887 2.0695045 2.1134472 2.1078722 2.1086082 2.0273046 2.1002214
2.0872986 2.0828173 2.08916 2.1094897 2.0539746 2.1140313 2.0196688 2.1033227
2.0888736 2.0799344 2.069782 2.0933602 2.0968573 2.096926 2.0818667 2.1231692
2.0439131 2.0902867 2.0880902 2.1356754 2.0983121 2.0866816 2.0806153 2.058823
00000000: b192 0540 ee37 0340 c372 0440 b842 0740
00000010: 61e7 0640 70f3 0640 5cbf 0140 076a 0640
00000020: 4d96 0540 e14c 0540 ccb4 0540 e101 0740
00000030: 5274 0340 4a4c 0740 4142 0140 d79c 0640
00000040: 1bb0 0540 a51d 0540 4f77 0440 9df9 0540
00000050: e932 0640 0934 0640 4e3d 0540 01e2 0740
00000060: 79cf 0240 42c7 0540 45a3 0540 e8ae 0840
00000070: bf4a 0640 318c 0540 cd28 0540 c2c3 0340

model.5.running_mean f4 [32]
0.20077011 0.14987324 0.075570166 0.15831262 0.2064533 -0.21786565 -0.08835778 -0.10828678
-0.03707839 0.047369722 -0.05224402 0.20259398 -0.058744743 -0.23687147 -0.12384141 0.09966803
-0.30286533 -0.07958069 -0.08600168 0.090431 -0.21335156 0.15810597 -0.054691277 -0.107405275
-0.07431623 0.073839284 -0.006720562 -0.032277204 0.03338462 -0.07775087 0.004445407 -0.038843077
00000000: ae96 4d3e 5f78 193e 88c4 9a3d b41c 223e
00000010: 7e68 533e 2c18 5fbe ecf4 b4bd 76c5 ddbd
00000020: 83df 17bd c106 423d d3fd 55bd cc74 4f3e
00000030: 549e 70bd 6f8e 72be 91a0 fdbd c11e cc3d
00000040: 2a11 9bbe 33fb a2bd a621 b0bd e333 b93d
00000050: d578 5abe 88e6 213e f603 60bd 4cf7 dbbd
00000060: 1c33 98bd 0d39 973d 2938 dcbb 1a35 04bd
00000070: 50be 083d d93b 9fbd c7aa 913b eb19 1fbd

model.5.running_var f4 [32]
0.06002627 0.015552565 0.011571093 0.015552644 0.012170661 0.0907495 0.03873979 0.06541675
0.08098337 0.06907063 0.0995344 0.0059051192 0.08952804 0.08425786 0.028548721 0.0054824445
0.14921537 0.012863207 0.1090836 0.11069365 0.026254764 0.010447421 0.061402567 0.023854928
0.019419212 0.16372703 0.019165056 0.066026516 0.07300523 0.0203902 0.119945414 0.025617545
00000000: 1bde 753d 30d0 7e3c af94 3d3c 84d0 7e3c
00000010: 7467 473c e0da b93d 9dad 1e3d 38f9 853d
00000020: 9cda a53d e774 8d3d b1d8 cb3d bb7f c13b
00000030: 7a5a b73d 638f ac3d 02df e93c 14a6 b33b
00000040: eacb 183e 33c0 523c 3967 df3d 5ab3 e23d
00000050: 3b14 d73c a92b 2b3c 4281 7b3d 696b c33c
00000060: 0a15 9f3c 0fa8 273e 0900 9d3c e938 873d
00000070: c483 953d 5909 a73c f1a5 f53d e3db d13c

model.7.weight f4 [16, 32]
1.888954 1.9552609 1.9424125 1.980498 1.9624718 1.9210298 1.7617993 1.7551631
1.8285279 1.828783 1.7949374 1.8542072 1.6877005 2.0202096 1.8110658 1.861758
1.9826679 1.9521599 1.745814 1.9233743 1.9245371 2.0185056 1.92214 1.8168054
1.7309397 1.9810774 1.7795286 1.8578434 1.8493352 1.8199478 1.7293857 1.6630988
1.7392334 1.8801997 1.7048498 1.742204 1.8109981 1.9209013 2.0328474 1.8406945
1.988856 1.9547298 1.9044904 1.7098831 1.8594484 2.0264926 1.8168494 1.7766676
1.8198742 1.9506943 1.7253518 1.7192006 1.822343 1.8082486 1.8328744 1.8175056
2.0485501 1.9284133 1.7285969 2.0612059 1.972899 1.9037763 1.758877 1.9141853
-2.0501387 -2.0196872 -1.8915317 -2.0438101 -1.976809 -1.9720415 -1.8201475 -2.026334
-1.9848521 -1.9551464 -2.0503874 -1.7947578 -1.8615748 -1.7512937 -1.9008347 -1.8598619
-1.8727053 -1.697734 -1.7548702 -2.0415328 -1.8180152 -1.9389216 -2.0081701 -1.842242
-1.9751885 -1.940952 -1.7451351 -1.781116 -1.9307094 -1.8729072 -1.7182077 -1.8378637
1.8275365 1.7401766 1.9073112 1.828729 1.7169027 1.9218446 1.7043116 1.9095731
2.0219064 1.9502032 1.9363089 1.7473526 1.6803513 1.8130369 1.7310032 1.7949127
1.827556 1.9589547 1.9827981 1.7446269 1.8191278 1.7416413 1.7471306 1.9080944
1.8842852 1.674237 2.0059009 2.021386 1.9863616 1.9727185 1.9953725 1.838894
-1.9581168 -1.9809794 -1.7777512 -1.8046973 -1.9544952 -2.024657 -2.0335143 -2.0108674
-1.9309082 -2.0063918 -1.9186976 -1.8223462 -1.9752309 -2.0161262 -1.8177471 -1.8208512
-1.7647821 -1.9340581 -2.0103457 -1.9716754 -1.8684877 -1.7803886 -1.8414018 -1.8598093
-2.0443811 -1.8181074 -1.9173023 -1.8212548 -1.7129077 -2.020329 -1.9592811 -1.8699613
-1.9165429 -1.927935 -1.7919205 -1.8852652 -1.9366497 -1.8405166 -1.944388 -1.9129797
-1.781683 -1.8183291 -1.7444563 -2.0274775 -2.0420108 -1.8319114 -1.7975397 -2.0240192
-1.7454484 -1.7133445 -1.9385337 -1.8391554 -1.9213886 -1.871666 -1.8893684 -1.9474087
-1.7911998 -1.7394452 -1.8326983 -1.8726449 -2.0073051 -1.8254663 -1.9701906 -1.897498
-2.0009446 -1.9579818 -1.7234159 -2.0253494 -1.969948 -1.9698892 -1.8389802 -1.9005305
-1.7395046 -1.930729 -1.8583889 -1.893065 -1.9491206 -1.9113482 -1.9754845 -1.7396358
-1.9849741 -1.7309393 -1.9865903 -1.853132 -1.8501362 -1.86756 -2.0079484 -1.8668661
-1.7225146 -1.795648 -1.9850066 -1.9675575 -1.7077167 -1.8922551 -1.8376817 -1.7356058
1.8650141 2.1159844 2.0521927 1.8430787 1.8638846 2.069749 2.0736299 1.918695
2.0562994 1.85555 1.8230978 2.0880668 2.0822666 2.0919828 1.8724653 2.0382025
1.9555267 1.8354723 2.014911 1.9895942 2.0193408 1.835556 2.1591723 1.9267737
2.000715 1.8168682 2.1032133 1.9904612 1.9265685 1.8770102 1.8744861 1.9163067
00000000: 3fc9 f13f fd45 fa3f f9a0 f83f f580 fd3f
00000010: 4732 fb3f 4ee4 f53f a482 e13f 2fa9 e03f
00000020: 340d ea3f 9015 ea3f 82c0 e53f a956 ed3f
00000030: 9206 d83f 1d4b 0140 01d1 e73f 164e ee3f
00000040: 10c8 fd3f 60e0 f93f d576 df3f 2131 f63f
00000050: 3b57 f63f 322f 0140 af08 f63f 148d e83f
00000060: 6f8f dd3f f293 fd3f 98c7 e33f d0cd ed3f
00000070: 04b7 ec3f 0df4 e83f 835c dd3f 6ce0 d43f
00000080: 339f de3f 62aa f03f 8538 da3f 8a00 df3f
00000090: c9ce e73f 18e0 f53f 2c1a 0240 e19b eb3f
000000a0: d592 fe3f 9634 fa3f 57c6 f33f 73dd da3f
000000b0: 6802 ee3f 0eb2 0140 858e e83f d869 e33f
000000c0: a3f1 e83f 5ab0 f93f 54d8 dc3f c40e dc3f
000000d0: 8942 e93f b174 e73f a19b ea3f 06a4 e83f
000000e0: 721b 0340 3fd6 f63f aa42 dd3f ccea 0340
000000f0: f487 fc3f f1ae f33f e222 e13f 0604 f53f
00000100: 7935 03c0 8e42 01c0 b61d f2bf c9cd 02c0
00000110: 1408 fdbf db6b fcbf 98fa e8bf 75af 01c0
00000120: a20f febf 3d42 fabf 8c39 03c0 a0ba e5bf
00000130: 1548 eebf 642a e0bf 8d4e f3bf f40f eebf
00000140: cfb4 efbf 594f d9bf 969f e0bf 79a8 02c0
00000150: b9b4 e8bf 952e f8bf dc85 00c0 96ce ebbf
00000160: fad2 fcbf 1d71 f8bf 9660 dfbf 9cfb e3bf
00000170: 7c21 f7bf 6cbb efbf 3bee dbbf 1e3f ebbf
00000180: b7ec e93f 1bbe de3f c622 f43f cb13 ea3f
00000190: 78c3 db3f 01ff f53f e226 da3f e46c f43f
000001a0: ea66 0140 42a0 f93f f8d8 f73f 40a9 df3f
000001b0: c015 d73f 9811 e83f 8391 dd3f b3bf e53f
000001c0: 5bed e93f 07bf fa3f 54cc fd3f ef4f df3f
000001d0: 2ed9 e83f 1aee de3f faa1 df3f 703c f43f
000001e0: 4230 f13f 664d d63f ae60 0040 635e 0140
000001f0: 1941 fe3f 0a82 fc3f 5e68 ff3f e160 eb3f
00000200: 92a3 fabf bc90 fdbf 5a8d e3bf 5200 e7bf
00000210: e62c fabf fb93 01c0 1925 02c0 0db2 00c0
00000220: 0028 f7bf b968 00c0 e297 f5bf a442 e9bf
00000230: 5ed4 fcbf 3608 01c0 f0ab e8bf a711 e9bf
00000240: 61e4 e1bf 378f f7bf 81a9 00c0 dc5f fcbf
00000250: 9b2a efbf c6e3 e3bf 0eb3 ebbf 3b0e eebf
00000260: 24d7 02c0 beb7 e8bf 296a f5bf e11e e9bf
00000270: 8f40 dbbf 124d 01c0 b9c9 fabf e45a efbf
00000280: 4751 f5bf 93c6 f6bf a75d e5bf 5f50 f1bf
00000290: 23e4 f7bf 0c96 ebbf b5e1 f8bf 85dc f4bf
000002a0: 300e e4bf 02bf e8bf 584a dfbf 31c2 01c0
000002b0: 4eb0 02c0 137c eabf c815 e6bf 8889 01c0
000002c0: da6a dfbf df4e dbbf df21 f8bf 7269 ebbf
000002d0: 10f0 f5bf c092 efbf d3d6 f1bf b044 f9bf
000002e0: 0946 e5bf 24a6 debf dc95 eabf d4b2 efbf
000002f0: b077 00c0 e1a8 e9bf 352f fcbf 37e1 f2bf
00000300: 7a0f 00c0 269f fabf e498 dcbf 539f 01c0
00000310: 4227 fcbf 5425 fcbf b463 ebbf 9544 f3bf
00000320: 16a8 debf 2122 f7bf b0df edbf f44f f2bf
00000330: c97c f9bf 0fa7 f4bf addc fcbf 63ac debf
00000340: a213 febf 6b8f ddbf 9748 febf 6e33 edbf
00000350: 43d1 ecbf 350c efbf 3a82 00c0 78f5 eebf
00000360: 5c7b dcbf cbd7 e5bf b214 febf edd8 fbbf
00000370: 7696 dabf 6a35 f2bf 2739 ebbf 5528 debf
00000380: c8b8 ee3f 4a6c 0740 2057 0340 01ea eb3f
00000390: c593 ee3f c576 0440 5ab6 0440 cc97 f53f
000003a0: 699a 0340 aa82 ed3f 455b e93f e3a2 0540
000003b0: db43 0540 0ce3 0540 f1ac ef3f e971 0240
000003c0: b34e fa3f c2f0 ea3f 4df4 0040 06ab fe3f
000003d0: e13c 0140 80f3 ea3f e12f 0a40 85a0 f63f
000003e0: b70b 0040 238f e83f 0c9b 0640 6fc7 fe3f
000003f0: cc99 f63f df41 f03f 29ef ef3f 8a49 f53f

model.7.bias f4 [16]
1.6393977 1.4367042 -1.5304111 1.6163386 -1.6115774 -1.6899582 -1.6542964 1.5222504
1.7082518 -1.8030208 -1.6420463 1.7264096 -1.5735253 1.6835893 -1.4071951 -1.5843208
00000000: c9d7 d13f ece5 b73f 83e4 c3bf 2fe4 ce3f
00000010: 2b48 cebf 8d50 d8bf fcbf d3bf 1ad9 c23f
00000020: ffa7 da3f 63c9 e6bf 932e d2bf fdfa dc3f
00000030: 4769 c9bf db7f d73f f81e b4bf 06cb cabf

model.8.weight f4 [1, 16]
2.2139106 2.1784432 -2.1370447 2.2212958 -2.1235359 -2.157685 -2.1377926 2.0089386
2.117771 -1.9952393 -2.0724514 2.0493045 -2.0053782 2.137209 -2.1913128 -2.2184885
00000000: b6b0 0d40 9d6b 0b40 57c5 08c0 b629 0e40
00000010: 03e8 07c0 8317 0ac0 98d1 08c0 7392 0040
00000020: 8f89 0740 0064 ffbf 0ba3 04c0 ce27 0340
00000030: 1e58 00c0 08c8 0840 783e 0cc0 b7fb 0dc0

exp_avg f4 [8]
-3485.7888 466.43237 10079.443 -176.17297 3706.85 -161.01465 -6358.388 -4241.156
00000000: 9fdc 59c5 5837 e943 c67d 1d46 482c 30c3
00000010: 9aad 6745 c003 21c3 1bb3 c6c5 3f89 84c5

exp_avg_sq f4 [8]
5.642853e+09 1.7239098e+09 1.0297972e+10 1.1688132e+09 1.1664289e+09 3.8199318e+08 6.6708997e+09 1.7601612e+10
00000000: 8d2b a84f 8d81 cd4e a573 1950 5955 8b4e
00000010: 960c 8b4e 0726 b64d edce c64f 6924 8350

exp_avg f4 [8]
0.0053336923 0.0012066789 0.003872352 0.00010640397 -0.0025546842 0.0007128518 -0.0022321017 0.0011309644
00000000: 41c6 ae3b 6d29 9e3a 49c7 7d3b 3225 df38
00000010: 7d6c 27bb adde 3a3a 7448 12bb de3c 943a

exp_avg_sq f4 [8]
0.00017149367 4.870716e-05 0.00021971563 2.147956e-05 3.161487e-05 0.0001268309 6.889529e-05 0.00013743291
00000000: fbd2 3339 ea4a 4c38 7763 6639 012f b437
00000010: 359a 0438 e9fd 0439 e17b 9038 de1b 1039

exp_avg f4 [16, 8]
2436.465 16361.035 6499.2896 12864.814 -6425.6216 -14765.302 35540.72 -4115.7085
81.42133 1653.2458 -2206.3303 -4919.009 1882.1838 -966.14557 -2336.55 804.9609
3812.7732 5086.668 3855.7092 1811.0879 -2100.497 5199.2886 -4468.028 -6729.3813
-3236.0913 -5053.17 -4651.306 -5386.6855 -7384.003 -739.9627 15443.8545 -434.77405
20341.643 9144.5 10487.558 2718.5457 5270.4775 23169.986 -28048.812 -13951.536
-15037.687 -25445.785 -10867.3545 -12352.607 -17265.0 -9601.418 -10117.975 -2905.47
5086.7144 15380.477 8766.974 6603.8765 414.27866 12167.323 -8350.244 -21369.346
5382.2104 2224.6445 1812.4272 18916.764 2007.7496 969.4007 -7339.011 3745.9036
-1064.0002 -2082.038 -1807.709 2850.838 487.52765 664.57996 -1750.5807 2957.3928
-10482.991 -8641.389 -8510.382 9673.168 -18275.996 4722.0386 -901.7399 -35256.414
-7119.796 -11156.446 -9655.972 -3075.984 3386.502 -4835.2007 6629.777 13836.335
8048.004 758.953 8480.313 -4898.45 7408.1743 -3274.57 -7243.7285 11852.729
4127.6606 1767.4814 2441.836 6092.209 3046.2988 -591.3022 -1711.9479 9744.331
-194.07014 -5539.319 -10.729417 -18579.148 5913.9775 -2790.9292 -7612.5513 -16073.3
-641.8349 -1156.7766 3067.8132 12959.333 -3833.5732 -8204.438 16125.982 -3203.5652
-16332.791 -8368.531 -10550.771 -381.769 -6180.589 -3871.14 2810.1406 11571.834
00000000: 7147 1845 24a4 7f46 511a cb45 4203 4946
00000010: f9cc c8c5 35b5 66c6 b8d4 0a47 ab9d 80c5
00000020: b9d7 a242 dea7 ce44 49e5 09c5 12b8 99c5
00000030: e245 eb44 5189 71c4 cd08 12c5 7f3d 4944
00000040: 5f4c 6e45 58f5 9e45 59fb 7045 d062 e244
00000050: f447 03c5 4f7a a245 39a0 8bc5 0d4b d2c5
00000060: 7641 4ac5 5ce9 9dc5 735a 91c5 7c55 a8c5
00000070: 06c0 e6c5 9dfd 38c4 6b4f 7146 1463 d9c3
00000080: 49eb 9e46 00e2 0e46 3bde 2346 bbe8 2945
00000090: d2b3 a445 f903 b546 a021 dbc6 25fe 59c6
000000a0: bff6 6ac6 92cb c6c6 6bcd 29c6 6e02 41c6
000000b0: 00e2 86c6 ac05 16c6 e617 1ec6 8597 35c5
000000c0: b7f5 9e45 e851 7046 e5fb 0846 035f ce45
000000d0: ab23 cf43 4b1d 3e46 fa78 02c6 b1f2 a6c6
000000e0: af31 a845 500a 0b45 ac8d e244 87c9 9346
000000f0: fdf7 fa44 a559 7244 1758 e5c5 751e 6a45
00000100: 0200 85c4 9c20 02c5 b0f6 e1c4 682d 3245
00000110: 8ac3 f343 1e25 2644 95d2 dac4 49d6 3845
00000120: f7cb 23c6 8e05 07c6 87f9 04c6 ac24 1746
00000130: fec7 8ec6 4f90 9345 5b6f 61c4 6ab8 09c7
00000140: 5e7e dec5 c951 2ec6 e3df 16c6 be3f 40c5
00000150: 08a8 5345 9b19 97c5 372e cf45 5731 5846
00000160: 0880 fb45 febc 3d44 4181 0446 9a13 99c5
00000170: 6581 e745 1fa9 4cc5 d45d e2c5 ea32 3946
00000180: 49fd 8045 68ef dc44 609d 1845 ac61 be45
00000190: c864 3e45 57d3 13c4 55fe d5c4 5341 1846
000001a0: f511 42c3 8d1a adc5 b1ab 2bc1 4c26 91c6
000001b0: d2cf b845 de6e 2ec5 69e4 edc5 3325 7bc6
000001c0: 6f75 20c4 da98 90c4 03bd 3f45 557d 4a46
000001d0: 2c99 6fc5 c131 00c6 eef7 7b46 0b39 48c5
000001e0: 2a33 7fc6 20c2 02c6 16db 24c6 6fe2 bec3
000001f0: b624 c1c5 3df2 71c5 40a2 2f45 56cf 3446

exp_avg_sq f4 [16, 8]
3.3323244e+10 2.2884465e+10 4.5627367e+10 2.0044425e+10 1.1095644e+10 5.13109e+09 4.8077263e+10 1.0610408e+11
1.4151832e+08 9.753539e+07 1.5202445e+08 8.854122e+08 3.2708163e+08 6.6355428e+07 1.0952589e+09 1.6951378e+09
1.0223013e+09 7.122896e+08 1.1686003e+09 5.123152e+08 3.727313e+08 3.5112522e+08 1.2377654e+09 3.5546235e+09
7.208143e+09 3.5586634e+09 6.871556e+09 7.2005724e+09 2.6508964e+09 2.4484926e+08 1.172112e+10 2.4784757e+10
1.0942586e+10 6.3801887e+09 8.590444e+09 2.470891e+09 2.3604483e+09 4.8921334e+09 8.591346e+09 2.4864543e+10
2.913536e+10 1.8513172e+10 2.8483801e+10 1.0547679e+10 9.492814e+09 4.615551e+09 1.483594e+10 6.617522e+09
1.5563365e+10 9.456616e+09 1.6826496e+10 4.3762273e+09 1.2658977e+09 1.6536329e+09 2.163235e+10 4.45374e+10
9.199432e+08 8.818484e+08 1.0324171e+09 7.7287813e+09 2.153891e+09 1.9528146e+08 7.222557e+09 1.9608486e+10
2.2722934e+08 1.3645674e+08 1.5605582e+08 5.7921286e+08 3.894548e+08 7.569815e+07 6.4713683e+08 1.554187e+09
2.4416742e+09 1.9019807e+09 2.9416507e+09 1.0747585e+10 3.2120673e+09 1.2530911e+09 1.0790238e+10 3.173295e+10
3.802498e+09 2.551652e+09 3.9989258e+09 1.3483311e+09 7.516345e+08 7.199362e+08 3.2906179e+09 7.9920317e+09
1.1539986e+10 5.503795e+09 9.360291e+09 8.906702e+09 2.1505234e+09 2.2016915e+08 1.3036621e+10 3.3748888e+10
1.8224271e+09 9.614129e+08 1.4618399e+09 1.4017957e+09 9.1714246e+08 1.7138235e+08 1.5829144e+09 8.874173e+09
2.171819e+09 9.4986176e+08 2.2534356e+09 8.503009e+09 2.195186e+09 3.1257494e+08 7.2369654e+09 1.7093938e+10
1.7743362e+08 1.678369e+08 3.6500157e+08 4.2377572e+09 1.1103661e+09 2.6042566e+08 5.492039e+09 8.466467e+09
2.3891965e+09 1.341582e+09 2.5572183e+09 3.512236e+08 4.4886755e+08 6.98476e+08 1.3330246e+09 3.988041e+09
00000000: 0b47 f850 a780 aa50 a6f9 2951 b557 9550
00000010: 8656 2550 1ceb 984f 0d1a 3351 5ea2 c551
00000020: 5ff6 064d b408 ba4c 58fb 104d 4619 534e
00000030: f5f6 9b4d 3920 7d4c a690 824e 8013 ca4e
00000040: 52bc 734e b5d2 294e da4e 8b4e 7a4a f44d
00000050: 6dbb b14d f76d a74d 9a8d 934e 40df 534f
00000060: c4d1 d64f e51c 544f d0c9 cc4f 0298 d64f
00000070: 7801 1e4f a781 694d 86a8 2e50 2ca9 b850
00000080: a70e 2350 fa24 be4f f101 0050 ce46 134f
00000090: 95b1 0c4f 04cc 914f 6205 0050 5a41 b950
000000a0: 4a13 d950 13ef 8950 8a38 d450 342c 1d50
000000b0: 3674 0d50 dc8d 894f 9f12 5d50 b037 c54f
000000c0: 87e9 6750 21ea 0c50 fdbb 7a50 f76b 824f
000000d0: 22e8 964e df20 c54e 6f2c a150 2dea 2551
000000e0: e054 5b4e c13f 524e bd25 764e ec55 e64f
000000f0: c561 004f 233c 3a4d bd3f d74f 3818 9250
00000100: eab3 584d a222 024d 91d3 144d 5918 0a4e
00000110: deb4 b94d fd61 904c 194a 1a4e 0646 b94e
00000120: fe88 114f d8bb e24e 0756 2f4f c826 2050
00000130: 4274 3f4f 4e61 954e 7ec9 2050 cc6d ec50
00000140: 84a5 624f 1f17 184f c45a 6e4f cdbb a04e
00000150: 2134 334e 6ba5 2b4e d822 444f 5d2e ee4f
00000160: 8ef5 2b50 a006 a44f ad7a 0b50 5fb8 0450
00000170: 622e 004f 3cf8 514d c342 4250 e572 fb50
00000180: 1040 d94e fd37 654e d043 ae4e 691b a74e
00000190: efa9 5a4e 6571 234d b7b2 bc4e 493c 0450
000001a0: 5473 014f f676 624e b350 064f cf68 fd4f
000001b0: e1d7 024f 1f0c 954d aaad d74f 33b8 7e50
000001c0: c136 294d ce0f 204d db0b ae4d 0b97 7c4f
000001d0: af5d 844e 7c5c 784d efac a34f 0452 fc4f
000001e0: 3f68 0e4f d5ed 9f4e 0e6c 184f fa79 a74d
000001f0: 6709 d64d 9887 264e afe8 9e4e adb4 6d4f

exp_avg f4 [16]
0.0006801327 -0.0006727297 0.0019414446 0.003859193 0.0018164639 -0.0014926891 0.004285049 0.002309575
0.0010429572 -0.005097853 -0.0020802114 -0.00052049884 0.0030585614 -0.0050505 5.993281e-06 0.00023630653
00000000: ef4a 323a 205a 30ba 1278 fe3a 84ea 7c3b
00000010: 6a16 ee3a 56a6 c3ba 9969 8c3b 3d5c 173b
00000020: d6b3 883a e40b a7bb 2854 08bb 1672 08ba
00000030: 2572 483b aa7e a5bb e419 c936 0dc9 7739

exp_avg_sq f4 [16]
0.0006512795 1.4643715e-05 1.7477061e-05 0.00011819311 7.275222e-05 0.00034349703 0.00010483618 0.00014108184
8.792464e-06 0.00020581226 3.004689e-05 0.000106761385 4.613629e-05 0.00011064144 4.8868333e-05 2.308052e-05
00000000: a1ba 2a3a 47ae 7537 b49b 9237 71de f738
00000010: 8d92 9838 6417 b439 7fdb db38 5eef 1339
00000020: 5883 1337 4fcf 5739 340d fc37 15e5 df38
00000030: 7782 4138 2c08 e838 f9f7 4c38 0a9d c137

exp_avg f4 [16]
-19015.764 -7758.3774 11516.965 -30566.932 26663.393 -4620.5576 23884.395 23472.77
-4399.8003 11932.545 -23887.977 -8891.021 -4559.328 4164.7446 -2629.6592 -13251.813
00000000: 878f 94c6 0573 f2c5 dcf3 3346 ddcd eec6
00000010: c94e d046 7664 90c5 ca98 ba46 8a61 b746
00000020: 677e 89c5 2e72 3a46 f49f bac6 16ec 0ac6
00000030: a07a 8ec5 f525 8245 8c5a 24c5 410f 4fc6

exp_avg_sq f4 [16]
1.2021311e+10 4.0800202e+09 1.366705e+09 1.7965187e+10 4.346665e+09 1.4196996e+09 8.806093e+09 3.6029755e+10
2.6353848e+09 2.4944677e+10 4.993178e+09 1.758499e+09 7.439033e+09 2.2542215e+10 6.115277e+09 1.1625011e+09
00000000: aa21 3350 2b30 734f 87ec a24e e0d9 8550
00000010: 6c8a 814f cb3d a94e 9438 0350 a738 0651
00000020: c814 1d4f 32da b950 edce 944f 21a1 d14e
00000030: 51b3 dd4f ddf3 a750 dc3f b64f b894 8a4e

exp_avg f4 [16]
-21329.07 -8875.711 5945.822 -21912.51 19002.691 71.703926 5361.432 28616.76
-1008.164 24432.557 -12389.308 -14996.634 28.38088 9362.302 7958.8203 -15531.472
00000000: 24a2 a6c6 d8ae 0ac6 93ce b945 0531 abc6
00000010: 6275 9446 6968 8f42 758b a745 8591 df46
00000020: 7f0a 7cc4 1de1 be46 3b95 41c6 8952 6ac6
00000030: 0b0c e341 3549 1246 90b6 f845 e3ad 72c6

exp_avg_sq f4 [16]
8.3369503e+09 3.838229e+09 4.0397408e+08 1.722914e+10 2.60423e+09 1.9276051e+09 2.216662e+09 1.3867723e+10
1.5039891e+09 9.32295e+09 1.7327666e+09 3.7614449e+09 3.271536e+09 8.674668e+09 5.13708e+09 1.4500749e+09
00000000: e275 f84f bac6 644f 3ea1 c04d fa5d 8050
00000010: 6539 1b4f d7c9 e54e 941f 044f 2aa5 4e50
00000020: 1b4a b34e 3bec 0a50 d78f ce4e 1833 604f
00000030: aeff 424f 3b43 0150 cf18 994f c6dc ac4e

exp_avg f4 [32, 16]
414.35596 4056.6433 4602.772 3346.5906 5453.0405 -1094.4576 5729.3335 2070.4287
4384.224 3841.3896 4835.528 2325.0627 -4.1432047 5721.0913 4336.221 -274.1633
14218.307 -346.39618 19108.094 2701.9124 21667.713 -4186.99 31366.014 470.16678
-1033.8184 3048.2734 23330.893 132.75587 7782.3887 1206.9397 1175.9701 4972.382
16385.928 1825.5526 21716.473 2517.3499 24516.8 -4108.6943 35977.332 714.2517
678.1415 3225.182 25483.107 18.969 8686.784 2305.3862 3539.7441 6747.6987
14196.678 531.7856 13163.766 -125.36473 16467.967 4795.538 24164.172 152.1118
224.72179 -6354.7046 20454.21 -8305.437 7493.8325 -5990.8794 -553.9745 5772.731
15983.676 -1328.2046 17383.168 -832.7479 20379.654 4668.0903 30176.854 -462.45935
-1214.3368 -10830.019 24991.035 -12298.569 9773.7705 -11052.781 -2917.7021 6908.8896
204.0655 2998.1785 2043.7999 3244.388 2831.2695 -1484.2302 5073.3125 1999.406
3935.5315 4161.8667 2991.5205 2593.064 671.9406 4954.0015 3465.42 -2422.8777
468.2262 5154.0854 4974.526 4054.272 6166.4053 -1189.765 6569.7534 2473.1072
5335.137 4983.85 5510.1 2890.492 347.31213 7111.8555 5569.2173 -1310.304
8792.978 -3407.6743 11776.022 351.98132 13358.054 -6676.376 19231.479 50.018036
-2297.2195 -2460.7415 15517.338 896.5578 6553.1147 299.88986 -4005.8608 3721.7654
51.388466 3500.2495 2951.4023 3207.6064 3916.0254 -672.2981 6327.4824 1973.0886
3426.9185 3775.5037 4610.246 2542.6367 1383.298 5218.777 3914.938 -1583.4877
-515.8846 4248.626 3335.8274 3585.8042 4430.1753 1907.7043 4987.7363 2308.9402
3792.0332 4112.8696 5151.5566 2668.5303 -227.58818 5712.315 4756.163 744.6171
6443.463 -7.309666 8069.573 101.44447 9112.426 -3955.0117 12821.089 -171.33913
-551.2038 -157.48192 9894.61 644.99945 4764.282 1736.9545 -265.1288 2952.9592
26837.45 -9340.338 43445.637 3789.76 43961.44 -18741.932 61107.1 2604.9238
4379.4385 -9641.595 44520.555 -3950.9539 20091.143 -10871.36 -10521.644 15754.393
7455.629 -2888.9436 9006.293 61.75537 10404.485 -6004.9287 15681.358 -331.59946
-1681.7683 -1830.7319 12614.249 228.30264 5613.4526 -159.84952 -3338.9233 3446.2498
44.034016 3602.073 2903.4717 3272.4456 3531.5515 469.39233 4910.0996 2067.6484
3560.014 4042.2493 3619.4802 2779.9607 1350.9363 5432.9473 4071.6396 -1785.7983
12439.824 -3555.741 18280.934 959.36584 19831.793 -6357.5747 29446.146 -442.62897
1849.4244 -2269.2317 23897.986 -2645.7908 9892.271 -4913.649 -3314.4304 5543.4526
13399.009 1814.1709 13150.633 5530.187 13118.863 830.5129 16085.049 129.60757
5161.64 5662.388 2892.0317 615.0703 1619.2788 11637.376 3016.5222 5718.2437
00000000: 902d cf43 4b8a 7d45 2dd6 8f45 7329 5145
00000010: 5368 aa45 a5ce 88c4 ab0a b345 dc66 0145
00000020: cb01 8945 3c16 7045 391c 9745 0151 1145
00000030: 2295 84c0 bbc8 b245 c581 8745 e714 89c3
00000040: 3a29 5e46 b632 adc3 3048 9546 99de 2845
00000050: 6d47 a946 ecd7 82c5 070c f546 5915 eb43
00000060: 303a 81c4 6084 3e45 c945 b646 81c1 0443
00000070: 1c33 f345 12de 9644 0bff 9244 0e63 9b45
00000080: db03 8046 af31 e444 f2a8 a946 9955 1d45
00000090: 9a89 bf46 8e65 80c5 5589 0c47 1c90 3244
000000a0: 0e89 2944 e992 4945 3716 c746 83c0 9741
000000b0: 23bb 0746 2e16 1045 e83b 5d45 97dd d245
000000c0: b6d2 5d46 47f2 0444 10af 4d46 beba fac2
000000d0: efa7 8046 4edc 9545 58c8 bc46 9f1c 1843
000000e0: c7b8 6043 a395 c6c5 6ccc 9f46 bfc5 01c6
000000f0: a92e ea45 0937 bbc5 5e7e 0ac4 d965 b445
00000100: b4be 7946 8c06 a6c4 56ce 8746 de2f 50c4
00000110: 4f37 9f46 b9e0 9145 b5c1 eb46 cc3a e7c3
00000120: c7ca 97c4 1338 29c6 123e c346 472a 40c6
00000130: 15b7 1846 20b3 2cc6 3c5b 36c5 1ee7 d745
00000140: c510 4c43 db62 3b45 9979 ff44 35c6 4a45
00000150: 50f4 3045 5e87 b9c4 808a 9e45 feec f944
00000160: 81f8 7545 ef0e 8245 54f8 3a45 0611 2245
00000170: 33fc 2744 03d0 9a45 b896 5845 0b6e 17c5
00000180: f41c ea43 af10 a145 3574 9b45 5a64 7d45
00000190: 3eb3 c045 7bb8 94c4 074e cd45 b791 1a45
000001a0: 19b9 a645 cdbe 9b45 cd30 ac45 dfa7 3445
000001b0: f4a7 ad43 d83e de45 bd09 ae45 bac9 a3c4
000001c0: e963 0946 cafa 54c5 1700 3846 9cfd af43
000001d0: 37b8 5046 02a3 d0c5 f53e 9646 7812 4842
000001e0: 8393 0fc5 ddcb 19c5 5a75 7246 b323 6044
000001f0: ebc8 cc45 e7f1 9543 c65d 7ac5 3f9c 6845
00000200: ca8d 4d42 fec3 5a45 7076 3845 b479 4845
00000210: 68c0 7445 1413 28c4 dcbb c545 d6a2 f644
00000220: b22e 5645 0ff8 6b45 f811 9045 30ea 1e45
00000230: 89e9 ac44 3716 a345 02af 7445 9bef c5c4
00000240: 9df8 00c4 02c5 8445 3d7d 5045 de1c 6045
00000250: 6771 8a45 8a76 ee44 e4dd 9b45 0b4f 1045
00000260: 8800 6d45 f586 8045 74fc a045 7cc8 2645
00000270: 9396 63c3 8582 b245 4ea1 9445 7f27 3a44
00000280: b45b c945 c9e8 e9c0 962c fc45 92e3 ca42
00000290: b461 0e46 3030 77c5 5b54 4846 d156 2bc3
000002a0: 0bcd 09c4 5f7b 1dc3 719a 1a46 f73f 2144
000002b0: 42e2 9445 8b1e d944 7d90 84c3 598f 3845
000002c0: e6aa d146 5af1 11c6 a3b5 2947 29dc 6c45
000002d0: 71b9 2b47 dd6b 92c6 1ab3 6e47 c8ce 2245
000002e0: 82db 8845 61a6 16c6 8ee8 2d47 43ef 76c5
000002f0: 49f6 9c46 71dd 29c6 9366 24c6 9229 7646
00000300: 08fd e845 198f 34c5 2cb9 0c46 8005 7742
00000310: f191 2246 6ea7 bbc5 6f05 7546 bbcc a5c3
00000320: 9638 d2c4 6cd7 e4c4 ff18 4546 7a4d 6443
00000330: 9f6b af45 7ad9 1fc3 c6ae 50c5 ff63 5745
00000340: d522 3042 2b21 6145 8c77 3545 2187 4c45
00000350: d3b8 5c45 38b2 ea43 cc70 9945 603a 0145
00000360: 3980 5e45 fda3 7c45 af37 6245 5fbf 2d45
00000370: f6dd a844 94c7 a945 3c7a 7e45 8c39 dfc4
00000380: 4c5f 4246 db3b 5ec5 ded1 8e46 6ad7 6f44
00000390: 96ef 9a46 99ac c6c5 4b0c e646 8250 ddc3
000003a0: 952d e744 b5d3 0dc5 f9b3 ba46 a75c 25c5
000003b0: 1691 1a46 318d 99c5 e326 4fc5 9f3b ad45
000003c0: 095c 5146 78c5 e244 887a 4d46 7fd1 ac45
000003d0: 74fb 4c46 d3a0 4f44 3254 7b46 8a9b 0143
000003e0: 1f4d a145 1bf3 b045 82c0 3445 80c4 1944
000003f0: ec68 ca44 81d5 3546 5b88 3c45 f3b1 b245

exp_avg_sq f4 [32, 16]
3.4474573e+08 2.1028425e+09 1.3085845e+08 1.0128139e+09 2.1045803e+08 5.1898554e+08 2.8023277e+08 7.717586e+08
1.0977821e+09 4.427462e+09 2.6856733e+08 2.1318252e+09 2.5978995e+08 4.1879094e+09 2.7144343e+09 2.0049757e+08
2.0841135e+09 7.240994e+08 2.881279e+09 3.444336e+08 3.845919e+09 2.3747948e+09 5.845258e+09 3.0122298e+08
3.211636e+08 4.5850346e+08 4.25726e+09 5.7595085e+08 1.3344625e+09 5.748548e+08 5.2642838e+08 1.0385467e+09
2.511255e+09 7.57744e+08 3.6144663e+09 2.7618355e+08 4.781983e+09 3.1162332e+09 7.6460344e+09 2.4265026e+08
3.7311174e+08 4.0579258e+08 5.4019036e+09 4.3541994e+08 1.7175717e+09 4.8532976e+08 5.3339773e+08 1.2959917e+09
1.7794509e+09 2.5322079e+09 3.7914857e+09 1.5888032e+09 4.4090783e+09 2.0930283e+08 6.869366e+09 9.370891e+08
1.1168113e+09 7.814524e+09 4.2686162e+09 4.3359437e+09 8.427962e+08 8.152208e+09 3.6810854e+09 8.7660006e+08
2.1432348e+09 2.9782682e+09 4.419282e+09 1.7662386e+09 5.1759186e+09 1.8496038e+08 8.243712e+09 1.0845373e+09
1.3185748e+09 8.935392e+09 5.0865183e+09 4.9712686e+09 9.9518445e+08 9.294539e+09 4.2848118e+09 1.0255301e+09
2.898785e+08 1.7630139e+09 7.748272e+07 9.1901254e+08 1.5575888e+08 5.1255072e+08 2.6200075e+08 7.098418e+08
9.382724e+08 3.6836503e+09 2.465069e+08 1.8313878e+09 1.9661997e+08 3.5106368e+09 2.2815708e+09 1.3627946e+08
5.7164294e+08 3.3833592e+09 2.0358186e+08 1.659958e+09 3.3588128e+08 8.18225e+08 4.4234646e+08 1.2647131e+09
1.756811e+09 7.074516e+09 4.3092493e+08 3.4172677e+09 3.689355e+08 6.721197e+09 4.3535657e+09 3.2286595e+08
5.0856538e+08 5.67459e+08 7.6429466e+08 2.7910634e+07 9.935845e+08 9.604651e+08 1.6612396e+09 1.3017876e+08
2.2637466e+08 3.1494957e+08 1.02682355e+09 4.2592164e+07 3.2739994e+08 1.7154347e+08 5.0025504e+08 2.4222746e+08
2.6835285e+08 1.7904759e+09 8.106094e+07 9.062578e+08 1.4488021e+08 4.6226378e+08 2.223445e+08 7.097784e+08
9.426323e+08 3.8075264e+09 2.2156526e+08 1.8936618e+09 2.4704773e+08 3.7024404e+09 2.3240458e+09 1.3956645e+08
2.5975414e+08 1.3902044e+09 8.490823e+07 6.999022e+08 1.4134432e+08 4.3867616e+08 2.1457754e+08 5.423194e+08
7.52019e+08 3.12737e+09 1.8074573e+08 1.5693317e+09 1.7755125e+08 3.0340396e+09 1.8301942e+09 1.3821384e+08
3.1807872e+08 3.6669094e+08 4.804797e+08 2.5774938e+07 6.257082e+08 7.129711e+08 1.0684614e+09 8.5599816e+07
1.3182547e+08 1.771274e+08 6.566806e+08 2.5521574e+07 2.2732765e+08 9.19525e+07 2.9873658e+08 1.605014e+08
4.756403e+09 1.8157651e+09 8.5193764e+09 1.3375668e+08 1.0170401e+10 4.5865124e+09 1.7779544e+10 3.8090394e+08
5.0499498e+08 3.0165967e+09 1.0961723e+10 1.6266491e+09 3.4999608e+09 3.6229993e+09 1.8660614e+09 2.2800602e+09
3.5335088e+08 3.5443805e+08 5.1323046e+08 2.4349744e+07 6.876752e+08 7.8275e+08 1.1872925e+09 8.864182e+07
1.3990715e+08 1.6688722e+08 7.311591e+08 2.465871e+07 2.5177035e+08 8.853994e+07 3.0437434e+08 1.716316e+08
2.6385642e+08 1.7599945e+09 8.478661e+07 9.378335e+08 1.2845484e+08 5.579104e+08 2.4600686e+08 7.168417e+08
9.4461e+08 3.8002081e+09 1.6312752e+08 1.8955608e+09 2.5380627e+08 3.7111468e+09 2.300712e+09 1.4510883e+08
9.43931e+08 7.105516e+08 1.3842533e+09 6.2011724e+07 1.722715e+09 1.4095697e+09 3.1196713e+09 2.004017e+08
2.3869438e+08 3.3087702e+08 1.9295242e+09 8.2043384e+07 7.502296e+08 2.352195e+08 6.047464e+08 4.6797155e+08
2.6060997e+09 1.8840291e+10 2.1538752e+09 8.300181e+09 2.6976061e+09 5.151768e+09 3.6785116e+09 6.83908e+09
9.961439e+09 3.9492743e+10 2.8016812e+09 1.929115e+10 7.495808e+08 3.74094e+10 2.4109105e+10 1.4246753e+09
00000000: 3863 a44d a9ad fa4e ba97 f94c 4179 714e
00000010: 5bb5 484d ba78 f74d 1aa0 854d 6800 384e
00000020: a7dd 824e dbf2 834f 1910 804d 2422 fe4e
00000030: 48c1 774d 6d9e 794f fbca 214f 9a35 3f4d
00000040: 1972 f84e 85a3 2c4e d4bc 2b4f 1e3d a44d
00000050: 113c 654f 7e8c 0d4f c833 ae4f 62a2 8f4d
00000060: 8a24 994d a9a1 da4d a2c0 7d4f 4051 094e
00000070: 9014 9f4e 5a0e 094e 4705 fb4d dc9b 774e
00000080: b6ae 154f 06a9 344e 6170 574f d0b1 834d
00000090: a383 8e4f f2bd 394f 9dde e34f c968 674d
000000a0: dee9 b14d 3a7f c14d 41fd a04f d99f cf4d
000000b0: 21c0 cc4e 5b6c e74d 0758 fe4d 877e 9a4e
000000c0: 8820 d44e 6dee 164f 7bfd 614f 6d66 bd4e
000000d0: 9966 834f 539b 474d 1ab9 cc4f 616b 5f4e
000000e0: 6022 854e 16e4 e84f ea6d 7e4f a038 814f
000000f0: 33f0 484e 69f4 f24f e868 5b4f 6cff 504e
00000100: 567e ff4e c484 314f 72b4 834f 538d d24e
00000110: 2041 9a4f 5864 304d 88ae f54f 7449 814e
00000120: b62f 9d4e d125 0550 0e97 974f c527 944f
00000130: 3d45 6d4e da7f 0a50 0a65 7f4f 6481 744e
00000140: 8f39 8a4d ea2a d24e 5cc9 934c 131c 5b4e
00000150: 128b 144d 3a67 f44d 07dd 794d 4e3d 294e
00000160: 9ab3 5f4e 0b90 5b4f 5916 6b4d 8551 da4e
00000170: ec82 3b4d 1140 514f 02fe 074f 5af7 014d
00000180: 514a 084e f7a9 494f 9a26 424d e6e1 c54e
00000190: 2229 a04d 7e14 434e 5fed d24d fbc3 964e
000001a0: 9e6d d14e 46d6 d24f 247b cd4d 5eaf 4b4f
000001b0: 12ec af4d aa4e c84f 12bf 814f 59f4 994d
000001c0: bc80 f24d f34a 074e d838 364e f5f0 d44b
000001d0: 96e3 6c4e 23fe 644e 0209 c64e d94b f84c
000001e0: 40e3 574d fe2d 964d 56d0 744e e979 224c
000001f0: d01d 9c4d bb98 234d 4a8a ee4d 9001 674d
00000200: d5eb 7f4d fd70 d54e 8a9c 9a4c 9611 584e
00000210: 252b 0a4d af6c dc4d 530b 544d 7039 294e
00000220: b6bd 604e 3ef2 624f 154d 534d f9bd e14e
00000230: 639a 6b4d c2ae 5c4f 2086 0a4f d719 054d
00000240: 8ab8 774d acb9 a54e 19f3 a14c a4de 264e
00000250: e4cb 064d 562d d14d 18a3 4c4d 8d4c 014e
00000260: 994b 334e e167 3a4f 605f 2c4d 3414 bb4e
00000270: 7953 294d c5d7 344f 182d da4e 9dcf 034d
00000280: f8ab 974d 14da ae4d 4f1c e54d ada5 c44b
00000290: 332e 154e 4dfc 294e b5bd 7e4e c944 a34c
000002a0: e86f fb4c feeb 284d 9a90 1c4e d3b6 c24b
000002b0: eacb 584d ae62 af4c de72 8e4d ea10 194d
000002c0: 7ac0 8d4f c174 d84e afe5 fd4f e11e ff4c
000002d0: 008d 1750 50b0 884f ca77 8450 10a1 b54d
000002e0: e5cc f04d 9dcd 334f a857 2350 64e9 c14e
000002f0: 2a9d 504f 95f2 574f ad73 de4e f5e6 074f
00000300: a77d a84d 5d02 a94d 34ba f44d 18c6 b94b
00000310: 5df4 234e 459f 3a4e 4b89 8d4e 2412 a94c
00000320: 056d 054d f327 1f4d 6952 2e4e 8b21 bc4b
00000330: 5f1b 704d 64e0 a84c 1223 914d 3fae 234d
00000340: 12a2 7b4d c5ce d14e b6b7 a14c d098 5f4e
00000350: 1702 f54c 2604 054e 459c 6a4d 8ce8 2a4e
00000360: 6b36 614e 9382 624f 0e92 1b4d edf7 e14e
00000370: 6c0c 724d 9b33 5d4f 1422 094f f662 0a4d
00000380: fa0c 614e a168 294e 0f04 a54e 538e 6c4c
00000390: 175d cd4e a708 a84e 68f2 394f 321e 3f4d
000003a0: ffa2 634d 43c6 9d4d 6804 e64e 3f7c 9c4c
000003b0: 62de 324e a352 604d ca2e 104e 6f25 df4d
000003c0: ed55 1b4f 015f 8c50 8761 004f 5b5d f74f
000003d0: 34ca 204f df88 994f a241 5b4f 0ad2 cb4f
000003e0: e06f 1450 371f 1351 43fe 264f f3ba 8f50
000003f0: c8b6 324e 625c 0b51 78a0 b350 a4d5 a94e

exp_avg f4 [32]
0.0022527375 -0.0048648333 0.00906817 -0.0040845154 0.015049173 -0.00087447977 0.0031222412 0.0046121962
-0.0031097978 -0.0010484211 0.0023807401 -0.026019823 -0.0036376205 0.0020902785 0.0023826775 0.021627868
-0.0009291308 0.0226704 0.0010744502 -0.0055874027 -0.0035006593 0.012913683 0.000772107 -0.0052600587
0.00080705533 -0.0049417634 -0.0064932522 0.0025401553 -0.004857394 0.0024301368 0.003044388 0.00024868685
00000000: aaa2 133b 2e69 9fbb a992 143c 66d7 85bb
00000010: ce90 763c 583d 65ba 849e 4c3b e821 973b
00000020: c0cd 4bbb 2d6b 89ba 3106 1c3b 8627 d5bc
00000030: 2565 6ebb 0efd 083b b226 1c3b ed2c b13c
00000040: ea90 73ba 46b7 b93c 91d4 8c3a 8816 b7bb
00000050: 516b 65bb ea93 533c 3967 4a3a 925c acbb
00000060: 9190 533a 84ee a1bb 59c5 d4bb bc78 263b
00000070: c62a 9fbb ee42 1f3b 5b84 473b 2f62 8239

exp_avg_sq f4 [32]
0.0010626194 0.0052408073 0.004868153 0.0015610243 0.0018306163 0.00080144557 0.0017194616 0.00077605346
0.00071992207 0.00060113 0.00050137955 0.006932133 0.00061715115 0.0010992305 0.0016397643 0.009537061
0.00050050864 0.00311029 0.00048600917 0.0005261617 0.005619843 0.0037415081 0.001116198 0.0015401138
0.00403499 0.00036130592 0.0013436505 0.0008915421 0.0006811994 0.0011318609 0.0005764418 0.002408349
00000000: 9747 8b3a 14bb ab3b 0785 9f3b 499b cc3a
00000010: 4af1 ef3a 1a18 523a 8f5f e13a 1170 4b3a
00000020: 27b9 3c3a 2795 1d3a 036f 033a f226 e33b
00000030: 50c8 213a 0e14 903a 5ced d63a 5541 1c3c
00000040: 9134 033a 02d6 4b3b 0ccf fe39 1dee 093a
00000050: a926 b83b 1734 753b 644d 923a a5dd c93a
00000060: f337 843b a96d bd39 6e1d b03a 61b6 693a
00000070: 8592 323a f35a 943a 5b1c 173a 64d5 1d3b

exp_avg f4 [32]
-13173.766 -11695.685 -11851.012 -10287.693 -10343.392 -13478.369 -13299.517 -10435.885
-13377.4375 -12530.836 -10539.835 -9147.556 -10725.383 -13309.145 -10167.114 -14132.419
-10519.342 -9762.418 -10654.135 -10905.193 -10677.262 -12603.457 -12736.73 -10284.407
-11331.663 -10704.2295 -10109.638 -12278.017 -10647.137 -12184.755 -10579.717 -11428.584
00000000: 10d7 4dc6 bdbe 36c6 0c2c 39c6 c6be 20c6
00000010: 919d 21c6 7a99 52c6 11ce 4fc6 8a0f 23c6
00000020: c005 51c6 58cb 43c6 57af 24c6 39ee 0ec6
00000030: 8895 27c6 94f4 4fc6 75dc 1ec6 add1 5cc6
00000040: 5e5d 24c6 ac89 18c6 8a78 26c6 c664 2ac6
00000050: 0cd5 26c6 d4ed 44c6 ec02 47c6 a1b1 20c6
00000060: a70e 31c6 eb40 27c6 8df6 1dc6 11d8 3fc6
00000070: 8c5c 26c6 0563 3ec6 de4e 25c6 5692 32c6

exp_avg_sq f4 [32]
2.92847e+09 3.3837028e+09 3.086728e+09 2.8473134e+09 2.989431e+09 2.7934213e+09 2.7269263e+09 2.621863e+09
2.9148884e+09 2.8949676e+09 2.533247e+09 2.427563e+09 2.6113472e+09 2.855561e+09 2.494479e+09 3.210345e+09
2.6464658e+09 2.6294372e+09 2.6088233e+09 2.7571046e+09 2.6403328e+09 2.7686863e+09 2.7954153e+09 2.862049e+09
3.104304e+09 2.6311992e+09 2.8371668e+09 2.7496271e+09 2.5788163e+09 2.9049252e+09 2.5469366e+09 3.108169e+09
00000000: e88c 2e4f 35af 494f bbfb 374f 8eb6 294f
00000010: 192f 324f 3a80 264f 9889 224f 7446 1c4f
00000020: abbd 2d4f b38d 2c4f 48fe 164f acb1 104f
00000030: ffa5 1b4f 6734 2a4f bbae 144f fa59 3f4f
00000040: ddbd 1d4f 07ba 1c4f 7c7f 1b4f 1456 244f
00000050: 4860 1d4f cd06 254f a79e 264f 6797 2a4f
00000060: ec07 394f ead4 1c4f bb1b 294f fbe3 234f
00000070: 9db5 194f a425 2d4f 2bcf 174f e542 394f

exp_avg f4 [32]
-23471.389 -22394.291 -21674.934 -24519.865 -25068.514 -22920.172 -22441.227 -23553.043
-23479.916 -24601.268 -22689.2 -25808.15 -23092.49 -23627.564 -23173.791 -24251.75
-23125.545 -24694.033 -22589.771 -23087.463 -22322.518 -24190.143 -23384.555 -24372.723
-21435.615 -22675.021 -24723.227 -23876.688 -23007.191 -24942.94 -22543.895 -21551.344
00000000: c75e b7c6 95f4 aec6 de55 a9c6 bb8f bfc6
00000010: 07d9 c3c6 5810 b3c6 7452 afc6 1602 b8c6
00000020: d56f b7c6 8932 c0c6 6642 b1c6 4da0 c9c6
00000030: fb68 b4c6 2197 b8c6 950b b5c6 8077 bdc6
00000040: 17ab b4c6 11ec c0c6 8b7b b0c6 ed5e b4c6
00000050: 0965 aec6 49fc bcc6 1cb1 b6c6 7269 bec6
00000060: 3b77 a7c6 0b26 b1c6 7426 c1c6 6089 bac6
00000070: 62be b3c6 e1dd c2c6 ca1f b0c6 b05e a8c6

exp_avg_sq f4 [32]
1.01911e+10 9.799093e+09 9.755531e+09 1.1225588e+10 1.1790917e+10 1.0035146e+10 9.420759e+09 1.1304336e+10
1.0251194e+10 1.0199949e+10 1.0634014e+10 1.1184061e+10 1.0948734e+10 1.0250742e+10 1.0431393e+10 9.242396e+09
1.1311644e+10 1.1258027e+10 1.0657757e+10 1.1021324e+10 1.0809537e+10 9.666971e+09 9.781186e+09 1.1279123e+10
8.889713e+09 1.0828599e+10 1.1169839e+10 9.830083e+09 1.1014986e+10 1.0160891e+10 1.0661199e+10 8.999106e+09
00000000: f6db 1750 9304 1250 665e 1150 3846 2750
00000010: c7b2 2f50 0b89 1550 5861 0c50 9f72 2850
00000020: 34c1 1850 b8fd 1750 8b75 1e50 cfa7 2650
00000030: 1b26 2350 7abf 1850 9b70 1b50 f1b8 0950
00000040: 7f8e 2850 f7c1 2750 1ed0 1e50 043b 2450
00000050: 1c13 2150 910c 1050 43c0 1150 7112 2850
00000060: 9077 0450 d45b 2150 8e71 2650 ca7a 1250
00000070: d622 2450 b968 1750 3fdd 1e50 dd18 0650
