lightning_logs/version_3/checkpoints/epoch=99-step=1700.ckpt (torch, 37072 bytes, 45 tensors)

model.0.weight f4 [8]
1.0073206 0.9414633 1.0693711 0.7791883 0.4812185 1.117054 1.2225951 0.9444783
00000000: e2ef 803f bd03 713f 27e1 883f e278 473f
00000010: 4562 f63e a0fb 8e3f ff7d 9c3f 54c9 713f

model.0.bias f4 [8]
0.009004976 -0.02325434 0.045936853 0.04418727 0.036244906 0.030859843 0.024981918 0.016244605
00000000: 9b89 133c e37f bebc 4828 3c3d b6fd 343d
00000010: 8a75 143d c8cd fc3c e1a6 cc3c 6813 853c

model.0.running_mean f4 [8]
5928.8325 5979.828 5875.912 78701.12 0.00012760784 2022.4019 6.273259 16.24097
00000000: a946 b945 a0de ba45 4c9f b745 8fb6 9947
00000010: 78ce 0539 dccc fc44 8abe c840 82ed 8141

model.0.running_var f4 [8]
64204.047 64713.3 62668.83 5.1499044e+09 0.00010839672 0.0477491 5.7910914 74.29543
00000000: 0ccc 7a47 4dc9 7c47 d4cc 7447 a77a 994f
00000010: 0c53 e338 8f94 433d 9f50 b940 4397 9442

model.1.weight f4 [16, 8]
-0.18243413 0.04437065 0.1323847 -0.083433166 -0.0035483288 -0.2913237 -0.3154283 -0.19926532
0.11583028 -0.17744097 -0.114970446 0.022581559 0.039789047 0.60714084 0.4890376 0.08321082
-0.19331616 -0.326223 -0.19216506 0.1333793 0.03007075 0.0962453 0.21799737 -0.14841329
0.27939817 0.3631674 0.0007371349 -0.09958474 -0.08968614 -0.31373075 -0.15957062 0.18405591
-0.3437782 -0.2783012 -0.009245595 0.12962951 -0.02419674 -0.22771229 -0.2960372 -0.1997259
-0.32814577 -0.36333898 -0.12670347 0.07456172 -0.040132567 -0.079621345 -0.16549389 0.19035204
0.09216622 -0.18358247 0.32398736 0.16013752 -0.037875775 -0.31489104 -0.2277571 0.30488384
-0.03295675 0.27449596 0.19020872 -0.19410604 -0.040416468 -0.21575761 -0.21112953 -0.28652906
0.1339859 0.2681538 0.47318462 -0.19177507 0.029023604 -0.03256375 -0.08901991 -0.03715259
0.059616245 0.16210923 0.20150244 0.01256525 -0.075913146 -0.31117356 -0.15555215 0.15892483
-0.103855506 0.19191149 0.18844315 -0.08723808 -0.021866586 -0.37922415 -0.28291106 -0.10200629
0.32245457 0.26238605 0.18634598 -0.27690554 -0.046179015 0.19724406 -0.038646765 0.0020539265
-0.019568156 -0.27835307 -0.2269004 0.16143762 -0.06127491 -0.20016474 0.36658743 0.32898378
-0.093187205 0.12895252 -0.42416078 0.06363534 -0.054144505 -0.11802895 0.3784282 0.14346132
-0.1956127 -0.08710294 -0.21286139 0.18322295 -0.051970847 -0.24195048 -0.03710379 -0.3935559
0.22465023 0.26002097 0.4599869 -0.28342935 0.02253751 0.027574833 -0.10682151 -0.055135213
00000000: 03d0 3abe 00be 353d db8f 073e 02df aabd
00000010: 148b 68bb 6128 95be d17f a1be 350c 4cbe
00000020: 6d38 ed3d 16b3 35be a075 ebbd f6fc b83c
00000030: d7f9 223d 956d 1b3f 2363 fa3e 6f6a aa3d
00000040: acf4 45be b306 a7be ebc6 44be 9594 083e
00000050: ef56 f63c 411c c53d b43a 5f3e a7f9 17be
00000060: 470d 8f3e 14f1 b93e 493c 413a 16f3 cbbd
00000070: 5ead b7bd 51a1 a0be 7b66 23be 2779 3c3e
00000080: b203 b0be 7f7d 8ebe d67a 17bc 99bd 043e
00000090: 3e38 c6bc 692d 69be 3092 97be f284 4cbe
000000a0: b902 a8be 9107 babe 8ebe 01be d1b3 983d
000000b0: 0c62 24bd 8410 a3bd 3b77 29be a5eb 423e
000000c0: a5c1 bc3d 0bfd 3bbe ace1 a53e 17fb 233e
000000d0: a123 1bbd 6639 a1be 2839 69be bc19 9c3e
000000e0: a8fd 06bd bc8a 8c3e 13c6 423e bcc3 46be
000000f0: bd8b 25bd 90ef 5cbe 5732 58be f0b3 92be
00000100: 9a33 093e 744b 893e 4145 f23e af60 44be
00000110: e9c2 ed3c 9161 05bd 1250 b6bd 502d 18bd
00000120: 2a30 743d f6ff 253e a856 4e3e 7ade 4d3c
00000130: 5a78 9bbd 2452 9fbe 1049 1fbe 31bd 223e
00000140: 32b2 d4bd 7284 443e 3ef7 403e e1a9 b2bd
00000150: 8e21 b3bc ab29 c2be b8d9 90be ace8 d0bd
00000160: c418 a53e 7757 863e 7bd1 3e3e 90c6 8dbe
00000170: 3526 3dbd 59fa 493e 124c 1ebd 2b9b 063b
00000180: 664d a0bc 4b84 8ebe 9458 68be e74f 253e
00000190: 66fb 7abd fcf7 4cbe 59b1 bb3e 9070 a83e
000001a0: efd8 bebd 210c 043e 9a2b d9be 3f53 823d
000001b0: a1c6 5dbd 2ab9 f1bd 57c1 c13e 86e7 123e
000001c0: b24e 48be 0763 b2bd 56f8 59be cc9e 3b3e
000001d0: 62df 54bd dec1 77be 25fa 17bd 2980 c9be
000001e0: b60a 663e 7821 853e 6783 eb3e a71d 91be
000001f0: 96a0 b83c 9ee4 e13c 3cc5 dabd 76d5 61bd

model.1.bias f4 [16]
-0.25103357 0.19036916 0.1294995 -0.1230094 0.1094732 0.277379 0.18935758 -0.08546317
0.20598903 -0.12811059 -0.12637779 -0.14396912 0.096502095 -0.095581464 -0.061043195 -0.043210603
00000000: 7987 80be 22f0 423e 849b 043e 5aec fbbd
00000010: 7c33 e03d 9f04 8e3e f4e6 413e 5107 afbd
00000020: caee 523e 6c2f 03be 2e69 01be a46c 13be
00000030: e4a2 c53d 37c0 c3bd 6e08 7abd 9afd 30bd

model.2.weight f4 [16]
0.8875942 1.0518706 0.74693763 0.8880702 0.78077793 1.1401609 0.74586374 0.8335884
0.7702963 0.95735884 0.5220968 0.64530176 0.9617051 0.7327298 1.0294362 0.78176385
00000000: 6039 633f b2a3 863f 4e37 3f3f 9258 633f
00000010: 10e1 473f cbf0 913f edf0 3e3f 0d66 553f
00000020: 2332 453f 7815 753f 23a8 053f 7f32 253f
00000030: 4e32 763f 2e94 3b3f 91c4 833f ad21 483f

model.2.bias f4 [16]
-0.55278856 -0.61897475 0.6844375 -0.38248166 0.020917933 -0.64119935 -0.21675284 -0.0767276
-0.09540178 -0.05943236 0.5450588 0.54746914 -0.13853727 -0.590108 -0.37051728 0.584855
00000000: 8d83 0dbf 2175 1ebf 4c37 2f3f a3d4 c3be
00000010: 165c ab3c a425 24bf 75f4 5dbe 5c23 9dbd
00000020: 0262 c3bd 596f 73bd f988 0b3f f026 0c3f
00000030: b7dc 0dbe 5111 17bf 71b4 bdbe 0fb9 153f

model.2.running_mean f4 [16]
-0.26592264 0.21630539 0.138447 -0.14357632 0.10152586 0.28059018 0.2102125 -0.10934387
0.21183856 -0.12962805 -0.14714836 -0.15393172 0.10975015 -0.10773589 -0.075761475 -0.043082077
00000000: 0327 88be 297f 5d3e 0dc5 0d3e ac05 13be
00000010: caec cf3d 84a9 8f3e f241 573e aeef dfbd
00000020: 35ec 583e 37bd 04be 0fae 16be 47a0 1dbe
00000030: b0c4 e03d a2a4 dcbd d528 9bbd d576 30bd

model.2.running_var f4 [16]
0.1370154 0.31861892 0.6845316 0.5227764 0.4313853 0.6912603 0.26773754 0.34918213
0.89137703 0.2742084 0.20482898 0.70843256 0.7401127 0.5252865 0.43187144 1.0798417
00000000: c44d 0c3e 0522 a33e 773d 2f3f add4 053f
00000010: 89de dc3e 6ff6 303f e514 893e 00c8 b23e
00000020: 4931 643f 0b65 8c3e b0be 513e d65b 353f
00000030: 0778 3d3f 2d79 063f 411e dd3e 4138 8a3f

model.4.weight f4 [32, 16]
0.08831767 0.019283282 -0.12058665 -0.09509025 0.03953797 -0.7055312 -0.0149659 -0.052302483
-0.058236916 0.09092916 -0.0830284 0.034711037 -0.015064107 0.024811737 0.08096592 0.080274016
0.12596811 -0.012412923 -0.061484613 -0.045286868 0.033290848 -0.9242586 -0.062117513 -0.16064072
0.0236822 0.066176996 -0.05388282 0.06500896 0.025333827 -0.0025206804 0.06408726 0.124722905
0.09431375 0.0015066649 -0.08730546 -0.12759127 0.067282215 -0.784882 -0.033063468 -0.0469004
-0.092134796 0.1525459 -0.09503174 0.11348262 0.066566244 -0.070870936 0.06265398 0.06957256
-0.5312385 0.0292768 -0.0021995576 0.011253166 -0.021843478 -0.022320757 -0.096143275 0.003402674
0.15283306 0.15302196 -0.10604267 0.1610377 0.039222453 -0.030512849 0.039803628 -0.23468378
-0.078578874 0.1903719 0.06739005 -0.5540944 0.0007368035 0.10684562 -0.0980641 -0.11016258
-0.025851948 -0.07876513 -0.019964393 -0.060033146 -0.08412284 0.028597133 0.084936135 -0.17232263
-0.025253233 -0.094353035 -0.13280866 0.02665031 0.09869372 0.109309584 0.11673546 0.049779378
0.01286092 -0.06624545 -0.08892 -0.0936358 -0.28386816 -0.52735734 0.15808195 0.15417682
0.1061643 -0.55019253 -0.16964394 -0.049619902 0.06288004 0.008563406 -0.008187976 0.09090546
-0.022728644 0.0721677 -0.015724408 0.116656564 0.1075803 0.0115865385 -0.040846772 -0.18200132
-0.7176953 0.053079054 0.021349035 0.086164616 -0.05868639 0.034856148 -0.050986223 -0.030163584
0.1355192 0.054212134 -0.10635013 -0.08894122 -0.019340752 0.07224699 0.0810396 0.0045941737
-0.0110997725 0.20709199 0.09648935 -0.60424477 -0.07067132 0.12612969 -0.023964975 -0.04577524
-0.034875274 -0.07197496 -0.048834357 -0.06909223 -0.05756651 0.01880445 0.10480807 -0.2400231
0.025953349 0.18683906 -0.14606701 0.024592312 -0.15228947 0.25091437 -0.0190094 0.0051159235
0.104147375 -0.019204961 -0.06253407 -0.11691696 0.14551687 -0.04673275 -0.6575639 0.062593125
0.1057879 -0.05901095 0.07305609 -0.067179374 -0.18753555 -0.7153823 -0.07985527 -0.08293003
-0.16254342 0.1861791 -0.05526622 0.047955565 0.03494324 -0.04587708 0.068177536 0.20641506
0.0752129 -0.6363068 -0.24902344 0.069402285 0.08624848 0.011007382 0.04018322 0.0030273525
0.034981288 -0.14975782 0.040403597 -0.1364049 0.099110305 0.08754276 0.033539437 0.09537132
-0.018136723 0.074503094 0.09988882 -0.07677487 -0.115190424 -0.0413562 0.039579213 0.15674831
0.11064683 0.060440935 -0.19166838 -0.010196042 -0.32627785 -0.52947533 -0.20034987 -0.20292763
0.055237856 0.18224467 0.17923571 -0.010115884 -0.0883526 0.09808927 -0.51384497 0.17034273
0.15195918 0.04867189 -0.10046364 -0.21649238 -0.03585011 -0.116550915 -0.035372633 -0.003096207
0.123022206 -0.6470702 -0.19116296 -0.016975617 0.08683139 0.012167948 -0.058293734 0.049936686
-0.03911838 0.07978369 0.00016387296 0.111849554 0.09473173 0.08132246 -0.064179584 -0.1600643
-0.06422007 0.24442627 0.1782738 -0.6055598 -0.052514195 0.12762365 -0.09212044 -0.16824016
-0.07199796 -0.13316 0.026991608 -0.18574889 -0.08919467 0.0012366952 0.07129233 0.018107437
00000000: e5df b43d f9f7 9d3c 22f6 f6bd adbe c2bd
00000010: 91f2 213d b19d 34bf 8933 75bc 213b 56bd
00000020: d589 6ebd 1139 ba3d cb0a aabd 292d 0e3d
00000030: 72cf 76bc fc41 cb3c 76d1 a53d b466 a43d
00000040: c9fd 003e 935f 4bbc 4ad7 7bbd b97e 39bd
00000050: fc5b 083d 369c 6cbf ef6e 7ebd 007f 24be
00000060: 2c01 c23c ce87 873d 3bb4 5cbd 6b23 853d
00000070: e388 cf3c 0032 25bb 2e40 833d b96e ff3d
00000080: 9127 c13d 497b c53a 34cd b2bd 49a7 02be
00000090: 42cb 893d 07ee 48bf 8f6d 07bd a21a 40bd
000000a0: 2bb1 bcbd fe34 1c3e 00a0 c2bd 9369 e83d
000000b0: e253 883d c824 91bd bb50 803d 0f7c 8e3d
000000c0: 3fff 07bf e6d5 ef3c 7426 10bb 335f 383c
000000d0: 18f1 b2bc 05da b6bc c4e6 c4bd 66ff 5e3b
000000e0: 4580 1c3e cab1 1c3e e62c d9bd 11e7 243e
000000f0: b9a7 203d 15f6 f9bc 2109 233d f250 70be
00000100: f6ed a0bd daf0 423e cb03 8a3d 21d9 0dbf
00000110: 0c26 413a e0d1 da3d d5d5 c8bd eb9c e1bd
00000120: 77c7 d3bc 9d4f a1bd 5e8c a3bc 51e5 75bd
00000130: 9848 acbd 8944 ea3c fff2 ad3d 5875 30be
00000140: dedf cebc 2a3c c1bd fefe 07be c051 da3c
00000150: ef1f ca3d b4dd df3d 0013 ef3d 76e5 4b3d
00000160: 9cb6 523c b2ab 87bd b01b b6bd 20c4 bfbd
00000170: 2b57 91be e400 07bf 3ce0 213e 87e0 1d3e
00000180: ab6c d93d 6bd9 0cbf 24b7 2dbe 3d3e 4bbd
00000190: 40c7 803d 874d 0c3c dc26 06bc a42c ba3d
000001a0: 6c31 babc a9cc 933d 79d0 80bc a3e9 ee3d
000001b0: 0f53 dc3d 77d5 3d3c f24e 27bd 8e5e 3abe
000001c0: e1ba 37bf 6c69 593d 2ce4 ae3c 1377 b03d
000001d0: 2461 70bd 52c5 0e3d eed6 50bd 9f19 f7bc
000001e0: 8cc5 0a3e 8b0d 5e3d 19ce d9bd d026 b6bd
000001f0: 7f70 9ebc 3bf6 933d 17f8 a53d b98a 963b
00000200: d2db 35bc ec0f 543e 359c c53d c9af 1abf
00000210: 20bc 90bd 2428 013e 3252 c4bc d17e 3bbd
00000220: 60d9 0ebd 9c67 93bd 8906 48bd 3a80 8dbd
00000230: dcca 6bbd ca0b 9a3c 9da5 d63d 9ec8 75be
00000240: 1e9c d43c bd52 3f3e 9792 15be d175 c93c
00000250: c5f1 1bbe d977 803e 9ab9 9bbc 7aa3 a73b
00000260: 384b d53d b953 9dbc dd11 80bd 2972 efbd
00000270: 6002 153e d76a 3fbd 1c56 28bf d330 803d
00000280: 54a7 d83d 77b5 71bd 6e9e 953d 5795 89bd
00000290: 5209 40be 4b23 37bf 298b a3bd 38d7 a9bd
000002a0: c871 26be bca5 3e3e d55e 62bd 0e6d 443d
000002b0: a520 0f3d 9be9 3bbd aaa0 8b3d 785e 533e
000002c0: 3909 9a3d 01e5 22bf 0000 7fbe c922 8e3d
000002d0: 0ba3 b03d 4e58 343c 2997 243d 8c66 463b
000002e0: 8a48 0f3d 1d5a 19be 3e7e 253d baad 0bbe
000002f0: 58fa ca3d 9e49 b33d a660 093d 0a52 c33d
00000300: 7793 94bc 1495 983d 8292 cc3d 253c 9dbd
00000310: f5e8 ebbd 1e65 29bd d01d 223d a182 203e
00000320: ce9a e23d ea90 773d b744 44be 4d0d 27bc
00000330: e40d a7be b28b 07bf 8428 4dbe 43cc 4fbe
00000340: 1741 623d 599e 3a3e 9189 373e 18bd 25bc
00000350: 35f2 b4bd 07e3 c83d 588b 03bf 536e 2e3e
00000360: 309b 1b3e 2d5c 473d e2bf cdbd 2eb0 5dbe
00000370: 91d7 12bd 3fb2 eebd e5e2 10bd bce9 4abb
00000380: 11f3 fb3d 65a6 25bf 39c0 43be 7310 8bbc
00000390: a8d4 b13d 135c 473c 69c5 6ebd 698a 4c3d
000003a0: 983a 20bd a265 a33d 50d5 2b39 6111 e53d
000003b0: b602 c23d 648c a63d 9670 83bd e5e7 23be
000003c0: d085 83bd e14a 7a3e 688d 363e f805 1bbf
000003d0: 2019 57bd c6af 023e a4a9 bcbd 2647 2cbe
000003e0: ab73 93bd 185b 08be 811d dd3c f534 3ebe
000003f0: b2ab b6bd 9b18 a23a b701 923d 0c56 943c

model.4.bias f4 [32]
-0.30219027 -0.23024535 0.17884172 0.09221395 0.012780671 0.035619557 0.07370125 0.19395216
0.07218229 0.13888723 0.048237663 0.0029655928 -0.17013009 0.16041005 -0.045807466 -0.08035567
0.17876308 -0.053839605 -0.0660268 0.22034356 -0.06390769 0.0052010533 -0.22600794 0.03200752
-0.099251464 -0.02132829 0.095523044 0.0057710754 -0.17118146 0.11893546 -0.1773501 -0.053075265
00000000: afb8 9abe 70c5 6bbe 4922 373e abda bc3d
00000010: 0566 513c d0e5 113d aef0 963d 659b 463e
00000020: 4fd4 933d 7438 0e3e db94 453d 645a 423b
00000030: 9536 2ebe 8842 243e 9ca0 3bbd 8391 a4bd
00000040: ab0d 373e eb86 5cbd 0f39 87bd bea1 613e
00000050: 09e2 82bd 996d aa3b a06e 67be 511a 033d
00000060: 5a44 cbbd abb8 aebc 96a1 c33d 4a1b bd3b
00000070: 314a 2fbe 6f94 f33d 449b 35be 7365 59bd

model.5.weight f4 [32]
3.0362954 3.0091724 3.0109797 3.0827847 2.9821808 3.0328116 3.0285072 3.0645657
3.1059616 3.0383983 3.035257 3.0295196 2.9800549 3.0589023 3.023144 3.0472684
3.0022106 3.0377932 3.0864534 2.990849 3.04745 3.06599 3.0071886 2.9620116
2.9995694 3.0194519 3.0277257 3.0265496 3.029996 3.0377145 2.9875257 3.0755734
00000000: aa52 4240 4896 4040 e4b3 4040 584c 4540
00000010: 0ddc 3e40 9619 4240 10d3 4140 d821 4440
00000020: 13c8 4640 1e75 4240 a741 4240 a6e3 4140
00000030: 38b9 3e40 0ec5 4340 317b 4140 7206 4340
00000040: 3824 4040 346b 4240 7488 4540 126a 3f40
00000050: 6c09 4340 2e39 4440 c775 4040 9991 3d40
00000060: f2f8 3f40 b33e 4140 42c6 4140 fdb2 4140
00000070: 74eb 4140 ea69 4240 9f33 3f40 32d6 4440

model.5.bias f4 [32]
2.1157448 2.0969048 2.1137867 2.151022 2.0351467 2.1418743 2.1010432 2.125144
2.1495998 2.1239116 2.1158762 2.0860496 2.0711942 2.1087656 2.1080291 2.1020782
2.0801723 2.0803447 2.1240191 2.0918999 2.1120522 2.1376479 2.0951617 2.0530283
2.059932 2.070668 2.0996587 2.1159005 2.1294966 2.1359673 2.0816984 2.109867
00000000: 5d68 0740 b033 0640 4848 0740 58aa 0940
00000010: d83f 0240 7814 0940 7e77 0640 5c02 0840
00000020: 0b93 0940 2bee 0740 846a 0740 d681 0540
00000030: 728e 0440 04f6 0640 f3e9 0640 7388 0640
00000040: 8b21 0540 5e24 0540 eeef 0740 b0e1 0540
00000050: dd2b 0740 39cf 0840 2117 0640 d164 0340
00000060: edd5 0340 d385 0440 cf60 0640 ea6a 0740
00000070: ac49 0840 b0b3 0840 8c3a 0540 1008 0740

model.5.running_mean f4 [32]
-0.48120028 -0.3597696 0.0677382 -0.015884116 -0.259233 -0.11837104 -0.12764956 0.06254345
-0.21714105 -0.100276746 0.031952042 -0.23655476 -0.50667655 0.10528179 -0.26941648 -0.25785536
0.060437307 -0.2514697 -0.3090848 0.07401128 -0.30874476 -0.1620908 -0.30152383 -0.06592214
-0.12579809 -0.31280446 0.019773604 -0.21003358 -0.4100601 -0.10929903 -0.39038342 -0.3796371
00000000: e25f f6be b933 b8be 53ba 8a3d 681f 82bc
00000010: 30ba 84be 846c f2bd 91b6 02be c816 803d
00000020: 395a 5ebe e55d cdbd 25e0 023d 693b 72be
00000030: 8eb5 01bf fb9d d73d f5f0 89be 9e05 84be
00000040: 1c8d 773d a3c0 80be 5d40 9ebe 3a93 973d
00000050: cb13 9ebe 21fb 25be 5561 9abe 3002 87bd
00000060: 37d1 00be e827 a0be 41fc a13c 0b13 57be
00000070: 66f3 d1be 2bd8 dfbd 56e0 c7be cb5f c2be

model.5.running_var f4 [32]
0.10183828 0.16694833 0.11836351 0.035847474 0.27579528 0.09191616 0.059416786 0.06019084
0.32777196 0.13554315 0.14548783 0.080163404 0.06781728 0.08585488 0.08215928 0.3470444
0.079627596 0.23410198 0.32058728 0.094885595 0.07379348 0.017764024 0.06237466 0.096322685
0.057872728 0.42930752 0.08311294 0.11116399 0.13329011 0.09964647 0.094680615 0.341195
00000000: 9790 d03d 81f4 2a3e 9168 f23d cdd4 123d
00000010: 0a35 8d3e 8a3e bc3d 045f 733d ac8a 763d
00000020: bad1 a73e d3cb 0a3e c3fa 143e b62c a43d
00000030: c9e3 8a3d afd4 af3d 2043 a83d ceaf b13e
00000040: cb13 a33d 6eb8 6f3e 0424 a43e 6153 c23d
00000050: 0921 973d dc85 913c 927c 7f3d d444 c53d
00000060: f40b 6d3d 32ce db3e 1e37 aa3d f2a9 e33d
00000070: 347d 083e 7313 cc3d e9e7 c13d 1cb1 ae3e

model.7.weight f4 [16, 32]
2.0617201 2.0144372 1.7483573 1.8069992 1.9198351 1.850563 2.008352 1.7809526
1.8129297 1.9478186 1.9468715 1.8984078 1.96647 1.9388542 1.9709467 1.7988249
2.069209 1.9587591 2.0489244 1.7782133 1.7708874 1.8385644 1.7962867 1.7594671
2.0176249 1.8299856 1.9920853 1.7703664 1.845604 1.9723414 2.004063 1.8921398
-2.0060463 -1.7555069 -1.7999089 -1.8325938 -1.809709 -1.7331218 -1.835774 -1.9338964
-1.9110134 -2.0369372 -1.9999069 -2.0377736 -1.8290054 -1.9587834 -1.7240807 -1.999159
-1.9411186 -1.9309618 -1.7987332 -2.0624177 -2.0450253 -1.9495974 -2.01098 -1.9246478
-1.813353 -2.044812 -1.916138 -1.9322417 -2.0316734 -1.7982966 -2.0238762 -1.9469359
-1.8142197 -2.0432563 -1.8056238 -1.9081253 -1.9510561 -1.8226218 -1.96188 -2.0384717
-2.1156156 -1.9543066 -1.8641015 -2.13399 -1.9533404 -1.8337536 -1.8234714 -1.9380367
-2.0595012 -1.8744721 -1.8643445 -2.1146028 -1.8187797 -2.082365 -1.8426269 -1.8220402
-2.0538855 -1.9040884 -1.9408447 -2.0263035 -1.8623668 -2.0881867 -2.0682487 -1.8535926
-1.8678328 -1.8636335 -1.8972354 -2.0143206 -1.7604706 -1.9287537 -1.7583493 -2.000248
-1.8117672 -1.866195 -1.881916 -1.9971277 -1.8160621 -2.0136917 -1.9875424 -1.7260745
-1.9831004 -1.7251203 -1.8861512 -1.8255576 -1.8152194 -1.9447097 -1.7986087 -1.734669
-1.7426372 -1.9754122 -1.844626 -1.7578726 -1.9736629 -1.7059401 -2.0047102 -1.7851725
-1.8472732 -1.9866132 -1.7424674 -1.8527653 -1.8403703 -1.929993 -1.9496111 -1.8963029
-1.9291341 -1.8092695 -2.0830932 -1.8770158 -2.0141938 -1.8232837 -1.9692428 -2.0281615
-1.9739449 -2.1022909 -2.00026 -1.9366587 -1.9267617 -1.8592271 -1.9142425 -2.064637
-2.0202627 -2.0531127 -2.0440576 -2.0222728 -1.7309148 -2.0678706 -1.7327422 -1.8338909
1.9239233 1.9264506 1.8762496 2.1038105 2.0007691 1.9721663 1.9119792 2.161941
1.8435452 2.022176 2.0140607 1.9441242 1.9487411 1.860161 1.9846103 1.9472353
1.9955645 1.9759274 2.1048281 2.0080132 1.9062762 1.9514151 1.9199013 2.0859296
2.0814576 1.9935808 1.9513621 1.9863957 1.8407189 2.0347006 2.152888 1.9082849
1.8345689 1.8519293 2.0133047 2.0499122 1.9616054 2.021418 2.0056798 1.9403137
1.912723 1.9988406 1.8769758 1.8187008 1.9295512 1.8528777 1.912264 2.1181748
1.9114083 2.0197308 1.8704228 1.9370164 1.8888587 1.9042044 2.1214948 1.8413469
2.0028698 2.025534 2.036983 1.9303132 1.8942896 1.9675418 1.893691 2.0280287
1.9865432 1.9070828 1.8748232 2.0026076 1.8528861 1.9347463 1.6863515 1.8211696
1.9209949 1.8839301 1.6900893 1.9358127 1.9601215 1.9699613 1.6787822 1.8268245
1.9315138 1.8575519 1.976713 1.9785132 1.9383777 1.8831125 1.8645262 1.6959702
1.7307539 1.7264804 1.8513465 1.910167 1.7176883 1.7512952 1.9442251 1.8373598
00000000: 39f3 0340 8aec 0040 2cca df3f c04b e73f
00000010: 28bd f53f 40df ec3f d788 0040 41f6 e33f
00000020: 150e e83f 1f52 f93f 1633 f93f 07ff f23f
00000030: 4ab5 fb3f 602c f83f fb47 fc3f e53f e63f
00000040: ec6d 0440 9eb8 fa3f 9421 0340 7e9c e33f
00000050: 70ac e23f 1456 eb3f b9ec e53f 3836 e13f
00000060: c420 0140 f83c ea3f a7fc fe3f 5e9b e23f
00000070: c03c ec3f af75 fc3f 9142 0040 a331 f23f
00000080: 1063 00c0 73b4 e0bf 6a63 e6bf 6f92 eabf
00000090: 8ba4 e7bf efd6 ddbf a4fa eabf eb89 f7bf
000000a0: 169c f4bf 2e5d 02c0 f3fc ffbf e26a 02c0
000000b0: d91c eabf 6ab9 fabf adae dcbf 71e4 ffbf
000000c0: 9376 f8bf c229 f7bf e43c e6bf a7fe 03c0
000000d0: b2e1 02c0 688c f9bf e5b3 00c0 dc5a f6bf
000000e0: f31b e8bf 33de 02c0 0344 f5bf b253 f7bf
000000f0: f006 02c0 952e e6bf 3087 01c0 3235 f9bf
00000100: 5a38 e8bf b6c4 02c0 ae1e e7bf 733d f4bf
00000110: 35bc f9bf ac4b e9bf e21e fbbf 5276 02c0
00000120: 3f66 07c0 b826 fabf e19a eebf 4b93 08c0
00000130: 0f07 fabf 70b8 eabf 8367 e9bf 9611 f8bf
00000140: dece 03c0 b4ee efbf d7a2 eebf a755 07c0
00000150: c6cd e8bf 7845 05c0 33db ebbf 9d38 e9bf
00000160: dc72 03c0 2bb9 f3bf 996d f8bf f5ae 01c0
00000170: 0962 eebf daa4 05c0 305e 04c0 8642 edbf
00000180: 2515 efbf 8b8b eebf 9cd8 f2bf a1ea 00c0
00000190: 1a57 e1bf 67e1 f6bf 9711 e1bf 1004 00c0
000001a0: fde7 e7bf 7adf eebf a0e2 f0bf e1a1 ffbf
000001b0: b974 e8bf 53e0 00c0 ca67 febf 02f0 dcbf
000001c0: 3cd6 fdbf bed0 dcbf 676d f1bf dfab e9bf
000001d0: 1c59 e8bf 3fec f8bf cf38 e6bf a209 debf
000001e0: bc0e dfbf 4fda fcbf b41c ecbf f801 e1bf
000001f0: fca0 fcbf 3f5c dabf 2c4d 00c0 8880 e4bf
00000200: 7373 ecbf 5749 febf 2c09 dfbf 6a27 edbf
00000210: 4191 ebbf 030a f7bf db8c f9bf 0eba f2bf
00000220: deed f6bf 2596 e7bf 6651 05c0 0e42 f0bf
00000230: 8de8 00c0 5c61 e9bf 2610 fcbf 66cd 01c0
00000240: 3aaa fcbf ef8b 06c0 4304 00c0 6fe4 f7bf
00000250: 21a0 f6bf 27fb edbf e605 f5bf 0323 04c0
00000260: fc4b 01c0 3366 03c0 d7d1 02c0 eb6c 01c0
00000270: 9e8e ddbf fe57 04c0 7fca ddbf f0bc eabf
00000280: 1e43 f63f ef95 f63f f228 f03f d5a4 0640
00000290: 9a0c 0040 f26f fc3f bcbb f43f 3e5d 0a40
000002a0: 4af9 eb3f 556b 0140 5fe6 0040 10d9 f83f
000002b0: 5970 f93f c119 ee3f b607 fe3f 023f f93f
000002c0: a86e ff3f 30eb fc3f 81b5 0640 4a83 0040
000002d0: dc00 f43f f8c7 f93f 53bf f53f df7f 0540
000002e0: 9a36 0540 a82d ff3f 3cc6 f93f 3742 fe3f
000002f0: ad9c eb3f 8938 0240 ebc8 0940 ae42 f43f
00000300: 27d3 ea3f 050c ed3f fcd9 0040 c331 0340
00000310: e315 fb3f ea5e 0140 0f5d 0040 335c f83f
00000320: 1bd4 f43f 02da ff3f be40 f03f 30cb e83f
00000330: 89fb f63f 192b ed3f 11c5 f43f 2d90 0740
00000340: 07a9 f43f 4543 0140 046a ef3f 27f0 f73f
00000350: 1fc6 f13f f8bc f33f 92c6 0740 41b1 eb3f
00000360: 052f 0040 59a2 0140 ee5d 0240 8114 f73f
00000370: 1578 f23f 69d8 fb3f 7764 f23f 39cb 0140
00000380: 0c47 fe3f 4a1b f43f 35fa ef3f b92a 0040
00000390: 5f2b ed3f c4a5 f73f 5eda d73f 161c e93f
000003a0: 29e3 f53f 9f24 f13f d954 d83f b6c8 f73f
000003b0: 43e5 fa3f b127 fc3f 56e2 d63f 63d5 e93f
000003c0: d83b f73f 43c4 ed3f ee04 fd3f ec3f fd3f
000003d0: c31c f83f d509 f13f cba8 ee3f 8d15 d93f
000003e0: 5889 dd3f 4ffd dc3f ecf8 ec3f 5a80 f43f
000003f0: 36dd db3f 712a e03f 5edc f83f 9b2e eb3f

model.7.bias f4 [16]
1.7539209 -1.5470093 -1.7717646 -1.4433365 -1.6148343 1.7838275 1.7381905 1.5755655
-1.4186933 1.6414142 1.8623053 1.7726613 1.7588487 1.417297 1.5226246 -1.406181
00000000: 7b80 e03f 6704 c6bf 2fc9 e2bf 40bf b8bf
00000010: e4b2 cebf 7654 e43f 077d de3f 21ac c93f
00000020: be97 b5bf dc19 d23f 0560 ee3f 91e6 e23f
00000030: f421 e13f fd69 b53f 5de5 c23f bdfd b3bf

model.8.weight f4 [1, 16]
2.1212606 -2.1287944 -2.0431385 -2.2329874 -2.1021605 2.0168338 2.058534 2.2342334
-2.1024055 2.2089958 2.008811 1.9958025 2.0004685 2.1750407 2.2265282 -2.184726
00000000: bcc2 0740 2b3e 08c0 c8c2 02c0 44e9 0ec0
00000010: cc89 06c0 ce13 0140 05bf 0340 aefd 0e40
00000020: d08d 06c0 3060 0d40 5c90 0040 7576 ff3f
00000030: ad07 0040 de33 0b40 707f 0e40 8dd2 0bc0

exp_avg f4 [8]
-709.374 7563.168 -1505.9482 1922.394 3693.1187 -5522.853 -3646.3423 2642.0486
00000000: f057 31c4 5859 ec45 583e bcc4 9c4c f044
00000010: e6d1 6645 d396 acc5 7ae5 63c5 c720 2545

exp_avg_sq f4 [8]
4.3005025e+09 6.1742705e+09 4.9881677e+09 1.7073491e+09 4.5629104e+08 9.139015e+09 1.2318561e+10 5.8962074e+09
00000000: 3b2a 804f f201 b84f b3a8 944f 2988 cb4e
00000010: 9793 d94d 932e 0850 958f 3750 7eb8 af4f

exp_avg f4 [8]
-8.1768085e-05 -0.0051260195 -1.2346092e-05 -0.00016437327 -0.00014101152 0.0026392816 0.0031660015 0.00061964267
00000000: e87a abb8 2bf8 a7bb 1022 4fb7 9d5b 2cb9
00000010: 7edc 13b9 ccf7 2c3b b17c 4f3b 846f 223a

exp_avg_sq f4 [8]
0.00012920263 0.00022971228 0.00012923857 2.2922248e-05 1.3576317e-05 0.0018439441 0.00115506 9.879378e-05
00000000: 917a 0739 ecde 7039 3784 0739 2749 c037
00000010: d6c5 6337 7fb0 f13a 6265 973a 822f cf38

exp_avg f4 [16, 8]
-5790.3115 -1312.1957 -6813.4487 -9994.789 7760.067 12563.175 484.60037 -13992.266
-51572.51 -23356.996 -47261.996 -18929.227 26989.781 11503.833 -22266.941 -7817.13
509.6154 1664.3197 3447.7349 3353.7505 -2195.484 4521.418 -3917.523 -8533.071
403.2457 3323.0398 3970.8245 -9528.232 1396.2676 6457.269 -66.81978 -1095.3322
5986.0625 5953.721 7844.965 1355.6177 -1207.365 1424.803 -5154.798 -11476.073
-16492.479 -17237.578 -20488.033 13018.55 1985.412 1949.73 47210.184 -38957.625
6845.2363 7058.499 10247.196 165.48521 -1674.5638 7338.7227 -8979.0 -8353.638
2821.7932 3814.1287 292.86368 -148.51012 -1708.6562 3613.802 -727.2263 1866.0358
583.779 -126.65036 474.0407 1704.2487 -1503.0026 714.9328 -269.01013 -2198.5261
-899.8454 -2575.2695 -3304.4026 -2427.3848 -494.19672 14151.72 -32372.518 2467.1714
-17281.947 -13075.994 -10668.639 128.58142 -3195.5654 2522.2295 7235.155 -52183.77
-2355.7104 -921.96295 509.34195 -71.44082 -2544.351 2708.9797 -5051.2646 -5450.9883
3569.718 1550.3547 7714.0415 -735.025 -4454.447 -3879.669 1046.9824 2569.8225
7903.4204 9808.661 14871.838 2224.7493 -1838.9457 786.52673 16068.349 -3870.4932
-587.4107 -1008.5008 3833.3162 -7625.9766 -4182.9897 1450.0475 -24762.281 -2871.979
-1275.8806 331.27756 -885.26666 -187.84863 515.31683 2168.746 -5310.887 1874.3259
00000000: 7ef2 b4c5 4306 a4c4 97eb d4c5 282b 1cc6
00000010: 8980 f245 b34c 4446 d94c f243 10a1 5ac6
00000020: 8374 49c7 fe79 b6c6 ff9d 38c7 74e2 93c6
00000030: 90db d246 55bf 3346 e2f5 adc6 0a49 f4c5
00000040: c5ce fe43 3b0a d044 c27b 5745 029c 5145
00000050: be37 09c5 584b 8d45 5ed8 74c5 4954 05c6
00000060: 739f c943 a3b0 4f45 312d 7845 eee0 14c6
00000070: 9088 ae44 27ca c945 baa3 85c2 a1ea 88c4
00000080: 8010 bb45 c50d ba45 b827 f545 c473 a944
00000090: aeeb 96c4 b219 b244 6216 a1c5 4b50 33c6
000000a0: f5d8 80c6 28ab 86c6 1110 a0c6 336a 4b46
000000b0: 2f2d f844 5cb7 f344 2f6a 3847 a02d 18c7
000000c0: e4e9 d545 fe93 dc45 c91c 2046 377c 2543
000000d0: 0b52 d1c4 c855 e545 004c 0cc6 8d86 02c6
000000e0: b15c 3045 0f62 6e45 8d6e 9243 9782 14c3
000000f0: 0095 d5c4 d5dc 6145 7cce 35c4 2541 e944
00000100: dbf1 1144 fc4c fdc2 3605 ed43 f507 d544
00000110: 15e0 bbc4 b3bb 3244 4c81 86c3 6b68 09c5
00000120: 1bf6 60c4 50f4 20c5 7186 4ec5 28b6 17c5
00000130: 2e19 f7c3 e11e 5d46 09e9 fcc6 be32 1a45
00000140: e503 87c6 fa4f 4cc6 8eb2 26c6 d894 0043
00000150: 0cb9 47c5 aca3 1d45 3d19 e245 c5d7 4bc7
00000160: 5e3b 13c5 a17d 66c4 c5ab fe43 b3e1 8ec2
00000170: 9e05 1fc5 ad4f 2945 1eda 9dc5 e857 aac5
00000180: 7d1b 5f45 5acb c144 5510 f145 9ac1 37c4
00000190: 9333 8bc5 b47a 72c5 70df 8244 299d 2045
000001a0: 5dfb f645 a542 1946 5a5f 6846 fd0b 0b45
000001b0: 43de e5c4 b6a1 4444 6511 7b46 e4e7 71c5
000001c0: 49da 12c4 0d20 7cc4 0f95 6f45 d04f eec5
000001d0: ebb7 82c5 8541 b544 9074 c1c6 aa7f 33c5
000001e0: 2e7c 9fc4 87a3 a543 1151 5dc4 40d9 3bc3
000001f0: 47d4 0044 f08b 0745 19f7 a5c5 6e4a ea44

exp_avg_sq f4 [16, 8]
2.259001e+10 1.8143238e+10 2.5448313e+10 6.506205e+09 3.0323067e+09 1.0357692e+10 1.6760229e+10 1.8064204e+10
1.643902e+11 1.11937765e+11 1.3394816e+11 1.9515513e+11 3.665761e+10 3.7541646e+10 6.1688648e+10 3.3837138e+11
9.475875e+08 1.0334399e+09 8.9183366e+08 3.2557594e+09 3.2430493e+08 9.748174e+08 4.4790134e+09 5.0834847e+09
3.8009746e+09 3.6347e+09 6.983849e+09 6.4569697e+09 1.7333416e+09 4.2286559e+09 3.0121007e+10 1.3900613e+10
3.5777475e+08 3.8770848e+08 4.6746736e+08 1.502088e+09 4.230085e+08 6.622419e+07 2.0478793e+09 1.4575995e+09
3.2508298e+09 3.5823155e+09 4.372044e+09 1.5994836e+10 3.7661763e+09 8.85899e+08 3.3053198e+10 2.3792558e+10
4.0836936e+09 3.4532882e+09 4.5602263e+09 4.687996e+09 4.9146323e+08 2.2260416e+09 5.8754883e+09 2.741235e+09
9.728211e+08 8.675415e+08 1.04047514e+09 6.730363e+08 3.1692093e+08 6.0224416e+08 2.369433e+09 1.7067124e+09
3.0934696e+07 3.132212e+07 3.4926496e+07 2.1819739e+08 3.3234678e+07 2.1743526e+07 7.376388e+08 5.994663e+08
2.5502374e+09 1.766444e+09 2.8199373e+09 4.0418767e+09 7.042699e+08 1.8246804e+09 1.2586453e+10 5.593497e+09
1.4655872e+10 1.2646213e+10 1.5521114e+10 3.106568e+09 5.519618e+08 3.0768832e+09 1.5465226e+10 1.4964989e+10
2.0686274e+08 1.8665203e+08 1.8934613e+08 6.785285e+08 1.5387706e+08 1.0319478e+08 1.8594426e+09 9.583989e+08
4.0403395e+09 2.9988672e+09 6.0822236e+09 4.0443041e+09 8.128292e+08 3.2380013e+08 6.569211e+09 3.8902807e+09
4.1804646e+09 3.4343624e+09 4.469662e+09 5.3192346e+09 6.9928006e+08 4.3772108e+07 4.495516e+09 5.3656474e+09
1.5189838e+09 1.6437464e+09 1.5110624e+09 6.6886656e+09 1.690308e+09 5.5177875e+08 4.5840855e+09 2.4862175e+09
1.4022192e+08 1.17538744e+08 1.3249171e+08 5.4038445e+08 1.0227533e+08 2.9972806e+08 1.3429673e+09 1.4287342e+09
00000000: 064f a850 7b2d 8750 ce9a bd50 68e6 c14f
00000010: 54bd 344f 7657 1a50 33bf 7950 bc96 8650
00000020: ae19 1952 1680 d051 767f f951 9cc0 3552
00000030: 6c8f 0851 81da 0b51 e1ce 6551 0391 9d52
00000040: 27ec 614e 2a64 764e 35a1 544e f20e 424f
00000050: 01a4 9a4d 226a 684e 297c 854f e97f 974f
00000060: 458e 624f 1fa5 584f 8a22 d04f c56e c04f
00000070: 63a1 ce4e 2b0c 7c4f 436b e050 a122 4f50
00000080: ad99 aa4d b2df b84d e3e7 de4d 1610 b34e
00000090: c8b4 c94d 10a0 7c4c 5120 f44e 68c2 ad4e
000000a0: bac3 414f cc85 554f 0c4c 824f 7557 6e50
000000b0: 4a7b 604f fc36 534e f943 f650 b444 b150
000000c0: 3868 734f ffd4 4d4f c4e7 874f 92b6 8b4f
000000d0: 1259 ea4d b3ae 044f 6b1a af4f ed63 234f
000000e0: 4af0 674e 88d6 4e4e 9011 784e e076 204e
000000f0: a31e 974d 1196 0f4e ae3a 0d4f bb74 cb4e
00000100: 5403 ec4b 04f8 ee4b e83b 054c d916 504d
00000110: 7b8f fd4b d3e3 a54b e6dd 2f4e 85ec 0e4e
00000120: 8901 184f 9893 d24e d414 284f 25ea 704f
00000130: 39e9 274e d484 d94e 828d 3b50 ffb2 a64f
00000140: b763 5a50 7971 3c50 5a48 6750 772a 394f
00000150: 1399 034e 8365 374f 2873 6650 e7fe 5e50
00000160: 9947 454d 5801 324d 1593 344d 18c6 214e
00000170: a4bf 124d 14d4 c44c afa9 dd4e 0780 644e
00000180: b0d2 704f 15bf 324f af43 b54f 2f0f 714f
00000190: 28cb 414e 6266 9a4d 1ac7 c34f f9e0 674f
000001a0: d42c 794f 36b4 4c4f d134 854f 8a86 9e4f
000001b0: abb8 264e 33fa 264c 11fa 854f a4e8 9f4f
000001c0: b513 b54e 29f3 c34e f721 b44e 7856 c74f
000001d0: 1b80 c94e e78d 034e cc9d 884f ab30 144f
000001e0: deb9 054d f72f e04c 38b5 fc4c 73d6 004e
000001f0: 2013 c34c e6eb 8e4d 1c18 a04e 8251 aa4e

exp_avg f4 [16]
0.0029227545 0.014091628 -0.00060409185 0.0010168664 -0.0006636497 0.0042953365 0.000108854416 -0.00024190565
0.00035460864 0.002545027 -0.00665973 -0.00053723797 -0.0010759367 -0.00035263857 -0.0009887062 -0.00065811916
00000000: af8b 3f3b 92e0 663c eb5b 1eba 6048 853a
00000010: c7f8 2dba e5bf 8c3b c548 e438 0ea8 7db9
00000020: c4ea b939 78ca 263b dd39 dabb 6ed5 0cba
00000030: 7206 8dba 59e2 b8b9 7a97 81ba a185 2cba

exp_avg_sq f4 [16]
0.00025750257 0.0037899863 2.9608018e-05 0.0001458771 1.0971429e-05 0.00023860864 3.4401426e-05 2.1717047e-05
3.838798e-06 4.5582634e-05 6.555009e-05 1.1253409e-05 4.0198687e-05 3.6178004e-05 5.3339474e-05 9.593707e-06
00000000: 6901 8739 6b61 783b bc5e f837 96f6 1839
00000010: ee11 3837 0533 7a39 404a 1038 012d b637
00000020: 06cf 8036 fb2f 3f38 f077 8938 06cd 3c37
00000030: 039b 2838 d6bd 1738 d3b8 5f38 a8f4 2037

exp_avg f4 [16]
-6346.7324 11626.241 9904.037 -6866.5454 -7153.5728 8013.415 -1341.3878 -1006.49
-4315.7144 4994.5283 -9569.812 1611.3976 -2257.5168 6571.153 -11295.749 1090.0627
00000000: dc55 c6c5 f7a8 3546 26c0 1a46 5d94 d6c5
00000010: 958c dfc5 526b fa45 69ac a7c4 5c9f 7bc4
00000020: b7dd 86c5 3a14 9c45 3f87 15c6 b96c c944
00000030: 4518 0dc5 3959 cd45 ff7e 30c6 0242 8844

exp_avg_sq f4 [16]
1.2670317e+09 4.4475085e+09 2.2878735e+09 1.5079158e+09 7.145642e+08 5.4155894e+09 4.6466704e+08 2.0633766e+09
3.276401e+08 2.1623747e+09 3.412195e+09 1.5666976e+09 1.5373821e+09 1.4395953e+09 2.3790687e+09 2.490762e+09
00000000: bd0a 974e cc8b 844f 2e5e 084f f0c1 b34e
00000010: 8a5d 2a4e ab65 a14f 0d92 dd4d 42f9 f54e
00000020: 213b 9c4d 38e3 004f f761 4b4f d1c3 ba4e
00000030: 2e45 b74e f69c ab4e b5cd 0d4f 0376 144f

exp_avg f4 [16]
-4022.4373 7657.394 6184.523 -9951.153 -12977.68 8766.87 -2854.1196 -6070.7896
-85.67832 4531.5757 236.41255 -344.89523 -4439.335 8838.954 -8318.538 2762.3162
00000000: ff66 7bc5 274b ef45 2f44 c145 9d7c 1bc6
00000010: b8c6 4ac6 7bfb 0846 ea61 32c5 51b6 bdc5
00000020: 4d5b abc2 9b9c 8d45 9d69 6c43 9772 acc3
00000030: aeba 8ac5 d11b 0a46 27fa 01c6 0fa5 2c45

exp_avg_sq f4 [16]
8.17685e+08 7.1862057e+09 2.6733606e+09 1.8530523e+09 4.0341123e+08 4.5953987e+09 6.418594e+08 7.180794e+08
2.2555936e+08 1.039474e+09 7.5486374e+08 1.0703256e+09 1.5720346e+09 1.8241646e+09 1.4654679e+09 6.9755744e+08
00000000: 88f3 424e 662a d64f 3f58 1f4f abe6 dc4e
00000010: 895c c04d 1cf4 884f fd07 194e 1734 2b4e
00000020: 341c 574d 75d4 774e 3af9 334e 7e2f 7f4e
00000030: b066 bb4e 1675 d94e 88b2 ae4e 874f 264e

exp_avg f4 [32, 16]
-2316.4958 -3294.723 -4763.4863 4162.8125 -2550.377 -367.2929 4240.583 209.43294
3322.449 5970.6064 3913.5083 2367.8264 -2492.774 -854.1169 -5651.342 2821.4565
-2355.4548 -2342.0864 -3000.3247 3024.8955 -1781.8661 -115.86606 3123.6914 -497.9696
2248.1016 4171.068 2576.8015 1468.0298 -1662.4414 -640.28046 -4172.974 1777.0786
-2289.8098 -3718.232 -5461.6543 3887.726 -2387.334 -265.86798 4012.4275 -47.53097
3010.98 5323.3716 3363.8984 2392.7407 -3071.9902 -1828.6323 -6173.6377 2892.8933
-1064.15 5371.4355 -2533.0923 2981.7263 269.78214 7324.253 3883.2986 -2621.3765
580.0037 3992.689 5523.0894 632.454 1349.8346 20.973812 -9302.818 1176.361
-2233.287 630.6811 -708.87714 213.0146 -2806.069 3799.396 1513.4574 -1147.3336
-175.32767 1424.0446 58.133907 -87.931946 4084.0554 359.50195 -2164.172 -325.46313
-2316.3794 -4759.667 -10235.449 4944.145 -9409.386 -4755.115 4109.361 1938.8969
2451.9875 7442.142 4080.6753 7213.907 -403.5863 -485.1182 -8191.203 7321.7847
-4187.108 -290.98062 -10326.298 6336.4136 -10729.123 -5102.1274 5282.65 2541.6946
6633.222 9781.524 4144.267 8724.029 -3385.4937 -2005.5571 -5154.3696 11724.109
-757.029 3499.7517 -2564.9844 1860.3933 -759.50745 8200.826 1779.7668 -182.38217
554.4406 3248.3684 6088.7295 -659.2131 1785.4999 600.6958 -11107.913 311.88742
-2042.8807 295.97842 -1010.4911 231.25078 -2776.9788 3255.7283 1285.9695 -872.0967
13.173141 1506.0853 596.6319 -140.15674 3647.7764 362.4644 -2051.639 -131.78217
-1977.3132 2720.3484 7464.9634 1236.1903 -455.5322 1937.7867 -816.3782 -2938.6348
-616.36536 -82.76903 -2463.718 -1663.7045 6518.5107 3902.3875 1422.2009 -2443.713
-2616.7192 -1786.4055 -2645.7834 3057.4822 -1572.1266 -95.88782 3047.5417 -806.0186
2102.762 3939.8894 3245.0234 1263.0392 -1661.5194 -163.455 -4697.6855 1864.142
-3140.0505 -297.20697 -7210.6665 5558.4946 -9010.871 -4867.9194 3966.6238 1857.0392
6127.8833 9005.452 2945.7585 7695.784 -3545.8958 -1653.2899 -1325.6993 10311.321
-1143.2109 -1986.961 -3237.3774 2732.3516 -90.74561 1131.0771 4577.748 -1870.0845
1856.6073 2451.2747 4319.1064 4582.446 -4740.2163 821.41095 -3964.0562 5358.046
-6548.258 4116.5054 2134.3726 2256.465 -1253.6084 8460.472 1648.5986 -5796.777
-861.98047 3547.931 -2416.81 -1341.2222 10110.552 2076.5623 -1320.5376 -1463.5002
-3007.5222 -630.2084 -7278.412 5533.061 -7788.0977 -2689.1416 4425.827 1664.2852
5763.107 8562.569 3653.7888 7388.164 -3324.483 -1881.5054 -2653.6445 9931.396
-2011.9948 667.7728 -1040.1835 135.88791 -2930.999 3048.366 1514.451 -1257.977
-399.95093 1483.5889 -139.51689 -76.52008 4100.193 370.65768 -2222.1533 -305.13495
00000000: efc7 10c5 91eb 4dc5 e4db 94c5 8016 8245
00000010: 0866 1fc5 7ea5 b7c3 aa84 8445 d56e 5143
00000020: 2fa7 4f45 da94 ba45 2298 7445 39fd 1345
00000030: 62cc 1bc5 7b87 55c4 bc9a b0c5 4e57 3045
00000040: 4737 13c5 6261 12c5 3285 3bc5 540e 3d45
00000050: b7bb dec4 6cbb e7c2 103b 4345 1cfc f8c3
00000060: a081 0c45 8b58 8245 d30c 2145 f480 b744
00000070: 20ce cfc4 f311 20c4 cb67 82c5 8422 de44
00000080: f51c 0fc5 b663 68c5 3cad aac5 9efb 7245
00000090: 5835 15c5 1aef 84c3 d7c6 7a45 b71f 3ec2
000000a0: ae2f 3c45 f95a a645 603e 5245 da8b 1545
000000b0: d8ff 3fc5 3c94 e4c4 1aed c0c5 4bce 3445
000000c0: cd04 85c4 7cdb a745 7a51 1ec5 9f5b 3a45
000000d0: 1de4 8643 06e2 e445 c7b4 7245 06d6 23c5
000000e0: 3d00 1144 068b 7945 b798 ac45 0e1d 1e44
000000f0: b5ba a844 5eca a741 465b 11c6 8d0b 9344
00000100: 9894 0bc5 97ab 1d44 2338 31c4 bd03 5543
00000110: 1b61 2fc5 5676 6d45 a32e bd44 ad6a 8fc4
00000120: e253 2fc3 6d01 b244 1f89 6842 28dd afc2
00000130: e340 7f45 40c0 b343 c142 07c5 48bb a2c3
00000140: 12c6 10c5 56bd 94c5 cced 1fc6 2981 9a45
00000150: 8b05 13c6 ec98 94c5 e36a 8045 b35c f244
00000160: cd3f 1945 2391 e845 ce0a 7f45 426f e145
00000170: 0ccb c9c3 218f f2c3 a0f9 ffc5 47ce e445
00000180: ddd8 82c5 857d 91c3 3159 21c6 4f03 c645
00000190: 7ea4 27c6 0571 9fc5 3315 a545 1ddb 1e45
000001a0: c749 cf45 19d6 1846 2382 8145 1e50 0846
000001b0: e697 53c5 d4b1 fac4 f512 a1c5 7030 3746
000001c0: db41 3dc4 07bc 5a45 c04f 20c5 968c e844
000001d0: 7ae0 3dc4 4e23 0046 8a78 de44 d661 36c3
000001e0: 339c 0a44 e505 4b45 d645 be45 a3cd 24c4
000001f0: ff2f df44 882c 1644 a78f 2dc6 97f1 9b43
00000200: 2f5c ffc4 3dfd 9343 6e9f 7cc4 3340 6743
00000210: a98f 2dc5 a77b 4b45 06bf a044 3006 5ac4
00000220: 2fc5 5241 bb42 bc44 7128 1544 2028 0cc3
00000230: 6cfc 6345 713b b543 393a 00c5 3cc8 03c3
00000240: 062a f7c4 9305 2a45 b547 e945 1786 9a44
00000250: 1fc4 e3c3 2d39 f244 3418 4cc4 28aa 37c5
00000260: 6217 1ac4 be89 a5c2 7dfb 19c5 8bf6 cfc4
00000270: 16b4 cb45 33e6 7345 6ec6 b144 68bb 18c5
00000280: 828b 23c5 fa4c dfc4 895c 25c5 b717 3f45
00000290: 0d84 c4c4 90c6 bfc2 ab78 3e45 3181 49c4
000002a0: 316c 0345 3b3e 7645 60d0 4a45 41e1 9d44
000002b0: 9fb0 cfc4 7b74 23c3 7ccd 92c5 8b04 e944
000002c0: cf40 44c5 7e9a 94c3 5555 e1c5 f5b3 ad45
000002d0: 7ccb 0cc6 5b1f 98c5 fbe9 7745 4121 e844
000002e0: 117f bf45 cfb5 0c46 231c 3845 467e f045
000002f0: 559e 5dc5 47a9 cec4 61b6 a5c4 491d 2146
00000300: c0e6 8ec4 c15e f8c4 0a56 4ac5 a0c5 2a45
00000310: c17d b5c2 7862 8d44 fc0d 8f45 b4c2 e9c4
00000320: 6f13 e844 6534 1945 daf8 8645 9133 8f45
00000330: bb21 94c5 4d5a 4d44 e6c0 77c5 5e70 a745
00000340: 10a2 ccc5 0ba4 8045 f665 0545 7107 0d45
00000350: 78b3 9cc4 e331 0446 2813 ce44 3726 b5c5
00000360: c07e 57c4 e5be 5d45 f60c 17c5 1ca7 a7c4
00000370: 35fa 1d46 ffc8 0145 3411 a5c4 02f0 b6c4
00000380: 5bf8 3bc5 568d 1dc4 4c73 e3c5 7de8 ac45
00000390: c860 f3c5 4412 28c5 9e4e 8a45 2009 d044
000003a0: db18 b445 47ca 0546 9f5c 6445 50e1 e645
000003b0: bac7 4fc5 2c30 ebc4 50da 25c5 962d 1b46
000003c0: d57f fbc4 76f1 2644 df05 82c4 4ee3 0743
000003d0: fc2f 37c5 db85 3e45 6f4e bd44 443f 9dc4
000003e0: b8f9 c7c3 d872 b944 5384 0bc3 480a 99c2
000003f0: 8b21 8045 2f54 b943 74e2 0ac5 4691 98c3

exp_avg_sq f4 [32, 16]
2.8682528e+08 9.7254675e+08 1.2425257e+09 5.717131e+08 4.6924502e+08 7.319372e+07 4.190568e+08 7.803529e+08
8.586728e+08 9.8338426e+08 7.1333677e+08 9.31081e+08 9.727007e+08 4.5522672e+08 1.1392088e+09 1.3344365e+09
1.9510603e+08 5.9461395e+08 7.902083e+08 3.7647952e+08 2.813411e+08 4.1885244e+07 2.705645e+08 5.1380886e+08
5.439162e+08 6.3259846e+08 4.7651386e+08 5.807487e+08 6.302689e+08 2.8745866e+08 7.227049e+08 8.435783e+08
2.3960622e+08 7.390239e+08 9.9897274e+08 4.7597107e+08 3.5103744e+08 5.2015956e+07 3.6261594e+08 6.530004e+08
7.131441e+08 8.2131814e+08 6.040467e+08 7.601417e+08 7.708662e+08 3.6038493e+08 8.914936e+08 1.1022495e+09
1.6815346e+08 1.841728e+09 4.4523597e+09 1.5472672e+09 3.122945e+09 3.3333704e+09 1.2975027e+09 1.7248393e+09
1.7391215e+09 2.5128986e+09 1.939772e+09 2.9602255e+09 3.9663736e+09 1.1301432e+09 2.832713e+09 4.2070515e+09
2.5782387e+08 3.2592387e+08 3.9958365e+08 4.7038944e+07 6.1040666e+08 7.9590374e+08 2.0172448e+08 1.959304e+08
1.0925766e+08 7.338195e+07 1.8714043e+08 2.163298e+08 6.576573e+08 2.1606629e+08 5.0376093e+08 2.8883325e+08
5.3702605e+08 3.7973162e+08 2.2060147e+09 7.6489165e+08 1.7159739e+09 1.3414056e+09 3.800053e+08 1.3523867e+09
1.3388242e+09 1.2611931e+09 8.455948e+08 2.1631887e+09 3.2013366e+08 6.0488776e+07 1.5373139e+09 2.872256e+09
6.6158995e+08 8.476504e+07 1.7698943e+09 1.0497278e+09 1.4693514e+09 1.86513e+09 7.7184614e+08 1.4519533e+09
1.515653e+09 1.8636247e+09 1.230028e+09 2.1797883e+09 1.5077409e+09 2.0716302e+08 1.2008759e+09 3.0466662e+09
6.8458744e+07 1.2796122e+09 2.7756915e+09 9.324944e+08 1.8043465e+09 2.0411092e+09 6.6686394e+08 1.2000157e+09
1.2309464e+09 1.5338236e+09 1.3286021e+09 1.9865864e+09 2.678059e+09 7.765884e+08 1.5355958e+09 2.8601756e+09
1.697242e+08 2.6823022e+08 3.0396115e+08 4.2193424e+07 5.198478e+08 6.895822e+08 1.5476944e+08 1.7281499e+08
8.870403e+07 6.7651576e+07 1.41549e+08 1.7130677e+08 5.5360083e+08 1.8127787e+08 4.2191587e+08 2.3053138e+08
2.1961586e+08 6.311278e+08 1.1488764e+09 4.999225e+08 2.4820293e+08 5.7358637e+08 3.732355e+08 6.0451584e+08
7.508255e+08 9.8963635e+08 8.508956e+08 1.1343764e+09 1.2795377e+09 3.915321e+08 1.2406612e+08 1.6649398e+09
2.8882954e+08 8.884316e+08 1.1733221e+09 5.695125e+08 3.732392e+08 4.1974636e+07 4.0261213e+08 7.4634106e+08
8.0995635e+08 8.8331206e+08 7.247075e+08 8.275696e+08 9.071923e+08 4.4567706e+08 1.1159679e+09 1.2242751e+09
5.642364e+08 7.4979256e+07 1.4072713e+09 7.6510016e+08 1.2321484e+09 1.372213e+09 5.265829e+08 1.1426372e+09
1.1594514e+09 1.3699812e+09 7.630873e+08 1.68598e+09 8.793965e+08 1.4942227e+08 1.0958072e+09 2.307389e+09
7.1077984e+08 5.937547e+08 2.6661059e+09 9.888865e+08 8.256106e+08 7.234333e+08 7.840208e+08 1.7690463e+09
1.8583863e+09 2.2378035e+09 1.8588536e+09 2.9825984e+09 6.576672e+08 3.869866e+07 8.5052896e+08 4.1560502e+09
9.9072704e+08 5.656467e+08 2.356664e+09 4.4197238e+08 2.0305356e+09 2.1900718e+09 1.6153037e+08 1.4877955e+09
1.04938394e+09 6.890374e+08 9.039882e+08 1.8339711e+09 1.5539697e+09 3.9913917e+08 2.0021006e+09 2.4949194e+09
4.8550915e+08 5.2304868e+07 1.303273e+09 7.603331e+08 1.0979415e+09 1.4346308e+09 5.6007546e+08 1.1269823e+09
1.1108724e+09 1.3666113e+09 9.0060275e+08 1.5982214e+09 1.1165989e+09 1.5007958e+08 8.638909e+08 2.2377144e+09
1.8794662e+08 2.259938e+08 3.3386083e+08 3.3521686e+07 4.8240595e+08 6.401083e+08 1.5122933e+08 1.2737609e+08
7.231593e+07 5.3237304e+07 1.4904552e+08 1.5568749e+08 4.5034253e+08 1.5437739e+08 4.0229747e+08 2.0111173e+08
00000000: dac4 884d 8bdf 674e e01e 944e 994e 084e
00000010: e3c0 df4d 1f9b 8b4c 65d2 c74d f60c 3a4e
00000020: 3ab9 4c4e 0375 6a4e 9f12 2a4e adfc 5d4e
00000030: f0e8 674e ab11 d94d e5cd 874e c513 9f4e
00000040: 4f11 3a4d 5bc4 0d4e 7d66 3c4e f984 b34d
00000050: 6527 864d 8fc7 1f4c e503 814d cf00 f54d
00000060: 03ae 014e bfd2 164e 3238 e34d 1676 0a4e
00000070: 9044 164e 2b12 894d 684e 2c4e ef1f 494e
00000080: 9d81 644d 7032 304e 752c 6e4e f0f5 e24d
00000090: 4063 a74d d56c 464c a4e8 ac4d fbaf 1b4e
000000a0: dd06 2a4e 48d1 434e 1604 104e 5e3b 354e
000000b0: f0c9 374e 4dd8 ab4d 748c 544e fc65 834e
000000c0: 175d 204d 148d db4e cfb0 844f d972 b84e
000000d0: 5c24 3a4f 32af 464f a4ac 9a4e eb9d cd4e
000000e0: c751 cf4e cac7 154f 253d e74e 7571 304f
000000f0: 0f6a 6c4f 3cb9 864e c5d7 284f 83c2 7a4f
00000100: 48e1 754d a169 9b4d 4d89 be4d 7870 334c
00000110: 4488 114e 1cc2 3d4e 2461 404d 92da 3a4d
00000120: 7864 d04c 08f7 8b4c 9578 324d e44e 4e4d
00000130: 37cc 1c4e 8f0e 4e4d 4136 f04d f7b9 894d
00000140: 7809 004e f511 b54d 1d7d 034f 485d 364e
00000150: 5e8f cc4e 73e8 9f4e 5e33 b54d 9137 a14e
00000160: ac99 9f4e 8f58 964e 039b 494e a4ef 004f
00000170: d1a6 984d 12bf 664c 1943 b74e 2633 2b4f
00000180: 3fbc 1d4e 2ead a14c e3fc d24e 4d46 7a4e
00000190: 0c29 af4e 4057 de4e c005 384e 1916 ad4e
000001a0: 0fae b44e 5029 de4e 7aa1 924e eeec 014f
000001b0: 9abc b34e e990 454d d327 8f4e 7098 354f
000001c0: 1f93 824c aa8a 984e b171 254f f152 5e4e
000001d0: 4918 d74e b651 f34e 25fe 1e4e 930d 8f4e
000001e0: 81bd 924e 95d8 b64e b861 9e4e ced1 ec4e
000001f0: f09f 1f4f 3227 394e aa0e b74e d17a 2a4f
00000200: 92dc 214d e5cd 7f4d a2f0 904d 84f4 204c
00000210: fce1 f74d c268 244e 8299 134d 29cf 244d
00000220: 8430 a94c ff08 814c dcfd 064d f15e 234d
00000230: 1dfd 034e 4be1 2c4d 672f c94d 13da 5b4d
00000240: 2771 514d fc78 164e edf4 884e b261 ee4d
00000250: 6bb4 6c4d efc0 084e f9f8 b14d b820 104e
00000260: c002 334e 9cf2 6b4e 8cde 4a4e 6c3a 874e
00000270: 6488 984e 72b2 ba4d 29a3 ec4c ee79 c64e
00000280: 83b9 894d 90d1 534e f3de 8b4e 49c8 074e
00000290: 6df9 b14d db1e 204c fdfa bf4d 0bf1 314e
000002a0: d01b 414e 1799 524e a3c8 2c4e d74e 454e
000002b0: a04a 584e f083 d44d a308 854e e9f1 914e
000002c0: 4286 064e f702 8f4c 83c2 a74e 026a 364e
000002d0: 2fe2 924e 9e94 a34e 2418 fb4d 8536 884e
000002e0: a637 8a4e 8250 a34e 27ef 354e 07fc c84e
000002f0: 1aaa 514e 0c80 0e4d 62a1 824e f687 094f
00000300: 8f76 294e e98f 0d4e 8ce9 1e4f d8c4 6b4e
00000310: 46d7 444e dd7a 2c4e d5ec 3a4e 02e3 d24e
00000320: 7389 dd4e 2c62 054f b697 dd4e d7c6 314f
00000330: d2cc 1c4e a99f 134c 2bc8 4a4e 4bb8 774f
00000340: 2e35 6c4e 56dc 064e d777 0c4f b5bf d24d
00000350: 070f f24e d889 024f 200c 1a4d ea5b b14e
00000360: 5031 7a4e 8147 244e 1087 574e 5ba0 da4e
00000370: 643f b94e 0b53 be4d 43ab ee4e 73b5 144f
00000380: 4182 e74d f986 474c bc5c 9b4e 0d47 354e
00000390: 84e2 824e 7505 ab4e 4b88 054e c558 864e
000003a0: 236d 844e abe9 a24e 6eb8 564e d985 be4e
000003b0: e51b 854e 8620 0f4d b7f7 4d4e d060 054f
000003c0: 683d 334d 4486 574d 7f32 9f4d 0bc0 ff4b
000003d0: 7207 e64d 1c9d 184e 3939 104d 5bf3 f24c
000003e0: 83ee 894c 8e15 4b4c 1124 0e4d a479 144d
000003f0: 74bd d64d cb39 134d 94d4 bf4d 8bcb 3f4d

exp_avg f4 [32]
-0.0045845336 -0.0006347656 0.002764229 0.005530588 0.00028974775 -0.0040049274 -0.0076452643 -0.0073164594
-0.0019820973 -0.0007094778 -0.0009140206 -0.0023648667 0.0039862604 -0.0021493156 -0.0017491207 0.00035951135
-0.0004772319 -0.0052662394 0.0024481895 0.00295101 -0.000107062355 0.005768276 -0.0017232789 0.0012552453
-0.0022963383 0.0023767045 -0.005347789 -0.0023176214 -0.0025357737 -0.0014223718 -0.003816994 0.0022453088
00000000: db39 96bb 6666 26ba 1128 353b ef39 b53b
00000010: 49e9 9739 c43b 83bb 2085 fabb e9be efbb
00000020: 13e6 01bb 40fc 39ba e29a 6fba e1fb 1abb
00000030: 2d9f 823b 88db 0cbb c042 e5ba cc7c bc39
00000040: fb34 fab9 6b90 acbb ce71 203b bb65 413b
00000050: aa86 e0b8 ce03 bd3b a5df e1ba 0b87 a43a
00000060: 2a7e 16bb 7cc2 1b3b 813c afbb 3ce3 17bb
00000070: 392f 26bb e16e baba 8826 7abb 0826 133b

exp_avg_sq f4 [32]
0.0008267566 0.0005384837 0.0006270132 0.0014137533 0.0004598058 0.00058240513 0.00094368984 0.00090706185
0.0003326378 0.00039810114 0.0007532941 0.00079773745 0.0011496966 0.0007269523 0.0008016473 0.0002950455
0.0010839574 0.00047972923 0.000411794 0.0007660694 0.0009500524 0.0026823634 0.0014979353 0.00061171653
0.0007488824 0.00026344604 0.0006471816 0.00044724223 0.0005834532 0.00047481505 0.0009630074 0.0003406329
00000000: b2ba 583a 0829 0d3a 255e 243a b04d b93a
00000010: 1712 f139 8cac 183a f461 773a e4c7 6d3a
00000020: e465 ae39 3bb8 d039 b678 453a 411f 513a
00000030: 6bb1 963a f190 3e3a a425 523a 56b0 9a39
00000040: 9313 8e3a 2b84 fb39 0ee6 d739 0cd2 483a
00000050: f00c 793a 97ca 2f3b 5e56 c43a 9a5b 203a
00000060: a650 443a 211f 8a39 9fa7 293a d67b ea39
00000070: e2f2 183a 99f0 f839 5572 7c3a f996 b239

exp_avg f4 [32]
-8189.033 -8095.9805 -7914.912 -9492.426 -10255.601 -8213.961 -9691.072 -9770.153
-10089.046 -7323.4175 -8100.6836 -9873.012 -9242.987 -10195.353 -9825.762 -10358.916
-9945.1 -10271.415 -10341.338 -8278.272 -9562.137 -7088.4854 -8161.1816 -8726.758
-9377.218 -10349.581 -9896.375 -7172.786 -9004.889 -7004.0454 -8636.578 -10310.693
00000000: 44e8 ffc5 d8ff fcc5 4c57 f7c5 b451 14c6
00000010: 673e 20c6 d857 00c6 4a6c 17c6 9da8 18c6
00000020: 2fa4 1dc6 57db e4c5 7825 fdc5 0c44 1ac6
00000030: f36b 10c6 694d 1fc6 0c87 19c6 aadb 21c6
00000040: 6664 1bc6 a97d 20c6 5a95 21c6 1759 01c6
00000050: 8c68 15c6 e283 ddc5 7409 ffc5 085b 08c6
00000060: df84 12c6 53b6 21c6 80a1 1ac6 4a26 e0c5
00000070: 8eb3 0cc6 5de0 dac5 50f2 06c6 c61a 21c6

exp_avg_sq f4 [32]
2.6119826e+09 2.6364278e+09 2.4869033e+09 2.7004483e+09 2.6722975e+09 2.501352e+09 2.7091604e+09 2.7750536e+09
2.607319e+09 2.5504504e+09 2.6363676e+09 2.8034273e+09 2.6293737e+09 2.7757742e+09 2.7679452e+09 2.70218e+09
2.8497859e+09 2.7324826e+09 2.7852723e+09 2.7704333e+09 2.6514125e+09 2.625801e+09 2.655134e+09 2.4096914e+09
2.480938e+09 2.7276705e+09 2.7823355e+09 2.4721828e+09 2.460741e+09 2.487729e+09 2.666557e+09 2.6922237e+09
00000000: b1af 1b4f b224 1d4f 223b 144f 92f5 204f
00000010: 0648 1f4f 9a17 154f 827a 214f f567 254f
00000020: 8868 1b4f c904 184f c723 1d4f e818 274f
00000030: 0fb9 1c4f f472 254f 7efb 244f ff0f 214f
00000040: 48dc 294f 60de 224f e203 264f 7521 254f
00000050: 5809 1e4f 8b82 1c4f 2142 1e4f f9a0 0f4f
00000060: 1ce0 134f f394 224f 12d7 254f 845a 134f
00000070: eeab 124f bb47 144f 6ef0 1e4f 1378 204f

exp_avg f4 [32]
-18529.426 -18748.988 -18387.932 -18195.85 -17740.63 -19516.922 -16818.166 -17764.436
-17507.025 -18323.52 -18665.201 -16738.984 -20404.082 -18874.727 -16811.934 -17465.055
-16794.875 -17775.012 -17733.484 -19120.422 -16354.196 -19884.26 -18734.375 -18616.855
-19607.11 -17790.896 -16744.02 -18141.81 -18454.828 -18703.771 -19426.518 -17646.27
00000000: dac2 90c6 fa79 92c6 dda7 8fc6 b327 8ec6
00000010: 4399 8ac6 d879 98c6 5564 83c6 dfc8 8ac6
00000020: 0dc6 88c6 0a27 8fc6 67d2 91c6 f8c5 82c6
00000030: 2a68 9fc6 7475 93c6 de57 83c6 1c72 88c6
00000040: c035 83c6 06de 8ac6 f88a 8ac6 d860 95c6
00000050: c988 7fc6 8558 9bc6 c05c 92c6 b671 91c6
00000060: 382e 99c6 cbfd 8ac6 0ad0 82c6 9fbb 8dc6
00000070: a82d 90c6 8b1f 92c6 09c5 97c6 8adc 89c6

exp_avg_sq f4 [32]
1.0715908e+10 1.0913928e+10 1.008879e+10 1.0216038e+10 8.871146e+09 9.636303e+09 9.396816e+09 1.0242418e+10
8.691576e+09 1.0617137e+10 1.0928636e+10 9.565402e+09 1.0645959e+10 9.861001e+09 9.527746e+09 8.781023e+09
9.748662e+09 8.885028e+09 8.869643e+09 1.1386136e+10 9.136294e+09 8.954793e+09 1.0910969e+10 9.32576e+09
9.375486e+09 9.053197e+09 9.651193e+09 1.0549195e+10 9.547105e+09 1.0728957e+10 1.0033098e+10 8.708863e+09
00000000: f2ad 1f50 55a1 2250 ae55 1650 183b 1850
00000010: bd30 0450 9497 0f50 0206 0c50 b99f 1850
00000020: bb83 0150 2a35 1e50 70d9 2250 1d89 0e50
00000030: 1ca3 1e50 bcf0 1250 77f9 0d50 f2d8 0250
00000040: 3244 1150 b165 0450 012b 0450 a9aa 2950
00000050: 3224 0850 d36f 0550 0b96 2250 f4f6 0a50
00000060: a4b4 0b50 35e7 0650 61d0 0f50 fc31 1d50
00000070: 5143 0e50 b9df 1f50 3b81 1550 adc5 0150
