lightning_logs/version_2/checkpoints/epoch=99-step=1700.ckpt (torch, 37072 bytes, 45 tensors)

model.0.weight f4 [8]
000000 5b 9c 90 3f cc 15 70 3f be 53 92 3f b2 6e 3d 3f
       1.1297716 0.9378326 1.1431806 0.7399703
000010 b3 6c 23 3f 6e f4 8a 3f b5 ad 65 3f 71 b5 ab 3f
       0.63837737 1.0855844 0.8971818 1.3414747

model.0.bias f4 [8]
000000 0b 76 14 3e 54 36 99 3d 05 48 d1 3c cf 49 4f 3d
       0.14498155 0.074810654 0.025547037 0.0506075
000010 01 ed ff bd e7 26 99 3d a1 8a 26 3e 5c d8 b8 bd
       -0.12496377 0.07478123 0.1626382 -0.09025642

model.0.running_mean f4 [8]
000000 9e 4c b9 45 b8 e6 ba 45 a2 a5 b7 45 ef d5 84 47
       5929.577 5980.84 5876.704 68011.87
000010 6e 83 3c 39 dc cc fc 44 e8 e1 c5 40 0f 50 81 41
       0.00017978039 2022.4019 6.1838264 16.164091

model.0.running_var f4 [8]
000000 e3 eb 74 47 1f 09 76 47 f5 ce 6e 47 a8 17 8c 4f
       62699.887 62985.12 61134.957 4.700721e+09
000010 ce e7 e0 38 8f 94 43 3d 79 5b b7 40 a2 8b 97 42
       0.00010724329 0.0477491 5.729916 75.77272

model.1.weight f4 [16, 8]
000000 cb 41 83 3d 28 bd 72 3d 19 d9 01 bd 44 b6 12 bd
       0.064090334 0.059262425 -0.03170118 -0.035818353
000010 0e bd 21 bc c8 19 6a 3e 2b 61 32 3e e2 43 e5 be
       -0.009871734 0.22861397 0.17419879 -0.44778353
000020 29 b1 9d bd 5a 06 91 3e 98 62 6c bb c9 49 d6 bc
       -0.07699806 0.28325158 -0.0036069509 -0.02615823
000030 e9 ff 74 bd 19 8b b6 3e 52 cf 35 3e c4 2f f1 be
       -0.059814367 0.35652998 0.17754868 -0.47106755
000040 07 a1 96 be 00 47 4f be 5a 0f af 3d 80 4d 08 be
       -0.2941973 -0.20241928 0.0854785 -0.13310814
000050 23 a1 25 bc cc 8b f1 bd 16 bc 2c be 72 f9 ff 3d
       -0.010109219 -0.11794242 -0.16868624 0.1249875
000060 17 15 c5 bd e5 9c 43 3e 3d 9b 91 bd d7 20 13 3e
       -0.09623163 0.1910282 -0.071096875 0.14367996
000070 dd c0 01 be 8d 5a a8 be 6a bd 2e be de fc 25 3f
       -0.12671228 -0.32881585 -0.17064443 0.6483897
000080 26 25 84 3e 08 7c d2 3d 80 0b df 3e 15 94 d4 bc
       0.25809592 0.10277563 0.4356346 -0.025949517
000090 d2 fe 05 be 3c 38 ab be 61 42 51 bd a3 f6 fd 3e
       -0.13085487 -0.3344134 -0.051088694 0.4960223
0000a0 83 9b 22 bf 35 f8 ec bd e9 57 2e be 71 72 cc bd
       -0.6351854 -0.11570779 -0.17025723 -0.099827655
0000b0 cd e0 58 3d 1f 20 82 bd 3b 54 35 be 59 26 b4 3d
       0.05294876 -0.06353783 -0.17707913 0.08796377
0000c0 f7 89 f9 be 54 93 df bd 51 13 91 3d 64 61 5c be
       -0.4873807 -0.109167725 0.070837624 -0.21521527
0000d0 2a aa 5c bd 43 c1 da bd 5c a8 6c be 2b be 19 3e
       -0.05387322 -0.10681393 -0.23111099 0.1501395
0000e0 b5 e9 4f be d1 da 40 be 12 d8 8e be 9f 23 8c be
       -0.20303996 -0.18833472 -0.27899224 -0.27370927
0000f0 7b 79 a7 3d 5a e2 68 be ba a9 ba be da 53 89 3e
       0.081774674 -0.22742596 -0.36457616 0.26821786
000100 d8 b6 b5 3d 0b 32 91 bc 62 5d 5d 3e 40 39 9c 3d
       0.08872765 -0.017724058 0.21617654 0.07628107
000110 14 ee 39 3b 44 a3 1c be 30 1d d9 bd 95 ec 4c 3e
       0.0028370665 -0.15296656 -0.1060127 0.20012124
000120 b5 84 8d 3d 24 21 a9 be 08 0c 43 be 7e 49 cb 3d
       0.069100775 -0.33033097 -0.19047558 0.09926127
000130 f2 6a 14 3e f7 16 34 be 91 14 3e be 8c c3 75 3e
       0.14493921 -0.17586885 -0.18562533 0.24000376
000140 f9 fd 97 be bd 00 a9 be ed 4e ca be f2 08 c9 bd
       -0.29685953 -0.33008376 -0.3951334 -0.09816159
000150 cf 69 0b 3e 7a 19 3c 3c 99 f4 c7 bb fa 25 8c be
       0.13614582 0.011480683 -0.0061021564 -0.27372724
000160 0e 72 1b bd 70 9e 02 3e 37 a4 b0 be 69 2b 1f bd
       -0.037950568 0.12755752 -0.34500286 -0.03885976
000170 ea 3a f6 3d dc 64 7e 3e 6c 34 8b 3e fe 19 1d bf
       0.12022956 0.24843162 0.27188432 -0.61367786
000180 a2 f2 e8 3e b7 f2 55 3e a0 f6 eb 3e 98 c8 e2 3b
       0.45497614 0.2089337 0.46086597 0.0069208853
000190 de 8c 2f bd e3 42 6d bd f7 af 99 3d 2a 36 f2 3d
       -0.04285895 -0.057925116 0.07504266 0.11826737
0001a0 54 db 7f 3e 82 25 02 be 00 3d 47 3d 74 89 b2 bd
       0.24986011 -0.1270962 0.04864216 -0.08717623
0001b0 6b 13 47 3d c6 7b 42 3e 1c 3a 02 3e 9a bf db be
       0.048602503 0.18992528 0.1271748 -0.42919618
0001c0 05 f4 77 3e c2 21 07 3f b7 ec b1 3e 11 2c 44 3d
       0.2421418 0.52785885 0.34750912 0.047893587
0001d0 41 5f 4f be 03 92 6f 3e fd 10 c0 3d eb d2 53 3d
       -0.2025118 0.23395543 0.0937824 0.05171482
0001e0 26 ef 09 bd 22 e5 c3 bd 03 5c 17 3c 0e 4c 09 3d
       -0.033675335 -0.09565188 0.009238246 0.033519797
0001f0 e8 d2 b7 bc bb 03 2d bc af 02 a3 be 31 d6 d7 3e
       -0.022439435 -0.010559971 -0.31837985 0.42155603

model.1.bias f4 [16]
000000 b4 de f9 bd 8c 8a f3 3d 9a b6 e1 3b 6d c7 8b bd
       -0.122006804 0.1189166 0.006888223 -0.06825147
000010 c1 1c f8 3d fc ed 97 3d e0 61 8b be df 89 ff 3d
       0.12114859 0.07418439 -0.2722311 0.12477469
000020 b3 fb 81 3e f0 c6 7c be 69 b2 be 3a 66 14 23 3d
       0.25387344 -0.24685264 0.001454902 0.039814375
000030 15 88 bf 3d eb a9 11 3e 88 0f 72 bd f3 dc 91 3e
       0.093521275 0.14224975 -0.059096843 0.28488883

model.2.weight f4 [16]
000000 c1 e5 50 3f e2 1d 5b 3f 99 a2 83 3f 3a c9 36 3f
       0.81600577 0.8559247 1.0283996 0.714008
000010 e2 ab 40 3f e0 ee 86 3f 29 18 55 3f de 39 49 3f
       0.7526227 1.0541649 0.8323999 0.78603923
000020 6b 6c 4b 3f 62 a1 34 3f 36 fc 76 3f 13 e4 7b 3f
       0.7946231 0.7055875 0.96478593 0.9839489
000030 71 94 48 3f 8c 25 3a 3f a5 26 42 3f 89 05 3e 3f
       0.78351504 0.7271354 0.75840217 0.74227196

model.2.bias f4 [16]
000000 df 83 34 bf b9 b9 af be b8 a9 09 bf 50 6a 96 be
       -0.7051372 -0.34321383 -0.53774595 -0.29377985
000010 3f 66 9a 3e ea 80 01 bd d2 5b 60 bf 96 c1 dc be
       0.30156133 -0.031617083 -0.87640107 -0.43116444
000020 d5 96 ed be ec 61 2d bf f4 01 a7 be 89 75 15 3e
       -0.46404138 -0.6772754 -0.32618678 0.14595617
000030 4a 1b f2 3e 7c db d1 be 9a 44 47 3d 4e 85 11 be
       0.47286445 -0.40987766 0.048649408 -0.14211008

model.2.running_mean f4 [16]
000000 b3 97 cc bc c7 14 6e 3e 07 60 cf bd 9a e6 1d be
       -0.02497468 0.23250113 -0.10125738 -0.15419999
000010 42 37 ef 3d 97 02 ac bd a4 e7 d0 be 39 4a 47 bd
       0.116804615 -0.083989315 -0.40801728 -0.04865477
000020 51 d2 69 3e d5 b0 ae be b6 af 96 bd a3 20 0a 3e
       0.22834136 -0.34119287 -0.07357733 0.13489012
000030 01 a1 46 3e 0c 1f 6b 3e 4b 52 9e 3d dc 00 3e 3e
       0.19397356 0.22961062 0.0773054 0.18555015

model.2.running_var f4 [16]
000000 e8 e4 eb 3e 33 d5 0d 3f 8b 02 81 3e f6 1e 68 3f
       0.4607308 0.5540344 0.25197253 0.9067224
000010 f1 02 a3 3f b6 18 88 3f 91 70 e5 3e 94 aa 51 3f
       1.2735273 1.0632541 0.44812444 0.81900907
000020 d4 d8 4e 3e 84 4b bb 3e d2 21 a4 3f 04 7d 74 3f
       0.20199901 0.3658105 1.2822821 0.9550326
000030 18 d4 c2 3f 1d 99 e9 3e c9 09 ab 3f 59 69 fa 3e
       1.5220976 0.4562463 1.3362361 0.489085

model.4.weight f4 [32, 16]
000000 fb 78 9f be e4 51 38 be 94 1a 19 bd 9d ac b4 bd
       -0.31146988 -0.17999989 -0.037378863 -0.08821986
000010 5d 76 15 3e cc c0 39 3e 64 28 c2 bc d5 91 21 3e
       0.14595933 0.18139952 -0.0237009 0.15778287
000020 1a fa 01 3e a2 ac dc bd a9 32 3b 3c 28 db 33 be
       0.12693062 -0.107751146 0.011425653 -0.1756407
000030 af b6 37 be 9f db 55 be 44 b8 72 3d cc 8c b4 bb
       -0.17940782 -0.2088456 0.05925776 -0.0055099484
000040 bd 14 0c be 30 32 74 3c 86 af 4a 3e b4 b4 82 3d
       -0.13679786 0.014904544 0.1979352 0.06382123
000050 73 24 ca bd 36 a7 4a bd 04 ae 46 bf c6 7a 15 be
       -0.098702334 -0.04947587 -0.77609277 -0.14597616
000060 19 c1 d9 bc 57 95 2a 3d b2 bb 5f 3e 72 af 2d bc
       -0.026581334 0.041646328 0.21848944 -0.010600911
000070 77 62 f7 3d 0f d3 4d bd 96 82 24 bc ea df 78 3c
       0.120793276 -0.05025011 -0.0100409 0.015190104
000080 1a d3 03 bd f4 9a 82 3d 38 da bd be 88 a9 25 3d
       -0.032183744 0.06377211 -0.3708055 0.04044488
000090 5d 14 08 bd 6a 2c 89 be c8 5d 18 bf 7a 26 d5 bc
       -0.033222545 -0.26791698 -0.595181 -0.026019324
0000a0 44 4a 02 3d 7a 88 99 3d 1b 3c c0 3d 49 b7 44 3d
       0.031809106 0.07496734 0.09386464 0.048026357
0000b0 94 8a 96 3d dc f6 e8 bc 04 40 fd bb 2a 4c b4 bd
       0.073506504 -0.028438024 -0.0077285785 -0.0880359
0000c0 d2 fa b8 bd 35 d1 91 3d f0 63 91 be 87 44 ff bc
       -0.09032215 0.07119981 -0.2839656 -0.031160606
0000d0 93 32 ee bd 89 92 e5 bd 48 68 49 bf c6 04 7e bd
       -0.1163074 -0.1120959 -0.78674746 -0.06201627
0000e0 17 6d 0f 3d 7d 54 c3 3d 3e a8 e5 3d 57 01 c0 3a
       0.035016146 0.09537599 0.1121373 0.0014648837
0000f0 5c 50 18 3e 53 a9 33 bd 96 1c 8e bd 15 f3 99 3b
       0.14874405 -0.043862652 -0.06939046 0.004698167
000100 a4 57 80 be df 08 67 3e 30 a0 99 be d1 9d a0 3d
       -0.25066864 0.22561978 -0.30005026 0.07842601
000110 74 40 5d 3d 7b a7 99 be ea a5 14 bf 3b 45 dc bd
       0.054016545 -0.3001059 -0.58065665 -0.10755392
000120 c5 07 0c bd 6c 87 b4 3e 98 7d 1a 3e 74 3c 4c 3c
       -0.034187097 0.3525957 0.15086973 0.012465585
000130 8a 76 2f 3d 23 57 af 3c 55 4c bd bc 3c 2b f8 bd
       0.042837657 0.021403855 -0.023107687 -0.12117621
000140 10 40 73 bd d8 6d cc 3d c7 d1 7b be 48 a2 e0 3d
       -0.059387267 0.099818885 -0.24591742 0.10968453
000150 46 3b bb bd 80 65 41 be 30 53 5a be 30 0f fb be
       -0.09142165 -0.18886375 -0.21320796 -0.49035025
000160 4f 6b a9 3b 98 8c 80 3e 6d 83 e3 3d dd e0 1f 3d
       0.005170263 0.25107265 0.11109052 0.039032806
000170 47 39 8f 3d 93 f9 80 bc 17 b0 4a 3d a9 00 bd bd
       0.06993347 -0.015744006 0.04948434 -0.092286415
000180 79 01 0c be f7 a5 1c 3d 06 58 b9 3e 64 16 bf 3a
       -0.13672437 0.038244214 0.3619997 0.0014578816
000190 6c 57 c3 3c d1 cd a2 3d 36 71 49 bd bb 58 85 be
       0.023845397 0.079494126 -0.049180232 -0.26044258
0001a0 fa 91 2a bd 10 79 2b bf 09 78 31 bd 98 c6 a0 3c
       -0.04164312 -0.669816 -0.043327365 0.019625947
0001b0 14 17 68 3d 46 59 b9 3d 40 78 08 bc 5d 5f 8b 3c
       0.056662634 0.09050231 -0.008329451 0.017013246
0001c0 20 a4 41 bd 51 b3 8f 3d 81 68 eb be 47 9d 4a 3a
       -0.047275662 0.07016624 -0.45978168 0.00077291246
0001d0 74 58 36 bd 32 6d 27 3e 4a 56 94 be c2 00 fb be
       -0.04451795 0.16350248 -0.28972083 -0.49024016
0001e0 c8 37 23 bb a9 87 1c 3d e8 fd d1 3c 89 94 ea 3d
       -0.0024905074 0.038215313 0.025633767 0.11454112
0001f0 21 a3 4a 3e c8 0f 32 bd 2d 77 9e bd 9e 43 c4 bd
       0.19788791 -0.04347208 -0.07737575 -0.095832095
000200 c1 ab 3c be ac dc ce 3d 68 75 03 bf ab e1 cf 3b
       -0.18424894 0.101006836 -0.5135102 0.0063440404
000210 ac 95 4b 3d 37 4b a2 39 03 a6 f9 be 0b 1a 05 bd
       0.049703285 0.00030955087 -0.4875947 -0.03249554
000220 94 cf 08 be a3 ad 95 3e cb 5b b8 bd ee e3 8e 3d
       -0.13360435 0.29234037 -0.09001883 0.06977068
000230 d1 a1 ea 3d 64 a3 8f 3d 67 cf 77 bd 22 6e 33 3d
       0.11456645 0.07013586 -0.06050053 0.043806203
000240 c5 25 26 3e 26 d4 25 3e 64 48 2f 3e 95 fd d3 3c
       0.16225345 0.1619421 0.17117459 0.025877753
000250 d2 5e 59 be 10 13 70 3e 11 74 82 3e 59 da e5 bc
       -0.21227577 0.23444772 0.25479177 -0.028058218
000260 16 be 00 bf df ba 64 3e 6c d3 e0 bd af 59 07 be
       -0.5029005 0.2233691 -0.109778255 -0.13217805
000270 cc 40 fb bd 2f 3e e6 3b e6 a6 3d 3d c0 12 8a be
       -0.122682184 0.007026456 0.046301745 -0.2696743
000280 49 ec 4c 3e 9a 0a a1 3d c5 71 ad 3e fe 64 9b be
       0.2001201 0.0786335 0.33875862 -0.30350488
000290 55 c9 0c be 34 f0 01 3e 5f 0e ba bc c3 c8 a4 bd
       -0.13748677 0.12689286 -0.02271193 -0.08046105
0002a0 5d 48 00 bf ba 7b e4 bd 56 c0 22 3c 42 02 f7 bd
       -0.5011042 -0.111564115 0.009933552 -0.120609775
0002b0 b5 b7 41 3d 9e 83 ce bd af 27 4a 3c 42 75 9c be
       0.047294337 -0.10083698 0.012338563 -0.3055821
0002c0 54 4b 59 3e 08 bf 49 be 79 3d 04 3e 6f cc 84 3d
       0.21220142 -0.19701779 0.12914075 0.06484305
0002d0 44 60 ef 3d 18 3f f5 39 1d b5 29 bd 7f 4a e3 3d
       0.11688283 0.0004677705 -0.04143249 0.110981934
0002e0 ed 0d 93 3e d6 6d 31 be c4 06 d8 bc 70 8a 4b 3d
       0.28721562 -0.17327055 -0.026370414 0.04969257
0002f0 00 58 5e be 3a 5e e3 3d cc 43 f6 bd 0b 6c b5 bd
       -0.21713257 0.11101957 -0.1202465 -0.08858498
000300 01 87 24 3e 61 e1 d9 3d ca 79 15 3e 77 c9 48 3b
       0.16067125 0.10638691 0.1459724 0.003063766
000310 4b 1b 2a be 42 15 59 3d 7a 5c 81 3d 16 a8 ca bc
       -0.16611974 0.05299879 0.06316467 -0.024738353
000320 1e 19 3f 3d ab 0c 37 be e6 1e d6 be a7 41 79 be
       0.046654813 -0.17875926 -0.4182045 -0.2434145
000330 a7 3c f8 3d 85 4b cf 3d 82 3a 72 bd 16 bc 07 3e
       0.121209435 0.10121826 -0.05913783 0.13255343
000340 33 3b a1 bd 84 4b 8a 3d 39 b1 3f 3e 7a 74 9a bd
       -0.078726195 0.06752685 0.18719949 -0.075417474
000350 68 2a b8 3d d3 fc 6b be 55 ae 2a bf c8 14 a6 3e
       0.08992463 -0.23045664 -0.6667226 0.3243773
000360 bc e6 85 bd 3a a7 05 be 78 36 ff bc 68 55 be 3d
       -0.0653815 -0.13052073 -0.031153902 0.09293634
000370 27 74 94 3d e8 d3 ca bd 07 98 d5 bd e5 fb 82 3d
       0.07248717 -0.09903699 -0.104293875 0.06395701
000380 3f 9c 18 bf e1 d2 a8 bd 4a 2a eb 3d 4d f6 28 bd
       -0.5961341 -0.08243347 0.114826754 -0.041250516
000390 9d 68 eb 3d ca 1e 35 3e 17 e4 d5 bd c8 9d 39 3c
       0.11494563 0.17687526 -0.10443895 0.011329122
0003a0 c3 55 52 bc 27 8c d4 bd 74 7b 02 bd 47 f7 b9 bd
       -0.01283783 -0.103782944 -0.031856015 -0.090803675
0003b0 f2 65 20 ba e0 78 4a be 1b 00 c6 bc 5b d2 86 3d
       -0.00061187067 -0.19772673 -0.024169972 0.06583091
0003c0 c9 57 14 bf 0c 10 01 3e 19 a0 38 3d 96 e2 ea bd
       -0.5794645 0.12603778 0.045074556 -0.11468999
0003d0 22 ef 5d 3e eb a0 3e 3e 4a d9 7c be 5f da 20 3e
       0.21673253 0.18616073 -0.24692264 0.15708302
0003e0 94 bf bf 3c 91 8d 19 be 34 e2 fd bd 03 7c 89 bd
       0.023406781 -0.1499541 -0.123966604 -0.067131065
0003f0 c0 65 1c be 89 ce dd bb 66 f0 a8 3d 4f 2d 32 bd
       -0.1527319 -0.0067690057 0.08248977 -0.04350024

model.4.bias f4 [32]
000000 82 b0 2f be e1 a1 81 bd 05 73 c2 3d d8 63 ae 3d
       -0.17157176 -0.06329704 0.094945945 0.085151374
000010 bc 58 22 3e 65 80 e1 3d a7 9d 3d be 77 06 f6 bd
       0.15854162 0.110108174 -0.18517171 -0.12012952
000020 05 a1 22 be 90 6f 83 3d d6 b1 4b be ee 7b 3b 3e
       -0.15881737 0.06417763 -0.19892058 0.18308994
000030 93 0e ff bd 94 35 d4 3d 3f 06 0e be a9 ec e2 3d
       -0.12453952 0.10361782 -0.1386957 0.110802956
000040 a4 e4 42 bd 82 09 0a 3d cb 26 ac 3d 90 4d 7b 3e
       -0.04758133 0.033700474 0.08405837 0.24541306
000050 9d 8b f1 3d b6 b4 04 be 19 c2 41 bc 8a 4b 24 be
       0.11794207 -0.12959561 -0.011826062 -0.16044441
000060 be b6 18 3e b2 ec 7c 3d 74 f2 06 bc 51 b7 e2 3d
       0.1491346 0.061749168 -0.008236516 0.11070121
000070 34 e1 32 3d fc 33 ee bb 90 ab d1 3d 19 06 c2 bd
       0.0436718 -0.0072693806 0.10237801 -0.09473819

model.5.weight f4 [32]
000000 ab fb 45 40 e1 19 3f 40 4a 82 3f 40 dd 1d 3f 40
       3.0934856 2.9859545 2.9923272 2.9861977
000010 57 a9 41 40 42 80 3f 40 7a 47 42 40 ef da 40 40
       3.0259607 2.9922032 3.0356126 3.0133626
000020 b1 58 41 40 2d b6 41 40 d7 2b 41 40 8f 1f 47 40
       3.0210383 3.0267441 3.0183008 3.1113012
000030 f3 7c 45 40 0f fd 3c 40 97 a0 45 40 80 71 46 40
       3.0857513 2.9529455 3.0879266 3.1006775
000040 0f 2f 42 40 99 95 42 40 18 86 46 40 6b 2a 46 40
       3.0341222 3.0403807 3.1019344 3.096339
000050 4f 61 40 40 eb ae 40 40 aa b0 3d 40 0d 0e 43 40
       3.0059392 3.0106761 2.9639077 3.0477326
000060 c0 c2 43 40 f4 2a 40 40 00 f1 48 40 f2 4e 45 40
       3.0587616 3.0026217 3.1397095 3.0829434
000070 a8 e0 40 40 7c 94 40 40 92 5d 3e 40 a2 ce 40 40
       3.013712 3.0090628 2.974461 3.0126119

model.5.bias f4 [32]
000000 e1 2c 0a 40 5d 39 06 40 e8 2d 05 40 d7 d1 05 40
       2.1589892 2.0972512 2.080927 2.0909326
000010 e4 60 07 40 0a ac 04 40 84 f3 08 40 93 1e 07 40
       2.1152887 2.0730004 2.139863 2.111241
000020 19 e0 06 40 20 96 0a 40 27 ae 06 40 e6 82 09 40
       2.1074278 2.165413 2.1043794 2.1486144
000030 6d 3d 0a 40 82 ec 02 40 a5 4f 09 40 47 50 09 40
       2.1599991 2.0456853 2.145486 2.1455247
000040 f7 0c 08 40 ee 25 09 40 95 44 0a 40 cc 9d 09 40
       2.1257913 2.14294 2.160436 2.1502562
000050 f6 0a 07 40 29 cd 07 40 64 04 04 40 63 18 08 40
       2.110044 2.121897 2.062768 2.1264884
000060 70 1a 07 40 05 c5 05 40 47 a9 0a 40 16 cc 08 40
       2.1109886 2.09015 2.1665819 2.1374564
000070 b4 84 07 40 36 b3 06 40 3f a5 03 40 17 00 07 40
       2.1174746 2.1046882 2.0569608 2.1093805

model.5.running_mean f4 [32]
000000 1d 87 90 be 18 23 2e bd 6a 30 62 bd b8 40 ca bc
       -0.28228083 -0.042513937 -0.055221952 -0.024689063
000010 13 2b 37 3d ee 89 66 bc 81 fb e1 bd 18 59 e3 bd
       0.044718813 -0.014070971 -0.11034299 -0.11100978
000020 36 0b 39 be 09 f1 f0 bd 8c f7 bb be 76 13 06 3e
       -0.18070683 -0.11764724 -0.367123 0.13093361
000030 68 16 7c be 48 e1 f9 3d 58 0f 15 be ed e4 f5 3d
       -0.24617922 0.12201172 -0.14556634 0.12006555
000040 e8 df f2 bd 21 29 f3 bd 05 76 ce 3c 5c 30 5a 3e
       -0.11859113 -0.11873079 0.02520276 0.2130751
000050 5a 41 6a 3d e9 e1 01 be b5 0e dc bd 88 ab a6 be
       0.05719123 -0.12683834 -0.10744993 -0.32552743
000060 70 68 a5 3d bc 37 15 3d c8 5a d4 bd 7d 8d 87 3d
       0.080765605 0.036430106 -0.10368878 0.066187836
000070 3b 1d 79 bd 96 53 38 be 50 e8 8e 3c 52 e9 39 be
       -0.060818892 -0.18000636 0.01744476 -0.18155411

model.5.running_var f4 [32]
000000 45 2d d5 3d c4 fd 0e 3c 92 03 16 3e ba df a5 3d
       0.10409025 0.008727495 0.146498 0.08099313
000010 ff 97 02 3e 04 2a f4 3d b2 c7 de 3b 8a 93 05 3e
       0.12753294 0.11922076 0.006798708 0.13044563
000020 85 57 af 3d fb 2c 1f 3e 21 6e d5 3d 79 f2 c4 3c
       0.08561615 0.15544502 0.10421396 0.024041401
000030 73 60 89 3d 02 39 71 3c 0f 95 b2 3d 57 c0 e5 3c
       0.06707849 0.014723064 0.08719837 0.028045816
000040 a0 62 cd 3d ba 3c c5 3d fd d3 eb 3d 8a 4a 0a 3e
       0.10028577 0.09630723 0.11515043 0.13504997
000050 54 37 e1 3d 1f 3a be 3b a7 ec 53 3e b7 a3 c8 3d
       0.10996881 0.0058052684 0.20695744 0.09796851
000060 71 8a 76 3d f6 4e d3 3d 6a 38 d8 3d 59 92 ad 3d
       0.06019062 0.10317795 0.10557635 0.08475179
000070 f3 8e 07 3e 58 c2 17 3e f1 f8 0a 3e c9 42 dc 3c
       0.13238125 0.1482023 0.13571526 0.026887314

model.7.weight f4 [16, 32]
000000 72 cb 03 40 da e5 ee 3f 63 af f3 3f 87 bc ec 3f
       2.0592923 1.8663895 1.9037899 1.8495034
000010 a7 89 00 40 35 6a 05 40 f9 a0 fd 3f 87 8e ff 3f
       2.0084016 2.0846074 1.981475 1.9965371
000020 8f 92 fe 3f 52 7f ea 3f 50 d8 06 40 f8 ac 08 40
       1.9888476 1.8320105 2.1069527 2.1355572
000030 6c 6e ef 3f cb d7 fd 3f 52 7e 03 40 43 f9 fe 3f
       1.8705573 1.983148 2.054585 1.9919819
000040 f0 b2 f6 3f 58 cd 00 40 77 7c fa 3f ff e3 f4 3f
       1.9273357 2.0125332 1.9569234 1.9132079
000050 89 7d 02 40 55 e1 e2 3f e0 20 03 40 5c b3 f2 3f
       2.038912 1.7725016 2.0488815 1.8960986
000060 ff ce 07 40 ee db 05 40 e4 da f2 3f 39 01 f0 3f
       2.122009 2.0915484 1.897305 1.8750373
000070 30 ad f3 3f 2a 75 06 40 c9 56 04 40 52 a3 00 40
       1.9037228 2.1009011 2.067797 2.0099683
000080 c5 12 de bf cb 31 00 c0 b3 1e e6 bf 6f 74 fc bf
       -1.7349478 -2.0030391 -1.7978119 -1.9723033
000090 68 d3 e8 bf ac e6 00 c0 71 43 f6 bf 48 02 e3 bf
       -1.8189516 -2.014079 -1.9239331 -1.7735071
0000a0 d0 e3 fc bf 0b 64 01 c0 a1 48 fc bf a7 17 fb bf
       -1.9757023 -2.0217311 -1.9709665 -1.9616593
0000b0 de c4 fb bf f3 0d e6 bf a3 87 ef bf c9 8a f5 bf
       -1.9669454 -1.7973007 -1.8713268 -1.9182979
0000c0 c9 73 01 c0 08 be ea bf 21 9c 01 c0 5b 1e f1 bf
       -2.022692 -1.8339243 -2.0251544 -1.8837389
0000d0 55 04 ef bf c1 6f f6 bf c0 7e e9 bf ec 2d f6 bf
       -1.8673197 -1.9252855 -1.8241806 -1.9232764
0000e0 af bd 00 c0 3f c0 e1 bf 1f 37 ef bf ec 16 ef bf
       -2.0115774 -1.7636794 -1.8688697 -1.867887
0000f0 87 a6 f4 bf 54 be f8 bf 14 2a f3 bf fd 98 e8 bf
       -1.911332 -1.9433084 -1.8997216 -1.8171688
000100 4a ad 03 c0 93 21 fc bf 72 8c f4 bf 7b 56 db bf
       -2.0574517 -1.9697746 -1.910536 -1.7135767
000110 52 1e f9 bf 18 ef f5 bf 9e 62 fc bf 58 e6 f0 bf
       -1.9462378 -1.9213591 -1.9717596 -1.8820295
000120 63 8e ee bf 32 96 e3 bf 22 fd 02 c0 6c d6 01 c0
       -1.8637203 -1.7780211 -2.0467 -2.0287123
000130 a8 89 eb bf f8 c5 da bf da 82 01 c0 e3 ad fa bf
       -1.8401384 -1.7091665 -2.0236115 -1.9584316
000140 28 57 ef bf d3 10 03 c0 7a 94 ed bf 35 4f 03 c0
       -1.8698473 -2.0479019 -1.8560936 -2.0517094
000150 d2 75 fe bf 9e f8 e7 bf c4 cd de bf 61 f1 e6 bf
       -1.9879706 -1.8122747 -1.7406545 -1.8042413
000160 2f 9f 01 c0 cf 49 fe bf 1d ad 00 c0 c4 b0 f1 bf
       -2.0253408 -1.9866275 -2.010566 -1.888207
000170 5e f3 f5 bf 3e 25 f3 bf 71 f5 ef bf b0 ed f5 bf
       -1.9214895 -1.899574 -1.8746778 -1.9213161
000180 06 37 00 c0 5b 4c f6 bf 80 fa 06 c0 7e 86 08 c0
       -2.0033584 -1.9242052 -2.1090393 -2.1332088
000190 3e d3 fb bf 03 f0 09 c0 10 8e fd bf 49 e5 eb bf
       -1.9673841 -2.1552742 -1.9808979 -1.8429347
0001a0 ef 5f 04 c0 76 b1 0b c0 5c 1b 0b c0 6e ed f4 bf
       -2.0683553 -2.1827064 -2.173545 -1.9134958
0001b0 3c 02 09 c0 f4 f4 04 c0 68 dc 09 c0 70 eb 02 c0
       -2.1407614 -2.0774508 -2.1540775 -2.04562
0001c0 4b 03 f4 bf e1 7d 01 c0 da 70 ff bf 2a 74 08 c0
       -1.9063505 -2.023308 -1.9956315 -2.13209
0001d0 d0 11 01 c0 f6 22 06 c0 11 0d 00 c0 09 68 05 c0
       -2.0167122 -2.0958838 -2.0007975 -2.0844748
0001e0 1b 60 06 c0 cd 17 ff bf e2 08 0b c0 f5 d3 ef bf
       -2.0996158 -1.9929138 -2.1724172 -1.8736559
0001f0 10 c6 fc bf fc b1 ff bf 8d c6 f1 bf 77 a4 09 c0
       -1.9747944 -1.9976192 -1.8888718 -2.1506631
000200 4b 5c ef 3f 6d 9a 02 40 41 5b e0 3f e1 49 ef 3f
       1.870004 2.0406754 1.7527848 1.8694421
000210 80 82 f8 3f 6f 23 e7 3f 61 33 eb 3f 0f 03 f4 3f
       1.9414825 1.8057688 1.8375055 1.9063433
000220 29 ec f6 3f e8 4c f3 3f 2c a0 07 40 ef 8c ff 3f
       1.929082 1.9007845 2.119151 1.9964885
000230 ed 81 fd 3f 29 fb e3 3f bd 34 f0 3f bf ba ff 3f
       1.9805275 1.7811023 1.8766094 1.9978865
000240 9c d8 ed 3f 5e 80 fc 3f 86 13 f3 3f 50 ff ee 3f
       1.8581729 1.9726675 1.8990333 1.8671665
000250 53 38 f1 3f 2d eb f2 3f 24 ae e9 3f b3 84 f6 3f
       1.8845314 1.897802 1.8256269 1.9259247
000260 f8 da e4 3f f5 21 e2 3f 11 71 f2 3f bc 52 fd 3f
       1.7879324 1.7666613 1.8940755 1.9790874
000270 35 67 ff 3f f5 49 fe 3f a3 ae e7 3f f2 d1 e1 3f
       1.9953371 1.986632 1.810017 1.7642195
000280 04 44 f4 bf 0c a8 e3 bf 1e db e7 bf 58 58 fa bf
       -1.9083257 -1.7785659 -1.8113744 -1.955821
000290 b4 d5 fc bf 19 f0 f6 bf 5a 64 e9 bf 00 44 e7 bf
       -1.9752717 -1.9292022 -1.823375 -1.8067627
0002a0 bc 81 e6 bf 5e e2 e4 bf af 0f e3 bf 2b 5b eb bf
       -1.8008342 -1.7881582 -1.7739161 -1.8387197
0002b0 f5 e3 04 c0 1e fc ea bf 80 ee 02 c0 b6 eb df bf
       -2.0764134 -1.835819 -2.045807 -1.7493808
0002c0 ca 56 e2 bf b6 a8 f1 bf b4 22 f0 bf c4 73 e9 bf
       -1.7682736 -1.8879611 -1.876059 -1.8238454
0002d0 93 e8 f7 bf e7 bf f9 bf 70 41 f2 bf 13 cd 04 c0
       -1.9367851 -1.9511689 -1.892622 -2.0750167
0002e0 31 a5 ee bf 4b 6a 00 c0 b4 c8 fa bf 59 52 00 c0
       -1.8644162 -2.0064876 -1.95925 -2.005026
0002f0 13 9d f6 bf 7e 7f e6 bf f3 98 e7 bf 63 4a 01 c0
       -1.9266685 -1.8007658 -1.8093551 -2.0201652
000300 67 c2 e4 bf 52 50 eb bf 6e 6d fc bf 6f 3c f6 bf
       -1.7871827 -1.8383887 -1.9720895 -1.9237193
000310 13 2f e4 bf 13 01 ee bf de fd 00 c0 ff 5e ec bf
       -1.7826866 -1.8594078 -2.0154948 -1.846649
000320 77 ed da bf ac 72 fd bf fb e1 f9 bf 8e 18 fe bf
       -1.7103719 -1.980062 -1.9522089 -1.9851243
000330 3b ba de bf 80 53 df bf 0e e3 fe bf f0 a3 f0 bf
       -1.7400583 -1.7447357 -1.9913042 -1.880003
000340 1d 15 f4 bf b6 dc f0 bf a9 23 ec bf 8e 50 f3 bf
       -1.9068943 -1.8817356 -1.8448383 -1.9008958
000350 46 0b f7 bf f5 95 f1 bf 88 4c fe bf c7 35 01 c0
       -1.9300315 -1.8873888 -1.9867105 -2.0189073
000360 20 ae fa bf 39 2f e8 bf 6d 20 05 c0 93 cb e6 bf
       -1.9584389 -1.8139411 -2.080104 -1.8030876
000370 ab a8 d8 bf 18 28 df bf 70 a0 dc bf 96 05 ed bf
       -1.6926473 -1.7434111 -1.7236462 -1.851733
000380 18 bd fe 3f 9f 51 03 40 f4 35 fc 3f 46 e2 e6 3f
       1.9901457 2.0518568 1.9703965 1.8037803
000390 44 6f 01 40 26 b8 f4 3f 7e d4 fb 3f 7f aa ef 3f
       2.022416 1.9118698 1.9674222 1.8723906
0003a0 cf c0 e1 3f 17 61 08 40 52 8f e7 3f 2e c3 f7 3f
       1.7636966 2.130926 1.8090613 1.9356439
0003b0 a5 cd 02 40 13 34 04 40 59 87 03 40 30 4c f9 3f
       2.0438015 2.0656784 2.055136 1.9476376
0003c0 3d 28 ee 3f a7 a0 fd 3f 6d 1e 03 40 c3 7b e7 3f
       1.860603 1.9814652 2.048732 1.8084644
0003d0 9c e9 01 40 e2 2b e4 3f 5c 97 ed 3f 67 ed 00 40
       2.0298834 1.7825892 1.8561816 2.01449
0003e0 32 f7 f4 3f 66 af fd 3f af 04 f1 3f 75 79 02 40
       1.9137938 1.9819152 1.8829554 2.0386631
0003f0 f1 55 f5 3f 45 f1 05 40 5a 05 06 40 07 2f e9 3f
       1.9166852 2.092851 2.0940766 1.8217477

model.7.bias f4 [16]
000000 3e 58 d1 3f 6c b9 ca bf 7b 61 c3 bf 76 44 e8 bf
       1.6355054 -1.5837836 -1.5264124 -1.8145893
000010 4d 57 bf 3f b8 f2 d5 bf 47 85 b0 bf b9 35 d0 3f
       1.4948517 -1.6714697 -1.3790673 1.6266395
000020 0b 3a d7 3f 5b a1 ca 3f 94 9a d4 bf 66 be e8 3f
       1.6814588 1.5830492 -1.6609674 1.8183105
000030 5b 1e e8 bf f2 65 e8 3f 58 4b c4 3f ec 89 be 3f
       -1.8134264 1.8156111 1.5335493 1.488584

model.8.weight f4 [1, 16]
000000 61 56 02 40 99 02 0b c0 e4 d2 0a c0 e2 87 fb bf
       2.0365222 -2.1720335 -2.1691217 -1.9650843
000010 61 92 05 40 13 de 09 c0 33 2e 0d c0 10 6d 04 40
       2.0870593 -2.1541793 -2.2059448 2.0691566
000020 db 34 0a 40 8b 64 0a 40 6d 29 0e c0 61 44 01 40
       2.159476 2.1623867 -2.2212784 2.0197985
000030 dc ad 03 c0 4f ae 00 40 7f f9 03 40 bb 53 04 40
       -2.0574865 2.010639 2.062103 2.0676105

exp_avg f4 [8]
000000 87 94 8e c5 2b 03 63 46 17 a8 0d c5 08 f9 09 45
       -4562.566 14528.792 -2266.5056 2207.5645
000010 f1 bf 88 45 1e 42 ac 44 80 55 82 c6 43 65 0e 45
       4375.9927 1378.0662 -16682.75 2278.3289

exp_avg_sq f4 [8]
000000 f5 ec fa 4f ce 82 81 4f bb 40 a4 4e 1c c0 18 4f
       8.4196664e+09 4.3456666e+09 1.3778528e+09 2.562727e+09
000010 4e 05 94 4d 07 a2 f2 4d bf 5f cc 4f c4 a6 fc 4f
       3.1042195e+08 5.088381e+08 6.857654e+09 8.477575e+09

exp_avg f4 [8]
000000 02 5f 72 3a 44 7e 70 b9 fc 3d 3f ba 7b 08 56 3a
       0.00092457247 -0.00022935221 -0.0007295308 0.0008164716
000010 56 2d 39 39 20 03 4b 39 6e 8e 26 3b 0d 2d fa ba
       0.00017659864 0.00019360753 0.0025414485 -0.0019086913

exp_avg_sq f4 [8]
000000 37 9e ff 39 6c 92 10 39 06 08 0f 38 36 72 a2 38
       0.0004875527 0.00013787457 3.410133e-05 7.7460354e-05
000010 fb 6e a1 36 2b 21 9a 38 eb b6 29 39 98 1e 2d 39
       4.8110937e-06 7.34947e-05 0.00016185238 0.00016509963

exp_avg f4 [16, 8]
000000 25 48 17 c7 46 12 0f c7 cb 5f 1a c7 2f ac c1 c4
       -38728.145 -36626.273 -39519.793 -1549.3807
000010 14 38 98 c6 6e 32 04 c6 8e cf 1e 46 d2 61 d7 c5
       -19484.04 -8460.607 10163.889 -6892.2275
000020 b8 72 9f 46 b0 33 b4 46 04 ea d8 46 28 b4 ee c5
       20409.36 23065.844 27765.008 -7638.5195
000030 bc 65 c5 45 de a6 7d c2 d9 6e ad c5 82 6b fe 45
       6316.717 -63.412956 -5549.856 8141.4385
000040 88 8c b3 c6 f3 cd 29 c7 1c 6b 16 c7 b5 fd a1 c5
       -22982.266 -43469.95 -38507.11 -5183.7134
000050 c0 7a d6 c6 cf d5 d0 c6 12 dc 8e 47 d8 12 0c c7
       -27453.375 -26730.904 73144.14 -35858.844
000060 33 12 90 c5 2f 18 02 c4 0f c5 31 c5 e9 55 4a 45
       -4610.275 -520.37787 -2844.3162 3237.3694
000070 c1 af 54 44 ee 3c 60 44 9d 51 d8 c4 cf d4 b1 c4
       850.74615 896.952 -1730.5504 -1422.6503
000080 2b c1 17 c4 18 b7 69 c5 d0 92 4a c4 f1 9f a7 c5
       -607.01825 -3739.4434 -810.29395 -5363.9927
000090 2e 0a da c4 45 57 0c c4 7e 90 f5 44 7b 46 44 44
       -1744.3181 -561.3636 1964.5154 785.10126
0000a0 80 f4 b1 44 c8 e0 0b c5 58 0d 2c c5 4a d3 23 c5
       1423.6406 -2238.0488 -2752.834 -2621.2056
0000b0 52 47 33 c5 02 2e bc c5 91 e7 d7 44 59 07 4c c4
       -2868.4575 -6021.751 1727.2365 -816.1148
0000c0 75 31 9a 45 33 96 07 46 1e ef 99 c5 0b dd 70 46
       4934.182 8677.55 -4925.8896 15415.261
0000d0 3f 9a c3 c6 a8 99 09 c6 2b b9 c9 c5 ad 93 9f 46
       -25037.123 -8806.414 -6455.146 20425.838
0000e0 60 62 63 45 01 b8 c9 c5 e4 b8 30 c5 53 18 2f c6
       3638.1484 -6455.0005 -2827.5557 -11206.081
0000f0 7a ea 85 c5 d5 bb dd c5 bf 96 2c 46 41 d3 bd c5
       -4285.3096 -7095.479 11045.687 -6074.4067
000100 b4 63 b8 c6 86 aa 8c c6 6b 1b 5c c6 9c fc 03 c5
       -23601.852 -18005.262 -14086.8545 -2111.788
000110 87 59 04 44 02 2f 60 c6 9c 33 f0 45 c3 0f 84 46
       529.39886 -14347.752 7686.451 16903.88
000120 21 49 85 42 84 96 ef 45 4e 5f 7f 45 75 fb ce 45
       66.64283 7666.8145 4085.9565 6623.432
000130 f8 8c 8f 45 09 0e d2 45 ea 5c 2e c6 bf fc 80 45
       4593.621 6721.7544 -11159.229 4127.5933
000140 32 5d d3 c4 fa dd 95 c3 1c 5c 09 c5 07 7a 39 45
       -1690.9124 -299.7342 -2197.7568 2967.6267
000150 70 4d 89 45 b8 f8 23 c5 92 9f b8 45 9c 3f ca 45
       4393.6797 -2623.545 5907.9463 6471.951
000160 69 aa 14 c5 07 06 75 c4 2d 92 d7 c4 a2 e6 17 44
       -2378.6506 -980.0942 -1724.568 607.60364
000170 99 e2 0f 45 ff 5b 86 c5 61 0d 04 c4 ad 75 fb c3
       2302.1624 -4299.4995 -528.20905 -502.91934
000180 ff 2b 2f 45 19 58 82 45 16 4e 66 45 57 df 61 c5
       2802.7498 4171.012 3684.8804 -3613.9587
000190 85 2e e7 44 4b 51 53 46 fc 23 21 c6 08 fe 96 c6
       1849.4537 13524.323 -10312.996 -19327.016
0001a0 4f c1 75 c6 0e c1 3d c6 cc 35 52 c6 75 eb 33 45
       -15728.327 -12144.264 -13453.449 2878.716
0001b0 97 37 1a 45 4a 7d d5 c5 c2 c9 8a 45 95 08 08 c6
       2467.4744 -6831.661 4441.2197 -8706.1455
0001c0 5e 57 30 c3 69 3a 5a 43 f8 23 2e c4 29 67 7a 44
       -176.34128 218.22816 -696.562 1001.6119
0001d0 6f 60 34 43 29 ac 1a c5 6b 16 55 44 3d 5e 3a 46
       180.3767 -2474.76 852.3503 11927.56
0001e0 e5 bb a5 45 a5 97 98 44 b9 6f 2b 45 83 54 0a c5
       5303.487 1220.7389 2742.9827 -2213.282
0001f0 bc 9c 34 c5 6f 2b 6c c5 62 e9 c6 45 eb e0 a2 45
       -2889.796 -3778.7146 6365.173 5212.1147

exp_avg_sq f4 [16, 8]
000000 54 43 07 51 0c 99 ce 50 2d d6 0c 51 f9 7d bf 4f
       3.6309385e+10 2.7729093e+10 3.7805543e+10 6.425408e+09
000010 d3 79 dd 4f be b1 02 4f 08 25 55 50 5e 16 d5 4e
       7.431497e+09 2.1926866e+09 1.4303896e+10 1.7875064e+09
000020 a5 41 18 50 cb 9d d1 4f 99 ef 26 50 ca ba 22 4f
       1.0217756e+10 7.0335585e+09 1.1202881e+10 2.7301504e+09
000030 fd 15 24 4e 11 60 7d 4e c1 fe 69 4f ab 7a 16 4e
       6.882261e+08 1.06273286e+09 3.925787e+09 6.311554e+08
000040 ae 54 c9 50 6f b3 9e 50 14 7c db 50 0a 60 6b 50
       2.702216e+10 2.1300476e+10 2.9458735e+10 1.5795759e+10
000050 9e 0a 1b 50 10 e2 bd 4f 2f 9b 09 51 b1 59 c6 51
       1.0404657e+10 6.371418e+09 3.693838e+10 1.0648854e+11
000060 39 e0 a1 4e a6 13 6f 4e 41 41 9a 4e 90 79 b3 4d
       1.3579132e+09 1.0027606e+09 1.2939839e+09 3.7638605e+08
000070 64 3e 16 4d 3e 84 06 4c 4d 3c 50 4e c5 dd 3f 4c
       1.5754195e+08 3.526271e+07 8.734032e+08 5.0296596e+07
000080 1a 9e a2 4e 04 b5 7f 4e 94 fc b0 4e b3 51 1b 4e
       1.3641352e+09 1.0725133e+09 1.4846715e+09 6.514557e+08
000090 50 f8 ad 4c d7 33 7e 4d 1d 68 4e 4e e0 32 36 4f
       9.121037e+07 2.6655064e+08 8.657324e+08 3.0567875e+09
0000a0 02 75 0b 4e f4 6d 31 4e aa 5b 84 4e 40 e2 0a 4f
       5.849253e+08 7.441933e+08 1.1102999e+09 2.3300833e+09
0000b0 9e 12 98 4e 4f 4e cf 4d be a4 80 4f 45 80 1d 50
       1.2756785e+09 4.3475197e+08 4.3165604e+09 1.0569717e+10
0000c0 65 a3 49 50 6b 22 56 50 36 fb 5a 50 1a 6a 56 50
       1.3531715e+10 1.4370319e+10 1.4695586e+10 1.4389111e+10
0000d0 3b fc 83 50 92 e9 e5 4e 74 f6 98 50 27 c4 ab 51
       1.7714764e+10 1.9286449e+09 2.0530307e+10 9.221629e+10
0000e0 77 b7 00 4f e8 bf c3 4e e1 1a e7 4e 26 4d a7 4e
       2.1595072e+09 1.642067e+09 1.9386492e+09 1.4034255e+09
0000f0 53 6d 2b 4e ec c2 95 4d 6e f3 cb 4e 52 e1 b4 4f
       7.1901715e+08 3.1407245e+08 1.7108641e+09 6.069331e+09
000100 8a 83 cc 4f da bd 9e 4f e6 8d ec 4f 16 55 1b 4f
       6.862345e+09 5.3264845e+09 7.937445e+09 2.6060447e+09
000110 46 d0 01 4f 73 63 14 4f b6 3a 91 4f 67 77 8d 4f
       2.1779103e+09 2.4895455e+09 4.873088e+09 4.746825e+09
000120 1a c0 68 4f df 60 2d 4f dc b6 5c 4f e4 60 7c 4f
       3.9049037e+09 2.908807e+09 3.7029714e+09 4.2342083e+09
000130 a3 e1 28 4f 8b 37 da 4d c1 86 98 4f b9 6e d2 4f
       2.8333596e+09 4.5763414e+08 5.117936e+09 7.0609434e+09
000140 f5 39 1b 4e 3b 8c d4 4d 1d 83 02 4e 5d bb 1c 4e
       6.510667e+08 4.45745e+08 5.474077e+08 6.573812e+08
000150 b6 35 aa 4d d0 2b 11 4c 4a df 9f 4e 95 f1 9e 4f
       3.5695584e+08 3.8055744e+07 1.3411054e+09 5.333265e+09
000160 9f f4 03 50 c1 05 c8 4f e3 39 05 50 8b ca 97 4e
       8.855387e+09 6.7116406e+09 8.940654e+09 1.2733167e+09
000170 6e 59 01 4e b0 14 c1 4c d6 5d 46 4f 57 ce 49 4e
       5.425304e+08 1.0122995e+08 3.3280384e+09 8.464358e+08
000180 8f 50 6b 4c f3 89 33 4c 1a 85 98 4c 78 e2 00 4e
       6.1686332e+07 4.7065036e+07 7.996437e+07 5.405814e+08
000190 41 fb 9b 4c 67 01 7f 4e 7b b2 8a 4e 63 26 76 4f
       8.177921e+07 1.0695705e+09 1.1634764e+09 4.1297108e+09
0001a0 a7 c2 84 4f 99 b4 46 4f 71 f4 87 4f 6d 0d 18 4e
       4.4546985e+09 3.3337244e+09 4.5618877e+09 6.377542e+08
0001b0 6f cf f1 4d 19 56 63 4d bc 3b a8 4e 85 3d c4 4d
       5.0711293e+08 2.3837941e+08 1.4112435e+09 4.1154576e+08
0001c0 f8 26 41 4b 9a 82 2b 4b be 9f da 4b 31 a6 f6 4c
       1.2658424e+07 1.124009e+07 2.8655484e+07 1.2931521e+08
0001d0 49 e8 5d 4c da ab 99 4c b2 0c 82 4d 0f f1 a6 4e
       5.8171684e+07 8.056802e+07 2.7273376e+08 1.4004079e+09
0001e0 04 58 bf 4e 84 d9 89 4e f1 0d b8 4e cd 38 bf 4d
       1.6051082e+09 1.1563668e+09 1.5439607e+09 4.0102134e+08
0001f0 3e 0f eb 4d 8a d4 66 4d b3 a4 31 4e b5 69 f6 4d
       4.929556e+08 2.4204304e+08 7.4509024e+08 5.1676534e+08

exp_avg f4 [16]
000000 32 63 ce ba 7f d1 9a 3a 1e ee f4 bb 82 de a4 39
       -0.0015746115 0.0011811702 -0.007474675 0.000314463
000010 70 a2 95 39 95 5c a0 39 ec d7 78 3b 9b c7 bf 39
       0.0002854052 0.00030586557 0.0037970496 0.00036579077
000020 6d 9e 47 3a 12 53 cc 3a bb 6a 1e 39 69 b7 87 b9
       0.0007614855 0.0015588722 0.00015107814 -0.00025885858
000030 88 c6 69 3a ea bf b2 37 1a 05 15 39 8c 76 20 b9
       0.0008917828 2.130862e-05 0.00014211648 -0.00015302951

exp_avg_sq f4 [16]
000000 25 c6 0a 39 93 89 d0 37 d9 21 82 3a 7d fc c4 36
       0.0001323452 2.4859595e-05 0.00099283 5.8706487e-06
000010 6e 50 9a 36 5e 21 88 38 5d 9d 3d 3a 12 91 36 38
       4.598921e-06 6.4912005e-05 0.0007233227 4.352729e-05
000020 aa ed 8b 38 3e 2e ff 38 59 53 99 37 9b 62 a8 37
       6.672305e-05 0.00012167961 1.8277833e-05 2.0073077e-05
000030 54 5d 20 37 b3 a1 a7 37 0c 80 8a 36 07 88 5a 37
       9.558473e-06 1.9983248e-05 4.127627e-06 1.3025484e-05

exp_avg f4 [16]
000000 87 be d9 c4 57 de 68 46 a7 d5 bd c6 06 c9 95 45
       -1741.954 14903.585 -24298.826 4793.128
000010 ca 30 95 45 4a 85 78 c4 ac e5 61 c5 75 f1 7a c6
       4774.0986 -994.08264 -3614.3545 -16060.364
000020 2c 71 87 c4 37 06 07 46 6b e0 4c c5 0d c3 3e 44
       -1083.5366 8641.554 -3278.0261 763.04767
000030 2e 09 b9 46 36 f8 23 c4 26 c2 07 c5 30 62 ad c5
       23684.59 -655.8783 -2172.1343 -5548.2734

exp_avg_sq f4 [16]
000000 94 a0 80 50 86 f8 9c 4f e5 f5 07 51 70 8f 8c 4e
       1.7264058e+10 5.267066e+09 3.6496626e+10 1.1791053e+09
000010 17 18 a8 4e 11 ee 1c 50 f0 0f 3d 51 fd 05 8f 4f
       1.4100755e+09 1.053139e+10 5.0751013e+10 4.7990687e+09
000020 b2 a9 85 4f cf ad a0 50 d6 1f 31 4f 4f 67 38 4e
       4.484982e+09 2.1565962e+10 2.9716536e+09 7.7344454e+08
000030 fe 69 00 50 df 5c 03 4f f0 13 2d 4e 42 34 85 4e
       8.61772e+09 2.2039017e+09 7.2594125e+08 1.1173972e+09

exp_avg f4 [16]
000000 75 16 50 c5 77 4e 22 46 90 61 70 c6 0d e4 02 44
       -3329.4036 10387.616 -15384.391 523.5633
000010 1a 05 15 45 58 62 3c 46 a2 cf 19 44 70 90 89 c5
       2384.3188 12056.586 615.24426 -4402.0547
000020 39 ca 1a 45 66 93 1d 46 59 aa b3 c5 ca c4 ee 43
       2476.639 10084.85 -5749.2935 477.5374
000030 1f bb 36 45 65 47 ad c5 f0 b3 b4 c5 38 9a e7 c5
       2923.695 -5544.9243 -5782.492 -7411.2773

exp_avg_sq f4 [16]
000000 d1 51 10 50 aa 1c 4b 4f a0 f7 82 50 0f 24 67 4e
       9.685124e+09 3.4076534e+09 1.7578131e+10 9.69475e+08
000010 14 f6 0f 4e 25 07 3d 4f 53 c7 fc 50 6c 48 0d 4f
       6.038172e+08 3.171362e+09 3.392737e+10 2.3703337e+09
000020 d4 d3 28 4f f5 d9 2b 50 d9 cd e3 4e a1 cd 6f 4e
       2.8324547e+09 1.1532752e+10 1.9109592e+09 1.0058077e+09
000030 ae e5 81 4e 8d 42 5f 4e e6 1e 4f 4e 04 3e 42 4e
       1.0896566e+09 9.3642016e+08 8.687272e+08 8.1471104e+08

exp_avg f4 [32, 16]
000000 89 d4 d4 c4 7f 0f a0 44 b4 02 22 c5 6d 01 67 c5
       -1702.6417 1280.4843 -2592.169 -3696.089
000010 56 af ef 45 3f 2b bc c5 71 61 bb 44 20 df ca c4
       7669.917 -6021.406 1499.045 -1622.9727
000020 f0 e0 8c 45 a8 0c e8 41 83 d1 19 c5 ec 98 87 c5
       4508.117 29.00618 -2461.0945 -4339.115
000030 a8 f2 46 46 39 fb 94 44 cb 32 1c 46 b5 50 6f c5
       12732.664 1191.8507 9996.698 -3829.0442
000040 50 10 30 45 95 63 79 46 77 92 6f c5 23 85 7b c6
       2817.0195 15960.8955 -3833.154 -16097.284
000050 b0 c3 6d 46 49 07 57 c6 e4 f3 37 45 92 d9 5e c5
       15216.922 -13761.821 2943.2432 -3565.5981
000060 4c 2b 51 46 ed cc 6a c4 b8 cb 56 c5 29 42 27 46
       13386.824 -939.20197 -3436.7324 10704.54
000070 a9 0b 2d 47 59 85 16 46 c0 46 01 47 9f 92 82 c6
       44299.66 9633.337 33094.75 -16713.31
000080 f3 ae a1 43 d6 e5 28 45 38 cf 03 45 0d aa ce c4
       323.3668 2702.3647 2108.9512 -1653.3141
000090 52 33 b3 45 79 b8 4b c5 8b 41 64 44 ec c5 a1 44
       5734.415 -3259.5295 913.0241 1294.185
0000a0 a7 c1 54 45 36 d5 06 c4 cc 36 49 c5 82 85 47 c5
       3404.1033 -539.3314 -3219.4248 -3192.3442
0000b0 44 e2 4a 46 22 3d 2f 45 ad 18 1e 46 55 89 62 c4
       12984.566 2803.8208 10118.169 -906.1458
0000c0 f2 6a 38 44 44 b0 92 45 05 cd fb 44 75 c7 22 c5
       737.671 4694.033 2014.4069 -2604.466
0000d0 14 00 f4 45 bb 01 92 c5 f8 4a 98 44 ec b1 97 44
       7808.01 -4672.2163 1218.3428 1213.56
0000e0 52 1c 89 45 09 eb 9b 43 74 35 11 c5 26 9f d4 c4
       4387.54 311.8362 -2323.3408 -1700.9734
0000f0 3a 58 93 46 12 35 86 45 fd 61 65 46 2a 53 47 c5
       18860.113 4294.634 14680.497 -3189.1978
000100 21 70 4e 43 85 83 0e 45 9f 53 1d 45 d9 de a5 c4
       206.438 2280.22 2517.2263 -1326.964
000110 87 96 8b 45 5f e5 f1 c4 a5 5f e8 43 ee a6 cc 44
       4466.816 -1935.1678 464.74722 1637.2166
000120 af 90 29 45 49 0b 12 44 22 e9 47 c5 e6 90 85 c5
       2713.0427 584.17633 -3198.5708 -4274.1123
000130 6d 5b 31 46 21 1d 23 45 18 ba 09 46 5b 3b f8 c1
       11350.856 2609.8206 8814.523 -31.028982
000140 45 65 cd 43 8f b1 38 45 84 96 a7 44 17 85 01 c4
       410.79117 2955.0974 1340.7036 -518.0795
000150 f9 c6 b2 45 c1 32 68 c5 4a 06 b9 42 23 4f ee 44
       5720.8716 -3715.172 92.51228 1906.473
000160 78 44 58 45 c1 60 4c 43 f0 79 53 c5 01 53 6f c5
       3460.2793 204.37794 -3383.621 -3829.1877
000170 d9 f0 40 46 15 fd 42 45 76 2e 13 46 fe ea cd 43
       12348.212 3119.8176 9419.615 411.83588
000180 7d 54 a4 45 77 0e 6a 46 e5 85 b5 c4 e1 2f 19 c4
       5258.561 14979.616 -1452.1842 -612.7481
000190 5c df 6f 46 ed 93 a2 c6 d8 66 a3 45 06 13 e4 c4
       15351.84 -20809.963 5228.8555 -1824.5945
0001a0 24 62 f7 45 96 8c 9b 45 cf 8d dc c6 3b 44 4b c6
       7916.2676 4977.573 -28230.904 -13009.058
0001b0 f5 51 3d 47 86 84 5d 46 dd 5a 09 47 25 24 71 c5
       48465.957 14177.131 35162.863 -3858.259
0001c0 58 fc 2c 44 a7 8f 5b 45 6f 21 4d 43 33 13 fc c4
       691.9429 3512.9783 205.1306 -2016.6
0001d0 88 d1 86 45 61 84 7e c5 8f 08 43 43 fa 51 94 44
       4314.1914 -4072.2737 195.03343 1186.5618
0001e0 d8 07 29 45 d1 11 67 43 e3 44 43 c5 7d 7b ec c4
       2704.4902 231.0696 -3124.3054 -1891.859
0001f0 bb 32 2f 46 42 84 55 45 13 a9 06 46 59 cc bc c4
       11212.683 3416.266 8618.269 -1510.3859
000200 61 0f 0a 44 f7 a0 67 45 49 f5 0a 45 5d 9b c1 c4
       552.2403 3706.0603 2223.3303 -1548.8551
000210 e6 da fd 45 92 81 33 c5 0b 43 91 44 16 f7 97 44
       8123.3623 -2872.0981 1162.0951 1215.7214
000220 fa c7 8e 45 be 1a f9 43 3e f6 ef c4 7e ee 2e c5
       4568.997 498.20892 -1919.6951 -2798.9058
000230 a4 56 8f 46 98 f7 85 45 91 87 58 46 bf 26 2b c5
       18347.32 4286.949 13857.892 -2738.4216
000240 b5 81 9f 44 4c 88 12 45 6e ab ed c4 93 11 7f c5
       1276.0533 2344.5186 -1901.3572 -4081.0984
000250 fe f9 cb 43 28 83 b1 c5 29 86 d6 44 04 f2 cb c4
       407.95306 -5680.3945 1716.1925 -1631.563
000260 44 86 73 c2 65 94 06 44 87 cf 1e c5 7e 3c 03 c5
       -60.88112 538.31866 -2540.9705 -2099.7808
000270 dd 32 e3 45 f6 59 e3 44 e6 d1 97 45 33 a7 12 c5
       7270.358 1818.8113 4858.2373 -2346.45
000280 f9 a1 85 44 c5 0d 73 45 6b 59 d5 c4 dc f0 b1 c4
       1069.0616 3888.8606 -1706.7943 -1423.5269
000290 f9 de c5 45 88 82 fd c5 ee 9f 95 44 8c 5e b1 c4
       6331.8716 -8112.3164 1196.9978 -1418.9546
0002a0 02 17 a1 44 ba 76 bd c3 87 0b a5 c5 de e2 8e c5
       1288.719 -378.92755 -5281.441 -4572.3584
0002b0 30 47 54 46 94 fd 77 45 da 28 e9 45 b4 9c 58 c5
       13585.797 3967.8486 7461.1064 -3465.794
0002c0 33 1c 61 45 f5 bd 0c 45 60 49 51 c5 a9 19 cb c5
       3601.7625 2251.8723 -3348.586 -6499.2075
0002d0 20 54 e3 45 91 3c 0e c6 ff 8d 3d 45 8e a0 84 c5
       7274.5156 -9103.142 3032.8748 -4244.0693
0002e0 cc 2f 9c 44 e7 82 18 c5 75 61 10 44 66 1d 8b c5
       1249.4937 -2440.1814 577.52277 -4451.675
0002f0 70 10 1b 46 30 9b bb 45 74 16 a9 44 06 e2 51 c6
       9924.109 6003.3984 1352.7017 -13432.506
000300 b8 0f cf 44 ea 90 ad 45 46 c5 86 c5 15 86 de c5
       1656.4912 5554.1143 -4312.659 -7120.7603
000310 fe 5f e2 45 45 12 2b c6 14 00 d8 44 2a bb 51 c5
       7243.999 -10948.567 1728.0024 -3355.6978
000320 94 33 87 45 19 c5 25 c5 02 13 df c4 17 3e 25 45
       4326.4473 -2652.3186 -1784.594 2643.8806
000330 ff cb 79 46 6e d3 8a 45 e3 1a 3b 46 d3 35 17 c6
       15986.999 4442.4287 11974.722 -9677.456
000340 8e bd 06 45 98 31 2d 46 c3 35 0b c6 2b b3 6d c6
       2155.8472 11084.398 -8909.44 -15212.792
000350 2c 71 e5 45 0b f8 2c c6 31 9e cb c4 9d 0c f1 c5
       7342.1465 -11070.011 -1628.9435 -7713.5767
000360 2d a1 dd 45 a0 1d 07 c5 9d 3a c8 44 3d 95 30 c4
       7092.147 -2161.8516 1601.8317 -706.33185
000370 e3 73 fd 46 09 a0 c7 45 a8 db d3 46 d6 a9 5d c6
       32441.943 6388.0044 27117.828 -14186.459
000380 6b 5a aa c4 33 ac ee 44 2d e9 3a c5 6b 5d 39 c5
       -1362.8256 1909.3812 -2990.5735 -2965.8386
000390 bd 43 17 46 17 ed eb c5 d9 28 bb 44 05 fb fc c4
       9680.935 -7549.636 1497.2765 -2023.8444
0003a0 ea 60 a5 45 7c a5 cd 42 32 61 69 c5 76 69 9d c5
       5292.1143 102.82321 -3734.0747 -5037.1826
0003b0 bd e0 72 46 cf ec 8d 44 93 ba 32 46 7a 5e 3c c5
       15544.185 1135.4003 11438.644 -3013.9048
0003c0 85 b2 12 44 49 88 c8 45 bb 3a 54 c6 a9 62 11 c6
       586.78937 6417.0356 -13582.683 -9304.665
0003d0 4b 1b 94 46 66 cd a0 c6 7f 45 62 c4 5c 43 0f c6
       18957.646 -20582.7 -905.0859 -9168.84
0003e0 e4 6a 39 46 08 de 4f c5 a9 ce d8 c5 f7 ba 86 c5
       11866.723 -3325.877 -6937.8325 -4311.3706
0003f0 dc c0 f5 46 c8 47 56 45 b7 ab b8 46 11 7a 49 c6
       31456.43 3428.4863 23637.857 -12894.517

exp_avg_sq f4 [32, 16]
000000 9c 8c 2e 4d 03 03 5f 4d 4e 38 af 4e 89 30 3c 4d
       1.8302816e+08 2.3384478e+08 1.4698514e+09 1.9733109e+08
000010 c8 ea 0f 4f 77 e3 7e 4f 2c 43 29 4e 88 97 47 4e
       2.4145285e+09 4.27632e+09 7.099379e+08 8.371492e+08
000020 e3 8b d2 4d 55 25 b0 4d dd 1c e6 4e 81 b7 9c 4e
       4.4154787e+08 3.6940458e+08 1.9303256e+09 1.3146359e+09
000030 5b 37 89 4f 1a 11 07 4d 86 e9 0a 4f ac 6d 4b 4e
       4.6042127e+09 1.416278e+08 2.33056e+09 8.532406e+08
000040 c9 6c bf 4d 8d b7 b2 4e 06 9e 65 4f e7 10 1e 4e
       4.014472e+08 1.4991868e+09 3.8523387e+09 6.6297696e+08
000050 fc d0 da 4f 33 0d 69 50 3d 61 0b 4e c5 15 00 4f
       7.342258e+09 1.5639825e+10 5.846014e+08 2.1489103e+09
000060 68 07 bc 4e fa 29 03 4e 35 11 ed 4f 37 51 40 4f
       1.577301e+09 5.501416e+08 7.9546557e+09 3.226548e+09
000070 86 1f 9b 50 48 c2 40 4e fa a3 26 50 91 73 e4 4e
       2.0820275e+10 8.084895e+08 1.1183057e+10 1.9163895e+09
000080 e4 b1 83 4c a5 9c f2 4c f5 00 8b 4b de a6 b8 4c
       6.904605e+07 1.27198504e+08 1.8219498e+07 9.681074e+07
000090 f3 76 15 4e 39 75 5d 4d bb 7c 82 4b e5 46 83 4b
       6.2690016e+08 2.3221544e+08 1.7103222e+07 1.720673e+07
0000a0 22 df 08 4d 2d 99 c5 4b f0 35 b2 4d 02 4b 29 4e
       1.4352029e+08 2.589961e+07 3.737349e+08 7.100663e+08
0000b0 2e d1 bf 4e 56 c2 97 4c c3 a4 78 4e 14 b6 d3 4c
       1.6090785e+09 7.956549e+07 1.04288685e+09 1.1099766e+08
0000c0 aa c3 ce 4c 92 65 4b 4d 74 e7 ca 4b 24 9b 21 4d
       1.0840405e+08 2.1327696e+08 2.6595048e+07 1.694562e+08
0000d0 83 14 96 4e 20 2d 12 4e ac b4 b3 4b 7d a5 98 4b
       1.2589633e+09 6.131077e+08 2.3554392e+07 2.0007674e+07
0000e0 34 4f 87 4d a2 4e 73 4c 4f 61 2d 4e 82 83 8b 4e
       2.8376435e+08 6.378151e+07 7.272089e+08 1.1703258e+09
0000f0 2d 02 4a 4f 8f 57 02 4d 45 06 00 4f 4d c7 44 4d
       3.3891402e+09 1.3667352e+08 2.1478945e+09 2.0633723e+08
000100 b2 e1 90 4c 24 d8 05 4d 5c c2 b0 4b f9 78 c6 4c
       7.59597e+07 1.4034592e+08 2.3168184e+07 1.04056776e+08
000110 44 aa 23 4e c5 f3 7e 4d 28 46 8d 4b fa 76 88 4b
       6.864612e+08 2.6733678e+08 1.8517072e+07 1.7886708e+07
000120 e8 68 12 4d 56 01 e6 4b 97 65 cc 4d b8 2e 37 4e
       1.535218e+08 3.0147244e+07 4.2865123e+08 7.683231e+08
000130 94 e7 c5 4e 39 ac a9 4c 12 8e 7f 4e cc 33 dd 4c
       1.6601441e+09 8.8957384e+07 1.0718752e+09 1.1597373e+08
000140 dc f6 cf 4c 6f 72 2b 4d 6d 7b aa 4b 83 df 12 4d
       1.0903318e+08 1.7977522e+08 2.2345434e+07 1.540076e+08
000150 11 75 68 4e 66 18 e8 4d 2e 1d ac 4b 1d 6c ac 4b
       9.7499654e+08 4.8673914e+08 2.2559324e+07 2.2599738e+07
000160 78 e0 56 4d 1e ee 23 4c 33 fd 28 4e 21 ff 86 4e
       2.2531469e+08 4.2973304e+07 7.087915e+08 1.1324335e+09
000170 96 13 07 4f 1f df e9 4c 2f e7 a1 4e 38 a1 27 4d
       2.2662077e+09 1.22616056e+08 1.3581413e+09 1.7577254e+08
000180 41 79 d6 4e 0d 7d 83 4f bd d7 79 50 f4 9e 18 4f
       1.7991354e+09 4.412021e+09 1.6766662e+10 2.560554e+09
000190 2d 35 82 50 d0 a0 38 51 f0 f7 b2 4f 30 33 12 50
       1.7476184e+10 4.956075e+10 6.0051866e+09 9.811313e+09
0001a0 49 ba 4f 4f 32 4a b0 4e 8b b0 80 50 11 eb 43 50
       3.485092e+09 1.4788262e+09 1.7272429e+10 1.314785e+10
0001b0 c6 42 54 51 a2 60 f2 4e a2 ee e4 50 6c 35 db 4f
       5.6978334e+10 2.0332096e+09 3.0726754e+10 7.3554227e+09
0001c0 73 3f c7 4c c4 33 21 4d dd 3b c0 4b a1 2c ff 4c
       1.04463256e+08 1.6903277e+08 2.5196474e+07 1.3378484e+08
0001d0 58 0d 72 4e fc e7 2d 4e 38 18 80 4b d0 2a 43 4b
       1.0152402e+09 7.294154e+08 1.6789616e+07 1.279048e+07
0001e0 9a 44 48 4d b6 cd d2 4b 3f 20 37 4e f4 f4 7d 4e
       2.099962e+08 2.7630444e+07 7.6808595e+08 1.0651722e+09
0001f0 c5 b5 18 4f e2 b9 d0 4c 24 5d b4 4e 33 f4 07 4d
       2.5620493e+09 1.0943259e+08 1.5130015e+09 1.42558e+08
000200 a0 1d ea 4c 44 cc 55 4d f4 76 92 4b 95 5d 34 4d
       1.2274406e+08 2.2418336e+08 1.9197416e+07 1.8912699e+08
000210 a4 fa 9a 4e 63 5c 18 4e df 79 b9 4b 23 ce ad 4b
       1.3000586e+09 6.390479e+08 2.4310718e+07 2.2780998e+07
000220 f5 c0 83 4d 53 00 38 4c 18 b9 4d 4e bd d4 a7 4e
       2.7630762e+08 4.8234828e+07 8.628649e+08 1.4078685e+09
000230 a2 78 58 4f 38 29 06 4d fd 34 0a 4f 3c 4c 5e 4d
       3.6317844e+09 1.4067802e+08 2.3187284e+09 2.3309613e+08
000240 7c 1d 91 4d bd a5 47 4e dd 88 be 4e 6d 34 23 4e
       3.0432858e+08 8.3738195e+08 1.5983203e+09 6.845305e+08
000250 02 76 27 4e 19 9c 59 4f 7f 1f 5c 4e f5 3c 6a 4e
       7.023822e+08 3.650886e+09 9.232629e+08 9.8246586e+08
000260 c5 74 03 4e 86 a3 ce 4d 33 c8 8c 4e 25 1f 15 4f
       5.51367e+08 4.333529e+08 1.1809652e+09 2.5018463e+09
000270 fc e1 0a 4f d6 4f a1 4d ac f4 91 4e 8f b1 ed 4e
       2.330066e+09 3.382955e+08 1.2243656e+09 1.9939183e+09
000280 4e 80 4f 4d 11 c1 18 4e ce 73 cf 4e 55 35 97 4d
       2.1758077e+08 6.406974e+08 1.7402365e+09 3.1710685e+08
000290 16 1f 06 4e 79 7d 88 4f ea d5 4a 4e 40 19 78 4e
       5.6254605e+08 4.5798487e+09 8.507542e+08 1.0406011e+09
0002a0 96 20 dd 4c 80 71 b0 4d af 9b bf 4e 80 22 c1 4e
       1.1593438e+08 3.7002854e+08 1.6073256e+09 1.6201318e+09
0002b0 c2 4c 4d 4f 0f f8 81 4d e7 1d d1 4e 1c 7c 9b 4e
       3.4443597e+09 2.725647e+08 1.7541989e+09 1.304301e+09
0002c0 f3 38 16 4e 97 55 5e 4e c9 a6 8c 4f 26 20 ab 4e
       6.3007866e+08 9.325378e+08 4.7194813e+09 1.4355054e+09
0002d0 5f e7 40 4f e4 f6 12 50 45 3e 0d 4f d9 99 2c 4f
       3.2363886e+09 9.862615e+09 2.3696684e+09 2.8957637e+09
0002e0 11 d5 a4 4e 42 f7 91 4e 0b 5d 5f 4f 6b 92 86 4f
       1.3827135e+09 1.2244503e+09 3.7474168e+09 4.515485e+09
0002f0 88 9c f3 4e 7b 57 06 4e 65 b4 54 4e 16 f5 47 4f
       2.043561e+09 5.6347e+08 8.9214803e+08 3.354728e+09
000300 da de bd 4d 11 54 4e 4e 4b e2 69 4f db 80 4a 4e
       3.9818733e+08 8.6540397e+08 3.9239217e+09 8.493606e+08
000310 b6 8d 28 4f 97 01 21 50 6f f0 03 4f 0d 81 0c 4f
       2.8278595e+09 1.0804944e+10 2.2135724e+09 2.3572677e+09
000320 d2 90 27 4e 0a 04 76 4e 3e 88 03 4f 3d c1 7a 4e
       7.028215e+08 1.03186496e+09 2.206744e+09 1.051742e+09
000330 8a 65 31 50 6a ab cf 4d 05 89 ad 4f 48 eb 4e 4f
       1.1904887e+10 4.355147e+08 5.822876e+09 3.471526e+09
000340 01 ef 98 4d c2 16 6f 4e 9c 1d 0b 4e e4 2e 4c 4e
       3.2072502e+08 1.0028115e+09 5.834934e+08 8.564063e+08
000350 1f 67 2e 4f 2c 46 90 4e d1 45 c5 4c dc 6b e4 4d
       2.9259937e+09 1.210259e+09 1.0342772e+08 4.7903424e+08
000360 d4 9e 4e 4e c1 c9 12 4d 74 8c 68 4e ea b8 49 4f
       8.6662886e+08 1.5391848e+08 9.753797e+08 3.384339e+09
000370 ed f0 05 50 8e f3 f9 4d ab b9 c1 4f 1e 4c ae 4e
       8.988636e+09 5.2418605e+08 6.500341e+09 1.462112e+09
000380 c2 16 35 4d e5 73 54 4d 50 ea c2 4e 36 80 60 4d
       1.8988547e+08 2.2277282e+08 1.6350679e+09 2.3540618e+08
000390 02 02 1b 4f 6f 09 8c 4f c3 da 34 4e 80 99 62 4e
       2.6006e+09 4.698857e+09 7.585589e+08 9.5042765e+08
0003a0 7c 9e de 4d 5c bb c6 4d a1 8f f4 4e 17 f1 99 4e
       4.6686605e+08 4.1677094e+08 2.0515268e+09 1.291357e+09
0003b0 5b 19 97 4f f1 dd f9 4c 24 e6 16 4f 44 5a 6b 4e
       5.0700426e+09 1.3100225e+08 2.531665e+09 9.8714035e+08
0003c0 e7 ef 93 4d 84 06 bf 4d 85 72 49 4f 1e 30 fb 4d
       3.1024662e+08 4.006094e+08 3.3797256e+09 5.2677933e+08
0003d0 4f e6 98 4f 84 ef 0f 50 1f 89 a1 4e cc 04 ef 4e
       5.1304607e+09 9.659355e+09 1.3550591e+09 2.0050345e+09
0003e0 c3 64 5f 4e 41 8c 41 4e 6f 60 62 4f c4 b4 fc 4e
       9.369807e+08 8.117986e+08 3.7979707e+09 2.1198525e+09
0003f0 7a b7 22 50 f7 c6 64 4d ee 79 a6 4f 37 d3 f8 4e
       1.0919733e+10 2.3989029e+08 5.5860173e+09 2.0872959e+09
