lightning_logs/version_1/checkpoints/epoch=99-step=1600.ckpt (torch, 37072 bytes, 45 tensors)

model.0.weight f4 [8]
000000 84 6a 70 3f dc a8 78 3f 49 2d 72 3f af db 5d 3f
       0.9391253 0.9713266 0.9460035 0.86663336
000010 df 13 c9 3e 0d 4e 97 3f 4b fb 96 3f bb 29 8a 3f
       0.39272973 1.1820694 1.1795439 1.0793985

model.0.bias f4 [8]
000000 90 ad 48 bd d8 9c 7c bd 19 b7 6a 3c eb 71 9f bd
       -0.048993647 -0.061673015 0.01432588 -0.077854
000010 22 10 b3 bd 23 52 7f bd f2 ac 57 bc a2 16 10 3d
       -0.087433115 -0.06233419 -0.013163792 0.035177834

model.0.running_mean f4 [8]
000000 55 42 b8 45 c2 de b9 45 5b 9c b6 45 24 71 66 47
       5896.2915 5947.8447 5843.5444 58993.14
000010 81 97 84 39 e2 c5 fc 44 ff 4a cf 40 5f 22 81 41
       0.0002528988 2022.1838 6.477905 16.141783

model.0.running_var f4 [8]
000000 a9 a4 89 47 96 5a 8a 47 62 36 86 47 e6 4b ff 4e
       70473.32 70837.17 68716.766 2.1415821e+09
000010 3c 5f ee 38 9b 23 5f 3d cb da cf 40 d4 4f 95 42
       0.00011366463 0.054477315 6.495458 74.655914

model.1.weight f4 [16, 8]
000000 df 29 3a 3e f5 26 7c 3e 46 bd dd 3e 83 3e 5b be
       0.18180035 0.24624236 0.43308467 -0.21410565
000010 99 09 e9 bd ae 60 d2 be 51 d2 5e be 7f da bd bc
       -0.11378784 -0.41089386 -0.21759917 -0.023175476
000020 9d 44 a4 be 4a b2 bc be 61 70 24 bd 96 72 09 3d
       -0.32083598 -0.36854774 -0.040146235 0.033556543
000030 86 b8 74 3d 84 9b 64 be 53 0d 92 be 6f fe 49 3e
       0.059746288 -0.2232495 -0.2852579 0.19725965
000040 12 ef 16 bd ff 3e 0d be 6d 3c ed 3d d9 e6 ca be
       -0.03684909 -0.13793562 0.11583791 -0.39629248
000050 18 c1 00 be 2d 80 11 be 88 17 a8 be 0b c6 62 be
       -0.1257366 -0.14209051 -0.32830453 -0.2214586
000060 75 e7 e3 3e 2b 61 8a 3e 31 d3 51 3e b7 ac 35 be
       0.44512525 0.27027258 0.2049072 -0.17741667
000070 a1 e2 24 3d 07 5e 15 be f3 dc 0a be 3a 15 92 3d
       0.040255193 -0.1458665 -0.13560848 0.07132955
000080 8b 2b 08 3e 20 2d 82 3c f6 5b 43 39 41 29 c9 bc
       0.1329786 0.015890658 0.00018630907 -0.024555804
000090 45 19 38 bb 64 4e a5 be 0b b6 b4 be e9 b7 5f bd
       -0.0028091234 -0.3228637 -0.35295138 -0.05461875
0000a0 15 57 ce bd 88 60 34 3e ee a2 d2 bd 53 08 3c bc
       -0.10075203 0.17614949 -0.102849826 -0.011476594
0000b0 19 32 d5 bc b5 5a 95 be ba 0a 0b 3f 4e 45 ba bc
       -0.026024865 -0.29170766 0.5431324 -0.022738125
0000c0 d8 e2 ac bd 39 c7 b7 bd 9e 39 6a be 96 e1 1d 3e
       -0.084417045 -0.089735456 -0.22873542 0.15418085
0000d0 28 80 00 3d 18 f6 f7 bc 21 af bd 3e 95 06 14 3e
       0.03137222 -0.030268714 0.37047675 0.14455636
0000e0 37 d7 94 3d 2f 9e 52 be b5 3b 53 be e5 76 b0 3d
       0.072676115 -0.20568155 -0.20628245 0.08616427
0000f0 8e de d1 3b e7 1e 94 3e 5f b5 c7 be 63 57 14 3e
       0.0064047044 0.28929827 -0.39005563 0.1448646
000100 3d 3e 5a be 04 26 cc bd bb 6f 93 be 0c ce 08 be
       -0.21312805 -0.099681884 -0.2879618 -0.1335985
000110 6e 17 36 3c d3 2e 98 be f7 a3 cf bc 19 8b 04 3e
       0.0111139845 -0.29723224 -0.02534674 0.12943687
000120 2a a5 0c be 79 1a 9f 3e 0b 82 29 be 7b e2 57 be
       -0.1373488 0.31074885 -0.16553514 -0.21082489
000130 0c a3 9f bc 8e 06 ce 3e 0a 40 00 3f 9c 8b 35 3e
       -0.019486926 0.40239376 0.50097716 0.17729038
000140 af bf 67 be 68 fd d6 3d bf 75 77 3c a7 12 d2 3d
       -0.22631715 0.10497552 0.015103756 0.10257464
000150 c6 27 12 bd 18 97 f9 3e 4b c0 82 3e 06 1c 0e 3e
       -0.035682462 0.48748088 0.25537333 0.13877878
000160 e6 0c 1c bd 44 de a8 3c 5f 9b 6c be 13 91 b5 bd
       -0.03809824 0.020613797 -0.23106144 -0.08865561
000170 7f 71 04 bd 3f aa 61 3e ae ea 4b 3e 1a 68 df be
       -0.0323348 0.220376 0.19913742 -0.4363411
000180 e8 04 d5 be cb 79 87 be ca 24 96 3d 1b 05 c0 3c
       -0.41605306 -0.26460108 0.07331236 0.023439934
000190 33 7d d8 3c fd 98 11 be f1 b1 3e be 14 e8 24 3e
       0.026426887 -0.14218517 -0.18622567 0.16104156
0001a0 3a b0 96 3e 96 e1 24 3c 44 8d 8b 3e 0c f5 e5 bd
       0.29431325 0.0100635495 0.27256215 -0.112283796
0001b0 7c c5 4f bc 30 06 c2 bd f1 da db bc 8b 1f f4 3d
       -0.012681361 -0.094738364 -0.026837798 0.11920079
0001c0 b8 da 23 be 94 06 ba 3e 90 8f 88 3e 70 1f b0 bd
       -0.16001403 0.36333144 0.2667203 -0.08599746
0001d0 e7 b1 63 bc 30 3c 76 be 53 58 1d be 2e 50 c0 3e
       -0.013897396 -0.24046397 -0.15365724 0.37561172
0001e0 c7 9f 28 3e 1c bd 78 3e 1a 1a 10 be 78 ef f8 be
       0.164672 0.2429089 -0.14072457 -0.486202
0001f0 6b 92 80 bc 55 ed 14 be e7 4f ca 3e 7b 74 6f bd
       -0.015694818 -0.1454366 0.39514086 -0.058460694

model.1.bias f4 [16]
000000 55 ad 9e 3d 4a b3 42 be 53 2a 7d bb 72 44 fe 3d
       0.07747904 -0.19013706 -0.0038629964 0.12415399
000010 49 c1 91 bd 91 67 a8 bc 52 a7 ba bd ff be 3a be
       -0.07116944 -0.020557197 -0.09113945 -0.18236922
000020 96 23 6f 3d e2 91 ab bd 9b d7 14 3e a5 0f b9 bc
       0.058383547 -0.08377434 0.14535372 -0.022590468
000030 40 07 2a be 17 0e 28 3d 6b 93 9d 3c f7 e1 82 3d
       -0.16604328 0.041029062 0.019235333 0.063907556

model.2.weight f4 [16]
000000 a8 42 26 3f 53 ff 7b 3f fc 28 23 3f 55 d1 38 3f
       0.6494546 0.9843647 0.6373441 0.72194415
000010 b7 3c 82 3f dd 3e 65 3f d4 9f 81 3f ee 44 41 3f
       1.0174779 0.89549047 1.0126901 0.75495803
000020 49 98 84 3f 65 fe 79 3f 13 cc 1a 3f 82 04 9f 3f
       1.0358974 0.976538 0.6046764 1.2423251
000030 8e 45 98 3f 73 af 51 3f d3 75 31 3f 20 56 4d 3f
       1.1896226 0.8190834 0.6932041 0.8020954

model.2.bias f4 [16]
000000 3d 76 cb bb a8 f3 62 bf 90 96 1b bf 0a 5e 84 3e
       -0.0062091635 -0.8865304 -0.60776615 0.25852996
000010 cd e7 f3 be 9a 28 a0 bb d0 ba a1 be 7f 9d 6a 3d
       -0.47637787 -0.0048876526 -0.3158784 0.057279106
000020 78 ad 86 be 0a ef aa be 47 19 8d 3e 41 56 0c bf
       -0.2630422 -0.33385497 0.27558348 -0.54819113
000030 9c 6c b6 be 52 46 b3 3e 20 f7 ba 3e 21 db 57 3e
       -0.35629737 0.35014588 0.36516666 0.21079685

model.2.running_mean f4 [16]
000000 52 2f eb 3d 87 77 05 be 02 6f 5d 3d 26 06 e8 3d
       0.11483635 -0.13033877 0.054060943 0.11329298
000010 79 91 5b bd 8d 08 84 bc 43 4f cd bd 90 c7 47 be
       -0.05360553 -0.016117359 -0.100248836 -0.19509721
000020 05 f1 d1 3d 2f d3 de bd e7 8b f3 3d 2e 58 4d bd
       0.10251049 -0.10880124 0.11891919 -0.050132923
000030 9d f3 e9 bd cb df 57 3d 6d 2a 3e 3d ce ae 9c 3d
       -0.11423419 0.05270366 0.04642718 0.07650529

model.2.running_var f4 [16]
000000 19 d2 59 3f b5 c3 1a 3f 8d fe b4 3e f2 a7 60 3f
       0.8508621 0.60454875 0.35350457 0.87756264
000010 7e 6d 20 3e ad 49 16 3f 0e 8d ee 3e 65 65 d8 3e
       0.15666768 0.5870617 0.4659199 0.42264858
000020 77 5d c9 3e 26 a3 54 3e 70 86 f2 3d 6e 3d be 3e
       0.3932912 0.20765361 0.11842048 0.37156242
000030 8f 00 cc 3e be 7c ac 3e 23 6c f3 3e d6 4d b2 3e
       0.39844176 0.3368892 0.4754344 0.3482501

model.4.weight f4 [32, 16]
000000 53 fe e2 3c 74 42 cd be 32 2f e0 bd 07 76 b9 bc
       0.027709162 -0.40089762 -0.10946502 -0.022639288
000010 60 9f c5 bc 38 6f 55 bd 27 3e 9a 3d 56 0c b9 3d
       -0.024123847 -0.05210802 0.07531386 0.09035556
000020 05 ba f0 be cb 6a fa 3c f2 e9 5c 3d ce 9a 5e 3d
       -0.47016922 0.030568501 0.053934045 0.054346852
000030 d0 1e aa be d0 2e 17 3e a4 08 e2 bd 91 ce 26 3d
       -0.33226633 0.14763951 -0.11036804 0.04072434
000040 95 10 43 3e e6 f5 44 bf 25 e6 59 bc 53 66 ce bc
       0.19049294 -0.7693771 -0.0132995 -0.025195276
000050 06 a5 fb 3b ab f3 9d 3d 32 3f 87 3c 02 a4 4e 3b
       0.0076795844 0.077124916 0.016509626 0.0031530862
000060 c7 d4 ef bc 78 03 a1 3c d3 f0 f3 bc 9e 84 2b 3c
       -0.029276265 0.019654974 -0.02977792 0.01046863
000070 29 2a ab be 2c 65 aa bd b7 bd 14 3c 6a 45 26 bc
       -0.33430603 -0.08320078 0.009078435 -0.010148386
000080 3a 5a b4 bc a7 de 19 be a4 1c 09 be 0b 20 03 be
       -0.02201568 -0.15026341 -0.13389832 -0.12805192
000090 30 d3 f6 3d 07 81 bf bd 5f 05 e4 3d 72 be 6f bd
       0.120519996 -0.09350782 0.11133837 -0.058531232
0000a0 e6 90 27 3e de 3a 56 3d f2 79 57 bd b7 d9 dd be
       0.16363868 0.052302234 -0.05260653 -0.43330166
0000b0 ae ed ee 3d c1 27 70 3e a6 d6 82 ba 2a a9 27 be
       0.116664276 0.23452665 -0.0009982183 -0.16373125
0000c0 31 ba c9 3c d1 e9 3d be fe 63 de bd b8 10 ac bd
       0.024624916 -0.18546225 -0.10858916 -0.08401626
0000d0 ab d3 b2 3d 85 6f f4 bd 98 24 13 3e 4b 66 87 bc
       0.08731779 -0.11935333 0.14369428 -0.01652827
0000e0 35 fa 27 3e ef 8d 5b 3d be 5e 4a bd 4b 77 bb be
       0.1640404 0.053602155 -0.04940676 -0.3661445
0000f0 fe 22 cc 3d 6d 98 33 3e e8 2a 13 bc 2f 88 ed bd
       0.09967612 0.17538615 -0.008982398 -0.115982406
000100 43 cb ba 3c 80 77 2d be 26 8c ab bd 0b 87 71 3e
       0.022802 -0.16940117 -0.083763406 0.23586671
000110 64 b8 d2 bd ea 2b ce bd 89 6b c7 3d a0 d9 2e 3d
       -0.10289076 -0.1006697 0.097373076 0.042688012
000120 3a 5b b3 be e0 c8 12 3e 2d 94 8e 3c 47 f5 85 3d
       -0.35030538 0.1433444 0.01740464 0.065409236
000130 de 68 ab be 93 b3 3a bb 11 35 f4 bd 1e 9c 9d bc
       -0.33478445 -0.0028488382 -0.11924184 -0.019239482
000140 3e 13 6e 3d 01 d1 0e be 22 18 7e bd d3 eb 19 be
       0.05812382 -0.13946916 -0.062034734 -0.15031366
000150 03 ca 25 3e ea 93 6d 3d 56 02 f5 bc 60 ab 00 bc
       0.16190343 0.05800239 -0.02990834 -0.007853359
000160 3a e4 8d 3d 50 b6 99 bb 8c 04 4d 3b 9b f8 18 bf
       0.069282964 -0.004690923 0.0031283228 -0.5975434
000170 13 8b 13 3e 5c ea 66 3d 36 2a 96 3d 45 f7 7f 3b
       0.14408521 0.056375846 0.0733227 0.0039057296
000180 ad e3 12 3c c1 cc 94 bd a7 02 d1 3d 09 af fd bc
       0.008965415 -0.07265616 0.10205584 -0.030967252
000190 e2 c7 37 3d bd f6 e5 3d a3 8d 30 bd e0 c8 8e 3d
       0.044868357 0.11228702 -0.043103825 0.069719076
0001a0 9e 5f 14 3e 18 9a 6f bd 94 b1 7b ba 11 63 1a bf
       0.144896 -0.058496565 -0.00096013513 -0.60307413
0001b0 4c d2 88 3d 67 ce f3 3c 16 25 5e 3d 5a 06 d3 3c
       0.06680736 0.029761506 0.054234587 0.025759865
0001c0 b8 2e 5e bd e3 a4 86 bd 4e 7a 2a be 2b 0d c3 3c
       -0.054243773 -0.065744184 -0.16648218 0.02380999
0001d0 96 cf 16 bf 9a 11 f7 3c a8 3c a6 bb ea 23 ec 3c
       -0.589105 0.03015976 -0.0050731488 0.028825719
0001e0 82 f7 c2 3d e6 2a 9c 3d 8a ec a9 3a ca f3 c8 3d
       0.095198646 0.0762537 0.0012964171 0.09812124
0001f0 00 0e 41 bc 83 be e5 3c 60 0f 59 3c b0 d9 8f bd
       -0.011783123 0.028044945 0.013248295 -0.070239425
000200 5a 14 9e 3d b9 b5 89 bc 80 78 18 be a8 57 64 3e
       0.077187255 -0.016810285 -0.14889717 0.22299063
000210 5f 86 86 3b ff ca b2 bd 9d 63 b6 be 69 0c 7c bd
       0.0041053738 -0.08730125 -0.35622874 -0.061535273
000220 8b 1f d0 bb b0 22 4b be 13 50 11 bd a6 4c 2f 3e
       -0.0063514165 -0.19837451 -0.035476755 0.17119083
000230 ea fc bd 3e 3a 29 09 be b4 e4 95 bd 49 bf c6 bd
       0.3710702 -0.13394633 -0.07319012 -0.097044535
000240 32 fb 51 bd b9 76 0b bf 4e f0 4e bd 08 0f 0c 3d
       -0.05126495 -0.5447803 -0.05052214 0.034194022
000250 4e 6a eb 3c 9b f8 f9 3d b0 91 4b 3d 4a 03 f8 3c
       0.028737213 0.12205621 0.049699485 0.030275006
000260 93 40 46 be 7c 40 19 3d d2 b2 89 bd 25 b3 40 3d
       -0.1936057 0.037415013 -0.067235604 0.047045846
000270 1a d6 0b bf 4d d9 dc 3d 10 1d 8f bd c5 3a fd bb
       -0.5462357 0.10783634 -0.06987965 -0.007727953
000280 e7 af e1 bd df c3 d5 3d e0 15 ff 3d af 68 22 be
       -0.11019879 0.1043775 0.12455344 -0.15860246
000290 fb 4a 05 3e 99 5a 67 be a2 df a6 be 7f 10 de bd
       0.13016884 -0.22593154 -0.32592493 -0.1084299
0002a0 55 29 a0 bd 93 44 38 be 90 20 99 3d 21 08 bb 3c
       -0.078203835 -0.17994909 0.07476914 0.022831025
0002b0 95 33 23 3e 5a b2 f7 3d bf aa 2e 3e 52 89 2d 3d
       0.15937646 0.12094565 0.17057322 0.042367287
0002c0 da c5 ba 3a 6f 64 5e 3e 79 16 b2 3d 73 9e e3 bc
       0.0014249638 0.21718 0.086956926 -0.027785515
0002d0 ac e4 33 3d 86 b5 85 bd be 05 1b bf 8b f0 cd 3d
       0.04391925 -0.065287635 -0.60555637 0.100556456
0002e0 28 6b 61 3d 99 bf 7b be 62 a4 5c 3d 7e 5c b9 3d
       0.055033833 -0.24584807 0.053867705 0.090508446
0002f0 b1 1e a6 bc e9 db e0 bd 41 05 02 3e f0 07 49 3e
       -0.020278307 -0.109794445 0.12697317 0.19631934
000300 52 d7 4f 3b a6 6d 19 bf 92 21 ba bc 33 e0 f6 3c
       0.0031714034 -0.59932935 -0.022721086 0.030136203
000310 f6 6e 02 bc b4 3b 56 3d 83 a1 5f 3c 88 06 c7 3c
       -0.007961025 0.05230303 0.013649347 0.024295107
000320 69 e2 18 3c 5c 8f 76 3a 04 bf f1 bc e9 1c 28 3b
       0.009331324 0.00094055175 -0.029510029 0.0025651997
000330 63 4f 48 be 55 fa d5 3c 18 f2 8a bd 3c 3b b7 ba
       -0.19561534 0.026120344 -0.06784457 -0.0013979445
000340 e8 83 ee 3d bd bb 3b bf c0 3d 02 bd b0 6f 88 bc
       0.11646253 -0.7333334 -0.03179717 -0.01665482
000350 ad f0 da bc c4 3e 65 3d 40 31 e2 3c 11 66 52 3d
       -0.026726091 0.05596806 0.027611375 0.05136687
000360 89 d0 be 3b d9 5c 1e 3c 3f be 0e bd 15 ed 06 3c
       0.005823199 0.009665691 -0.0348494 0.008235236
000370 a5 f8 7c be ce 47 d2 3b 15 38 8f bd 33 e7 4d 3b
       -0.24704225 0.006417251 -0.06993119 0.0031418323
000380 9a a5 c8 be 7e f3 96 bd 51 64 e5 3d 16 9e 5b 3e
       -0.39188844 -0.07370661 0.112007745 0.21447024
000390 88 f5 76 3e 4c 91 18 bd 23 ed 10 bd c3 ac 5c bd
       0.241171 -0.03724794 -0.0353824 -0.053875696
0003a0 c1 4a 6a bc 30 92 15 3e f9 b3 d7 3d 18 55 1c 3d
       -0.014300049 0.14606547 0.10532374 0.03816709
0003b0 43 e1 24 3e 68 b2 e5 be 0b 19 7f 3c 3d 5a 60 bd
       0.16101556 -0.44862676 0.015569936 -0.054773558
0003c0 14 c8 66 3d dc df fe bd d5 cf 2a be 03 fb c7 3d
       0.056343153 -0.124450415 -0.16680844 0.097646736
0003d0 8b a9 7a 3a ec 9b aa 3d f5 10 7a 3c a0 7a fd 3d
       0.0009562007 0.08330521 0.015262832 0.123769045
0003e0 04 80 f8 3c c1 8e 21 3e e6 33 0a be d3 5a 13 bf
       0.03033448 0.15777113 -0.1349636 -0.5756046
0003f0 bf 13 14 3e 12 f1 4f 3d ab e9 b4 bd 9d b3 ae bd
       0.14460658 0.050767012 -0.08833631 -0.08530352

model.4.bias f4 [32]
000000 e5 91 14 3e 29 88 99 bb 13 cb c0 bc cc 02 e4 3c
       0.1450878 -0.004685421 -0.023534333 0.027833365
000010 cc 42 9f bd 60 0d 45 3e 07 ac da 3d 58 e6 4c 3e
       -0.07776412 0.19243383 0.10677343 0.20009744
000020 05 25 3a 3e b9 95 40 3e 30 e8 f2 bd f1 33 10 be
       0.18178184 0.18807115 -0.118606925 -0.14082314
000030 38 db 0a bb 93 87 02 be b3 b5 a8 3c 7f 5a cd bd
       -0.0021187793 -0.1274703 0.020594453 -0.100270264
000040 83 32 85 3d b3 04 ea 3d e4 e9 ed 3d ba f4 a3 bd
       0.06503775 0.114266776 0.11616877 -0.08005662
000050 a6 7b 17 be db 84 05 3e 8d ab 9e bd f9 92 57 bc
       -0.14793262 0.13038962 -0.077475645 -0.0131576
000060 92 e2 a9 bd c0 68 84 bd 49 f2 d0 bd c6 49 bb 3d
       -0.08295168 -0.06465292 -0.10202462 0.091449305
000070 a6 8f d5 bc 30 05 86 bc bd e3 f8 bd dd 43 1c be
       -0.026069473 -0.016359895 -0.12152813 -0.15260263

model.5.weight f4 [32]
000000 d1 bc 40 40 75 e7 42 40 2c c1 3e 40 63 26 40 40
       3.0115244 3.045377 2.9805403 3.002343
000010 96 d5 40 40 40 21 3c 40 9b c4 3e 40 97 65 43 40
       3.0130363 2.9395294 2.9807498 3.0530756
000020 ae dc 3f 40 a5 54 41 40 5a ea 42 40 bc c8 43 40
       2.9978442 3.0207913 3.0455537 3.0591269
000030 64 b9 3f 40 1a 14 41 40 49 04 44 40 ca 48 42 40
       2.9956903 3.016852 3.0627615 3.0356927
000040 de 38 41 40 78 8a 41 40 f1 c7 42 40 5c e5 41 40
       3.019096 3.0240765 3.0434535 3.029624
000050 e2 bf 45 40 06 77 42 40 9c 68 44 40 a5 e0 42 40
       3.0898366 3.0385146 3.0688848 3.0449612
000060 5f 64 45 40 2b fb 44 40 f7 b9 42 40 9f 29 3b 40
       3.0842512 3.07783 3.0426004 2.9244153
000070 09 b0 40 40 b2 2b 3d 40 d5 b5 41 40 07 c1 44 40
       3.0107443 2.955792 3.0267231 3.0742815

model.5.bias f4 [32]
000000 ff 27 05 40 ac c9 07 40 05 8b 05 40 8d 7e 06 40
       2.0805662 2.121684 2.08661 2.101474
000010 cd 6b 05 40 68 6d 03 40 78 55 08 40 62 ab 06 40
       2.0847046 2.0535526 2.1302166 2.1042104
000020 c0 ce 04 40 94 ee 06 40 de 3d 06 40 1d 95 08 40
       2.075119 2.1083117 2.097526 2.1341012
000030 43 ce 04 40 ed f7 05 40 16 f1 04 40 52 d4 07 40
       2.0750892 2.0932572 2.0772147 2.122334
000040 57 7e 07 40 0f 36 09 40 96 7f 08 40 22 7d 06 40
       2.1170862 2.1439245 2.1327872 2.1013875
000050 c3 22 08 40 03 dd 07 40 98 7b 07 40 87 91 05 40
       2.1271217 2.1228645 2.1169186 2.0870073
000060 f9 df 06 40 e8 13 08 40 6a ed 07 40 30 9e 00 40
       2.1074202 2.126215 2.1238656 2.009655
000070 6d 1d 06 40 c3 65 04 40 3c 09 09 40 74 48 07 40
       2.095546 2.068711 2.1411886 2.1137972

model.5.running_mean f4 [32]
000000 38 6a ec bc e9 de 2a be cb 24 cd bd 30 fc 31 bc
       -0.028859243 -0.16686596 -0.10016783 -0.010863349
000010 d1 5d 67 be 17 85 0d 3e 70 c2 b2 3d 8e 3a fe 3d
       -0.22594382 0.13820301 0.08728492 0.12413512
000020 e3 a5 a7 3d b5 1b 5d bb 66 c8 4b be ae ad 43 be
       0.08185937 -0.0033738439 -0.19900665 -0.19109222
000030 35 9c d8 bd 58 dd 80 be 5c 9b cc bd 74 ab 27 be
       -0.10576669 -0.25168872 -0.0999057 -0.16373998
000040 3a fa 73 bd 5a d1 d5 3c 46 b5 92 3d 77 04 6d be
       -0.059564807 0.026100803 0.071634814 -0.23146234
000050 3c 1a 60 be 2c ba 1b be 81 23 21 be 42 76 0e be
       -0.21885008 -0.15207738 -0.157362 -0.139123
000060 29 88 7c bd 8d 33 e3 bd a4 f3 1d be 07 4d 63 bd
       -0.06165329 -0.11093817 -0.15424973 -0.05549338
000070 d9 53 52 be ee 42 a4 bd 47 d1 19 be 16 7b 05 be
       -0.20539798 -0.08020578 -0.15021239 -0.13035235

model.5.running_var f4 [32]
000000 e6 c3 66 3e c1 26 0d 3e a6 c7 c8 3d 67 fd 95 3d
       0.22535667 0.13784315 0.09803705 0.07323723
000010 d5 f3 1e 3e 90 b2 ff 3d 9d 46 f2 3d 60 fa 92 3d
       0.15522702 0.1248523 0.11829875 0.071766615
000020 54 35 ee 3d 48 3e 8a 3e 78 d3 bf 3d 80 5e 08 3e
       0.11631265 0.27000642 0.09366506 0.13317299
000030 fa d9 74 3d 45 3e b6 3d b7 90 d2 3d 58 4a eb 3d
       0.05977819 0.08898596 0.102815084 0.11488789
000040 52 45 11 3e c2 e8 04 3d 44 48 5f 3d 70 72 1d 3e
       0.141866 0.032448538 0.054512277 0.15375686
000050 fd 8b f8 3c 8c 4e 03 3e c6 83 9c 3d 84 59 f1 3d
       0.03034019 0.12822932 0.07642321 0.11784652
000060 af a8 ce 3c 64 a4 29 3d 3d c4 8d 3c 46 be 6c 3e
       0.025226919 0.04141654 0.017305488 0.23119459
000070 cb 09 6c 3e fd ab c3 3d d7 9a e8 3d b1 5d b6 3c
       0.2305061 0.095542885 0.11357658 0.022261472

model.7.weight f4 [16, 32]
000000 65 72 02 40 5b a7 f1 3f ea 06 ef 3f c7 70 09 40
       2.038232 1.8879198 1.8673985 2.1475084
000010 9c d9 f6 3f 66 51 09 40 c2 d4 e7 3f 8b a8 03 40
       1.9285159 2.1455932 1.8111804 2.057162
000020 fb 07 0b 40 ce 06 00 40 32 3b 05 40 41 55 05 40
       2.172362 2.0004153 2.081738 2.0833285
000030 2f bb f9 3f 25 8f 03 40 5d 89 eb 3f 59 1d ec 3f
       1.9510249 2.0556118 1.8401295 1.8446456
000040 95 54 08 40 3f d0 02 40 fe ea 04 40 04 3e e4 3f
       2.1301625 2.0439603 2.0768428 1.7831426
000050 3f d2 08 40 df 4d e9 3f 87 37 f3 3f f9 26 09 40
       2.1378324 1.8226889 1.9001321 2.1430037
000060 38 6f 09 40 97 82 e9 3f 7c 2c 02 40 54 ed f1 3f
       2.1474133 1.8242978 2.033965 1.8900552
000070 b7 3e 04 40 48 1a 04 40 ae b1 07 40 ef ef e8 3f
       2.0663278 2.064104 2.1202197 1.8198222
000080 6b e5 e4 3f 39 d5 d8 3f cd b9 d7 3f 97 e1 fb 3f
       1.7882513 1.694007 1.6853577 1.967822
000090 dd 30 f2 3f eb 19 dd 3f f6 2d e2 3f 38 fb fa 3f
       1.8921162 1.7273535 1.7670276 1.9607916
0000a0 5a e9 dd 3f cf 02 fd 3f b2 f7 fb 3f 1f a0 df 3f
       1.7336838 1.9766482 1.9684966 1.747074
0000b0 16 26 e3 3f 56 e9 ec 3f b9 39 e6 3f 34 ac ec 3f
       1.7745998 1.8508708 1.7986366 1.8490052
0000c0 49 45 d4 3f bf 90 fb 3f a9 ba ea 3f 2a 10 f4 3f
       1.6583644 1.9653548 1.8338214 1.9067433
0000d0 82 ad ed 3f b5 e3 ef 3f 20 32 fc 3f a5 13 f2 3f
       1.8568575 1.8741366 1.9702797 1.8912245
0000e0 f9 86 f3 3f 83 1b da 3f 2f 63 fe 3f 6f e4 d8 3f
       1.9025565 1.7039646 1.9874018 1.6944712
0000f0 bd de f8 3f 0e f3 dd 3f 5d 61 f7 3f f5 e6 dc 3f
       1.9442974 1.73398 1.9326588 1.7257982
000100 0a 00 05 c0 12 72 eb bf 04 85 06 c0 cb 7e fe bf
       -2.0781274 -1.8394186 -2.1018686 -1.9882444
000110 b0 bd 07 c0 8e d8 f2 bf b5 9c f0 bf bd d7 04 c0
       -2.1209526 -1.8972337 -1.8797823 -2.0756676
000120 83 ff 01 c0 00 8a f9 bf 40 3f f2 bf c3 c5 fa bf
       -2.0312202 -1.9495239 -1.8925552 -1.9591602
000130 93 a3 eb bf f8 57 06 c0 4a 1d fb bf fa cf 03 c0
       -1.8409294 -2.0991192 -1.9618313 -2.059569
000140 aa c0 01 c0 c8 be 01 c0 9d 21 0a c0 f1 50 f5 bf
       -2.0273843 -2.0272694 -2.1583016 -1.9165326
000150 d0 5e eb bf 85 42 f5 bf b3 9a ef bf d0 af 0a c0
       -1.838831 -1.9160925 -1.8719085 -2.1669807
000160 b2 86 f5 bf d5 81 01 c0 e7 21 fc bf 4e 80 06 c0
       -1.9181731 -2.0235493 -1.9697846 -2.101581
000170 c3 50 e7 bf 70 57 05 c0 3a 5e 05 c0 67 9c 06 c0
       -1.8071522 -2.0834618 -2.0838761 -2.103296
000180 95 e4 ef bf 02 28 f0 bf 91 72 f4 bf 00 22 f7 bf
       -1.8741633 -1.876221 -1.9097463 -1.9307251
000190 27 87 fd bf 90 4a e7 bf b4 37 e6 bf ae a6 e6 bf
       -1.980687 -1.806963 -1.7985749 -1.8019617
0001a0 8e 79 f8 bf 3e 36 da bf 8d eb ff bf 1f 89 fe bf
       -1.9412096 -1.7047803 -1.9993759 -1.9885596
0001b0 7f 99 f1 bf 7a e0 ec bf 33 bb fe bf dc 42 dc bf
       -1.8874968 -1.8506005 -1.9900879 -1.7207904
0001c0 da 48 f0 bf 2e 3f ef bf cb 5d f9 bf 8c e4 f3 bf
       -1.8772233 -1.8691156 -1.9481748 -1.9054122
0001d0 a6 b5 fa bf 02 ee e3 bf 08 59 02 c0 e0 1c e3 bf
       -1.9586685 -1.7807009 -2.036684 -1.7743187
0001e0 46 77 02 c0 ba ec ec bf 7c 86 dd bf b2 db dd bf
       -2.0385299 -1.8509743 -1.7306666 -1.7332671
0001f0 4c f3 f2 bf fd c8 e6 bf 06 90 f5 bf 89 89 01 c0
       -1.8980498 -1.8030087 -1.9184577 -2.0240195
000200 21 a6 e5 bf 7a 05 00 c0 c9 84 f0 bf 93 00 e6 bf
       -1.7941324 -2.0003343 -1.8790523 -1.7968925
000210 6d 25 de bf 2e 2d e4 bf f5 a3 04 c0 44 76 ff bf
       -1.7355171 -1.7826288 -2.0725071 -1.9957967
000220 6f f4 00 c0 50 06 e5 bf 18 6d de bf c2 f5 f7 bf
       -2.014919 -1.7892551 -1.7377043 -1.9371874
000230 81 bb fc bf 2c 6f e1 bf 4a 15 ee bf 56 be f1 bf
       -1.9744722 -1.7612052 -1.8600247 -1.8886211
000240 06 06 fa bf c4 11 fa bf a2 c7 00 c0 59 c8 de bf
       -1.9533088 -1.9536672 -2.0121846 -1.7404891
000250 52 d8 03 c0 a8 8b e3 bf 19 ad e5 bf 4d 45 e9 bf
       -2.0600781 -1.7776995 -1.794345 -1.8224274
000260 0f 31 e9 bf 9f ae fb bf 10 20 e8 bf e4 17 03 c0
       -1.8218096 -1.9662665 -1.8134785 -2.0483332
000270 cc e6 df bf 10 dd ee bf c3 3f e8 bf 24 ae 00 c0
       -1.7492309 -1.8661213 -1.8144459 -2.0106287
000280 42 da f8 3f 89 2b f6 3f 35 59 06 40 f1 58 02 40
       1.9441607 1.9232036 2.0991948 2.0366786
000290 4b 85 ed 3f 54 ba ea 3f b2 92 e7 3f d1 d1 06 40
       1.8556303 1.8338113 1.8091643 2.1065562
0002a0 08 37 07 40 4a a1 05 40 0d e2 06 40 13 e0 e9 3f
       2.1127338 2.0879693 2.107547 1.8271507
0002b0 6e 05 f5 3f f5 b8 05 40 1d 94 08 40 0a 3d 02 40
       1.9142282 2.089414 2.13404 2.0349755
0002c0 41 0e e4 3f 55 b2 f0 3f 4c 79 03 40 8a 5f 03 40
       1.781685 1.8804423 2.0542784 2.0527062
0002d0 50 a9 05 40 fd c1 06 40 8d 7a fa 3f f6 a6 f9 3f
       2.088459 2.10559 1.956865 1.9504077
0002e0 40 dd f0 3f c7 0b fd 3f 25 4c f9 3f 70 a0 f8 3f
       1.881752 1.9769219 1.9476362 1.9423962
0002f0 ee b0 fa 3f 8c 8c 06 40 3a db ed 3f 87 5b fe 3f
       1.9585245 2.1023283 1.8582528 1.9871682
000300 35 31 ea 3f 89 91 ed 3f 27 d3 08 40 2c c9 05 40
       1.8296267 1.8560039 2.1378877 2.0904036
000310 23 e8 01 40 a8 1f 04 40 f1 2a 05 40 6e 2f ed 3f
       2.0297935 2.0644321 2.080746 1.8530099
000320 3a a5 09 40 51 b6 f4 3f 10 a0 ea 3f 52 5b f4 3f
       2.1507096 1.9118139 1.8330097 1.9090369
000330 de c6 e7 3f 55 8d f6 3f 25 9c 00 40 c8 e2 e6 3f
       1.8107564 1.9261881 2.0095303 1.8037958
000340 de 14 e7 3f 7d 90 02 40 7a 66 fc 3f 1c 24 ec 3f
       1.8053243 2.0400689 1.9718773 1.844852
000350 65 37 f6 3f f7 3d 00 40 6b 8d ea 3f 40 d6 ff 3f
       1.9235655 2.003782 1.8324407 1.9987259
000360 c4 8a 05 40 bc 2e 05 40 50 50 e8 3f 75 65 f6 3f
       2.0865946 2.0809774 1.814951 1.9249712
000370 cb e1 02 40 f1 9f 07 40 9b 03 f4 3f 5f 8b fe 3f
       2.0450313 2.119137 1.90636 1.9886283
000380 37 fd 04 40 b4 03 fc 3f af 31 01 40 5b a2 fe 3f
       2.077955 1.968863 2.0186574 1.9893297
000390 b1 9b 07 40 50 cd f9 3f d8 ae f0 3f 22 c5 fe 3f
       2.1188776 1.9515781 1.8803358 1.990391
0003a0 54 3c fd 3f 74 12 f7 3f 4b 52 04 40 01 07 02 40
       1.9784036 1.9302506 2.0675228 2.0316775
0003b0 bf 9b 05 40 07 c2 f9 3f 4a 55 fa 3f c9 6c fc 3f
       2.087631 1.9512337 1.9557278 1.9720699
0003c0 45 4b f2 3f 18 b6 e8 3f 3e db 04 40 1e b4 ff 3f
       1.892922 1.8180571 2.0758815 1.9976842
0003d0 b2 22 e6 3f 85 da 03 40 a3 25 05 40 74 a2 fa 3f
       1.7979338 2.0602124 2.0804222 1.9580827
0003e0 12 d0 f5 3f 40 9f f1 3f 90 67 f9 3f f9 3a f4 3f
       1.9204123 1.8876724 1.948473 1.9080497
0003f0 f2 fa ea 3f a7 b6 ec 3f 09 ff 03 40 43 19 04 40
       1.8357832 1.8493241 2.062441 2.0640419

model.7.bias f4 [16]
000000 70 64 c7 3f ec df ca 3f ba ee d3 bf 92 26 c7 bf
       1.5577526 1.5849586 -1.6557229 -1.5558646
000010 9f 2a db bf ab 92 e5 3f fe 43 c1 3f e6 30 d1 3f
       -1.7122382 1.7935385 1.5098875 1.6343048
000020 b7 25 d2 3f dc 77 d4 3f 64 ec d7 3f ad d3 d6 bf
       1.641776 1.6599078 1.6869016 -1.6783348
000030 42 08 c6 bf c6 c6 e4 3f ac 44 b7 bf 06 65 e2 3f
       -1.547127 1.7873161 -1.4317832 1.768708

model.8.weight f4 [1, 16]
000000 ac 52 ff 3f 8a 0b 0f 40 5f 41 ff bf 18 88 0a c0
       1.9947104 2.2350793 -1.9941825 -2.1645565
000010 e3 38 08 c0 c5 a1 fd 3f 9b 4b 02 40 70 fd 00 40
       -2.128472 1.9814993 2.0358646 2.0154686
000020 5f 6c 0d 40 91 2c 03 40 93 29 07 40 39 0c 04 c0
       2.2097394 2.049595 2.1119125 -2.063246
000030 6a 4b 02 c0 a1 08 ff 3f 12 c2 06 c0 d8 3c ff 3f
       -2.035853 1.9924508 -2.105595 1.9940443

exp_avg f4 [8]
000000 27 3b 81 46 95 41 83 46 26 13 4e 46 b8 82 f6 45
       16541.576 16800.791 13188.787 7888.34
000010 a7 36 89 c4 98 8c ca 44 ea d3 d3 c6 4b b6 96 c6
       -1097.7079 1620.3936 -27113.957 -19291.146

exp_avg_sq f4 [8]
000000 7b d0 98 4f cb ba 4c 4f 1f e9 42 4f d6 2a 7b 4e
       5.1275996e+09 3.4347937e+09 3.2700577e+09 1.0534721e+09
000010 ea c9 1e 4d d4 3d e3 4e 2a 4d 1d 50 7a 6e 08 50
       1.6650205e+08 1.90624e+09 1.055632e+10 9.155766e+09

exp_avg f4 [8]
000000 fe 82 4d ba 86 8f 2b bb 63 94 2e 3b a6 e1 25 3a
       -0.0007839649 -0.0026178076 0.0026638738 0.0006327875
000010 cf 22 3b 3a c9 20 50 bb cc 3c 45 bb 17 da 19 3b
       0.0007138671 -0.0031757823 -0.0030096052 0.002347594

exp_avg_sq f4 [8]
000000 09 c5 21 39 ea e3 df 38 e7 37 32 38 1c c2 9f 37
       0.00015427558 0.00010675921 4.249057e-05 1.9044666e-05
000010 b2 59 4e 36 30 a6 4f 39 a7 bb 87 39 32 97 00 39
       3.0748602e-06 0.00019802968 0.00025889018 0.00012263356

exp_avg f4 [16, 8]
000000 96 b6 2a 45 9d a0 28 45 5a 63 64 44 72 a0 b6 45
       2731.4116 2698.0383 913.55237 5844.0557
000010 4b 32 85 44 79 49 13 45 bb 65 59 c5 c8 c6 40 44
       1065.5717 2356.592 -3478.3582 771.10596
000020 18 54 9f c5 72 c5 d9 c6 a5 2f d2 c6 41 3f 12 45
       -5098.5117 -27874.723 -26903.822 2339.9534
000030 93 58 df c5 92 df e0 c5 98 ec d0 46 9a 01 09 c7
       -7147.072 -7195.9463 26742.297 -35073.6
000040 bd 88 ad 44 4a d2 19 45 36 03 bb 44 e6 0f 50 c5
       1388.2731 2461.143 1496.1003 -3328.9937
000050 62 28 03 c4 52 6b e3 43 b0 a3 43 c3 74 0b a9 45
       -524.631 454.83844 -195.6394 5409.4316
000060 d4 1d 88 44 29 1c ca 44 ad 1c be 44 35 85 85 45
       1088.9321 1616.88 1520.8961 4272.651
000070 c8 8f e7 44 a4 19 79 44 e7 a9 82 c4 8d f8 fe c5
       1852.4932 996.40063 -1045.3094 -8159.069
000080 72 82 0b 47 75 3c ba 46 51 58 19 47 7a 81 69 46
       35714.445 23838.229 39256.316 14944.369
000090 3a cd 2c 45 cf db 3c c6 f3 45 53 46 ee fc 90 47
       2764.8267 -12086.952 13521.487 74233.86
0000a0 d3 37 fe 45 17 b0 ff 45 10 77 13 46 c3 a7 5e c4
       8134.978 8182.011 9437.766 -890.6213
0000b0 89 bc b2 45 0a b5 f8 c2 48 c6 2f 44 0e 16 c5 44
       5719.567 -124.35359 703.09814 1576.6892
0000c0 0a 01 e4 44 d2 67 de c5 3a 1f 1e c6 18 66 2c c5
       1824.0325 -7116.9775 -10119.807 -2758.3809
0000d0 35 2e e9 c5 82 10 ce 44 3e a2 09 c6 f9 04 da 45
       -7461.776 1648.5159 -8808.561 6976.6216
0000e0 78 82 3f 46 36 f4 48 46 93 bb 09 46 7b 28 d7 c3
       12256.617 12861.053 8814.894 -430.31625
0000f0 e8 d7 bb 43 64 2f 1f c5 5d 97 26 c6 f8 59 5d c3
       375.68677 -2546.962 -10661.841 -221.35144
000100 7b 3a 35 c4 5a c1 14 c6 bd 69 70 45 b2 f3 cb c5
       -724.91376 -9520.338 3846.6086 -6526.462
000110 cf 4d a0 c5 bd ec 30 45 ae bb 2d c5 4f f5 73 c4
       -5129.726 2830.7961 -2779.73 -975.83295
000120 d7 a4 78 c5 4f 86 92 c5 4d 4f 79 c5 16 50 c9 c5
       -3978.3025 -4688.7886 -3988.9563 -6442.0107
000130 ac ba eb 44 87 11 fb c4 1c 44 57 45 24 e4 32 c6
       1885.8335 -2008.5477 3444.2568 -11449.035
000140 ab 0a 0a 46 79 e3 5c 46 41 5e 16 46 82 eb a1 c4
       8834.667 14136.868 9623.563 -1295.3596
000150 63 97 a4 c5 62 9d ae 44 45 ad 8f 44 ab 8c dc c5
       -5266.9233 1396.9182 1149.4147 -7057.5835
000160 1c cc 57 c7 ae 82 2d c7 c1 79 53 c7 62 70 d6 c6
       -55244.11 -44418.68 -54137.754 -27448.191
000170 fc 5a f8 c5 db 9d 35 c6 f8 be f1 c6 06 d0 90 46
       -7947.373 -11623.464 -30943.484 18536.012
000180 ed 1e b4 c6 6c bc 3f c6 8f c5 9b c6 18 d5 d6 46
       -23055.463 -12271.105 -19938.78 27498.547
000190 4c 90 54 c5 ae ab c2 c5 a6 3b 9f 47 13 84 3c 46
       -3401.0186 -6229.46 81527.3 12065.019
0001a0 29 50 8f c5 3b 81 94 c5 c0 55 e2 c5 3c 0b 7f c4
       -4586.02 -4752.154 -7242.7188 -1020.17554
0001b0 c0 21 06 45 c9 8c 2f c6 8e 24 6c c4 09 d5 86 46
       2146.1094 -11235.196 -944.57117 17258.518
0001c0 88 cd d8 45 c7 cd d0 45 09 70 c6 45 d2 0b 0c c4
       6937.6914 6681.722 6350.0044 -560.1847
0001d0 1a c0 91 c4 e6 63 47 c5 02 44 48 46 7a c0 a5 c5
       -1166.0032 -3190.2437 12817.002 -5304.0596
0001e0 8e 23 fe c2 08 e2 1d c5 4e 55 6c c4 92 a9 a4 c5
       -127.06944 -2526.127 -945.3329 -5269.1963
0001f0 f4 96 7e c3 b7 71 c9 45 58 1f 24 c5 79 51 26 45
       -254.58966 6446.2144 -2625.959 2661.092

exp_avg_sq f4 [16, 8]
000000 8a ca e4 4b 5b 08 06 4c c7 fa d3 4b 3a 36 fe 4c
       2.9988116e+07 3.5135852e+07 2.778459e+07 1.3328021e+08
000010 2f d8 3a 4c 61 fc 81 4c a6 0f 80 4d da 59 4d 4e
       4.8980156e+07 6.8150024e+07 2.6856365e+08 8.6130445e+08
000020 c8 a5 53 4f 29 e3 78 4f 42 be 81 4f d4 b0 84 50
       3.5508572e+09 4.1756367e+09 4.353459e+09 1.7809449e+10
000030 a1 7b 4f 4f 7c 73 98 4d c1 00 3f 50 54 2c 5c 50
       3.4809859e+09 3.1971315e+08 1.2817991e+10 1.477557e+10
000040 0a 90 5c 4e 1e c5 7f 4e a5 f8 88 4e 34 6a 51 4d
       9.251068e+08 1.0727771e+09 1.1489983e+09 2.195874e+08
000050 4d f2 81 4c 1d fb 8c 4c dc 2b 9a 4d 4e 72 9c 4e
       6.8129384e+07 7.39146e+07 3.233207e+08 1.3123684e+09
000060 66 10 25 4d 6a a6 22 4d ab b7 2e 4d be c7 08 4e
       1.730822e+08 1.7055094e+08 1.8320453e+08 5.736979e+08
000070 08 66 4e 4c 25 fa 58 4d 14 31 46 4e 11 2a 89 4e
       5.4106144e+07 2.2751701e+08 8.312763e+08 1.1506177e+09
000080 f4 e7 2e 51 25 b0 84 51 f5 ba 89 51 5d 78 27 51
       4.695099e+10 7.123636e+10 7.394339e+10 4.495493e+10
000090 6a 1d ff 4f 94 7f ad 4f d7 b2 77 50 e6 c9 37 52
       8.5602355e+09 5.8216387e+09 1.6622771e+10 1.9734158e+11
0000a0 55 c5 36 4f 39 6b 47 4f 37 e3 36 4f 4d 5c 1d 4f
       3.0663857e+09 3.345693e+09 3.068344e+09 2.640072e+09
0000b0 ad 6f bb 4d d4 e0 a9 4a 3d 4c 50 4c 93 73 63 4f
       3.9308227e+08 5.56657e+06 5.460402e+07 3.8160023e+09
0000c0 01 d1 29 4f 8e 9e 51 4f 7f 1e 67 4f 4c b0 2f 4f
       2.8490468e+09 3.5168292e+09 3.8775355e+09 2.9475666e+09
0000d0 80 52 54 4e 99 8c 85 4d 2e cf 75 4f f9 e5 24 50
       8.905441e+08 2.80073e+08 4.1239956e+09 1.106614e+10
0000e0 d7 6e 2f 4f cd e5 62 4f 78 13 47 4f 57 ad c2 4e
       2.9432768e+09 3.806711e+09 3.339942e+09 1.63307e+09
0000f0 a6 86 3f 4d 40 a7 a6 4c ff 1b 9b 4e 93 7a 58 4f
       2.0082954e+08 8.737434e+07 1.3011516e+09 3.6319117e+09
000100 c6 fd 4a 4e 9b 02 8b 4e 84 b4 84 4e dd 05 6b 4f
       8.514072e+08 1.1661019e+09 1.1132114e+09 3.94303e+09
000110 23 61 69 4e b0 c5 5d 4e 4f a8 c7 4f 60 ee 1b 50
       9.788643e+08 9.301801e+08 6.6993925e+09 1.0464362e+10
000120 0e 59 b3 4f 7b 9b cd 4f 52 9f bf 4f 08 7c 71 4f
       6.017916e+09 6.8990377e+09 6.429779e+09 4.0514376e+09
000130 40 d8 72 4e b6 04 ad 4f cf 2f fa 4f d9 ed 39 50
       1.0185646e+09 5.805534e+09 8.3948744e+09 1.247749e+10
000140 e5 85 71 4f c4 ff 81 4f 1a f2 6d 4f 1d c0 40 4f
       4.052084e+09 4.3620454e+09 3.9920666e+09 3.2338158e+09
000150 52 a8 b4 4d fc 22 84 4d fc c0 06 4f 52 5e 83 4f
       3.7886624e+08 2.7711066e+08 2.2607944e+09 4.4079933e+09
000160 3f 4b b4 50 36 2b d1 50 b7 ee ba 50 5b e2 e5 50
       2.4198642e+10 2.807416e+10 2.5089653e+10 3.0854535e+10
000170 15 4c a0 4f 5a 1c 85 4f 6a db 13 51 73 86 14 50
       5.3786813e+09 4.4664556e+09 3.9690084e+10 9.967357e+09
000180 a1 ba 11 50 fa 7a 3c 50 e9 c5 38 50 d6 62 26 51
       9.779709e+09 1.2648704e+10 1.2399912e+10 4.4663923e+10
000190 da 57 3a 4f 2c ab 68 4e 6b a2 32 51 fd 5c 12 51
       3.1263196e+09 9.75883e+08 4.795182e+10 3.928908e+10
0001a0 50 4b 9a 4d 38 41 99 4d 66 0f ad 4d 86 63 37 4e
       3.2357837e+08 3.2139853e+08 3.6293344e+08 7.691882e+08
0001b0 75 2c 41 4d fc 3b 33 4e 34 83 03 4f 08 20 60 4f
       2.0255726e+08 7.517632e+08 2.2064138e+09 3.7601956e+09
0001c0 ad e6 9e 4e a9 bc bd 4e 7c 82 aa 4e 01 d3 c6 4e
       1.3329588e+09 1.5916289e+09 1.4303391e+09 1.6678586e+09
0001d0 13 6b 11 4d dc 8e 20 4e 29 d6 1c 4f 35 01 f6 4e
       1.524821e+08 6.7342925e+08 2.631281e+09 2.0636371e+09
0001e0 f2 2f ed 4e ac de 04 4f bb 64 fa 4e 4b 97 b9 4e
       1.9896712e+09 2.2291855e+09 2.1004527e+09 1.55685e+09
0001f0 f9 04 22 4d cb cd cc 4d f8 5c 04 4f 64 7d 0f 4f
       1.6988968e+08 4.2950486e+08 2.2206853e+09 2.4073595e+09

exp_avg f4 [16]
000000 ab 49 8b b9 90 bf ab 3b c9 35 45 38 65 e4 54 b9
       -0.00026567033 0.005241342 4.701855e-05 -0.00020302979
000010 59 0e 3e bb 0f 5b 7b 3a 6e 6e 27 bb a3 ec 24 bb
       -0.002900025 0.0009588459 -0.0025548 -0.002516546
000020 5f d4 55 ba c5 41 86 ba 95 0f ff 3a 54 9d f2 b9
       -0.0008156951 -0.001024299 0.00194596 -0.00046275056
000030 85 7e e6 ba d6 68 9e 3a 22 a2 ab ba ec 64 ca ba
       -0.0017585313 0.0012085687 -0.0013094584 -0.0015441454

exp_avg_sq f4 [16]
000000 bb e4 7e 36 e2 b0 43 39 9d d2 07 37 86 59 ea 36
       3.7982088e-06 0.00018662543 8.095664e-06 6.9841653e-06
000010 59 7e 52 3a e3 9d b9 37 68 8e 3c 38 d7 a6 c0 37
       0.00080296915 2.212724e-05 4.495532e-05 2.2965874e-05
000020 2b ba 88 38 e7 a9 9e 38 9a 3f 09 38 f7 f5 d9 39
       6.519662e-05 7.565674e-05 3.272258e-05 0.00041572723
000030 81 9d fb 39 33 64 b3 37 66 c6 85 37 b2 76 90 37
       0.000479918 2.1385122e-05 1.5947222e-05 1.722141e-05

exp_avg f4 [16]
000000 2a 3b e0 45 e2 9b ab c5 28 cd 89 c5 0d 13 80 44
       7175.3955 -5491.4854 -4409.6445 1024.5953
000010 38 23 2e c5 8a 98 3b 45 fc 50 cc 45 af f0 ed 45
       -2786.2012 3001.5337 6538.123 7614.0854
000020 db 70 0c 45 5d 25 82 45 a0 01 9d 42 7c d8 10 46
       2247.0535 4164.6704 78.503174 9270.121
000030 ad a1 9e c6 37 9f 11 45 de 56 6f 45 99 d4 e2 45
       -20304.838 2329.951 3829.4292 7258.5747

exp_avg_sq f4 [16]
000000 09 4e 5d 4e 58 80 fd 4f 62 b1 e3 4e 5a b5 9f 4e
       9.282197e+08 8.5060936e+09 1.9100265e+09 1.3397312e+09
000010 f8 36 45 4f 30 48 a4 4e be 0d a9 4e 42 28 af 4e
       3.308714e+09 1.3780972e+09 1.418125e+09 1.4693256e+09
000020 da 79 e4 4e 7a a4 de 4e 1f 9f 41 4e 7a eb 23 4f
       1.9165955e+09 1.8676605e+09 8.121077e+08 2.7501184e+09
000030 6e 7f 84 50 b6 b7 24 4e 5e 79 40 4e 05 97 ec 4d
       1.778355e+10 6.908758e+08 8.0729485e+08 4.9616502e+08

exp_avg f4 [16]
000000 f0 b2 51 45 c7 25 60 46 ae 60 0b c5 1f 4c fa 44
       3355.1836 14345.444 -2230.0425 2002.3788
000010 58 5d e5 c5 bf d1 3b 43 6c 89 cc 45 1a b6 28 c5
       -7339.668 187.81932 6545.1777 -2699.3813
000020 dd 5e e6 45 25 37 45 43 fe b3 71 43 8f 74 08 46
       7371.858 197.21541 241.7031 8733.14
000030 e4 c5 3a c6 88 cf 80 c5 2e e4 d0 c5 ba 56 be 45
       -11953.473 -4121.9414 -6684.5225 6090.841

exp_avg_sq f4 [16]
000000 ad f6 e6 4d de 39 de 4f 13 a7 80 4e 65 c4 0f 4e
       4.8436573e+08 7.4566687e+09 1.0792165e+09 6.030032e+08
000010 8c 5d 9a 4f 87 b1 9c 4e 22 fc a8 4e f7 d3 6d 4e
       5.179644e+09 1.3144401e+09 1.417548e+09 9.975229e+08
000020 4b 6c cd 4e 92 72 98 4e aa 59 37 4e cf 23 03 4f
       1.7232132e+09 1.2788227e+09 7.690267e+08 2.200162e+09
000030 5c 22 e3 4f 44 45 db 4d 51 d5 2f 4e bf b5 dc 4d
       7.6213596e+09 4.598437e+08 7.374982e+08 4.628623e+08

exp_avg f4 [32, 16]
000000 a9 5d 0d 45 67 64 e6 c2 76 bb 11 c4 1d 57 33 45
       2261.8538 -115.1961 -582.9291 2869.4446
000010 37 71 05 45 bb 04 93 45 32 b6 b2 44 eb f9 9a c5
       2135.076 4704.5913 1429.6936 -4959.2397
000020 fe fb 74 45 f5 ce 71 45 75 ac 93 c5 26 36 d5 45
       3919.7495 3868.9348 -4725.557 6822.7686
000030 16 74 77 c5 79 27 4e 45 92 5c 3e 44 c0 30 e7 45
       -3959.2554 3298.467 761.4464 7398.0938
000040 c4 eb 95 45 ba 56 e9 44 6c 16 3b c3 32 8e c1 45
       4797.4707 1866.7102 -187.08759 6193.7744
000050 dd fb a2 45 b2 02 0c c3 82 ad 11 c5 85 26 a5 44
       5215.483 -140.01053 -2330.8442 1321.2037
000060 f7 8d 1c c5 9e 30 ec 43 2a 83 9e c5 7e b5 07 45
       -2504.8728 472.37982 -5072.3955 2171.3433
000070 79 48 22 c5 94 ae d0 45 67 1b 82 45 b7 8f c2 45
       -2596.5295 6677.8223 4163.4253 6225.9644
000080 b5 e0 02 45 63 ba 2c 45 98 84 a0 c4 12 69 7c 45
       2094.0442 2763.6492 -1284.1436 4038.567
000090 7b df d8 44 a1 17 16 c4 73 9f 86 c5 3b e4 fc c5
       1734.9838 -600.3692 -4307.931 -8092.529
0000a0 f8 2c f7 c4 d9 7c 57 43 01 f8 c8 c5 3f 21 e6 c4
       -1977.4053 215.48769 -6431.0005 -1841.039
0000b0 3c 7b 01 c6 d4 ee 68 45 ba 1f 31 c5 e4 a9 32 45
       -8286.809 3726.9268 -2833.983 2858.6182
0000c0 e0 f4 38 45 fb b9 55 45 36 65 b2 c4 e1 aa a5 45
       2959.3047 3419.6238 -1427.1628 5301.36
0000d0 e8 4c da 44 cf 17 07 c4 2e 7c 81 c5 ca ed 10 c6
       1746.4033 -540.372 -4143.5225 -9275.447
0000e0 e4 d9 b4 c4 f1 3d 6c 44 d1 64 e7 c5 9a 74 25 c5
       -1446.8091 944.96783 -7404.602 -2647.2876
0000f0 a3 64 09 c6 e5 c7 9a 45 17 51 35 c5 d8 6c 61 45
       -8793.159 4952.987 -2901.068 3606.8027
000100 98 ab 9d 44 e3 73 15 c4 12 2b 65 c3 ce e4 c5 44
       1261.3623 -597.8107 -229.16824 1583.1501
000110 df cd 39 45 66 50 8a 45 91 23 30 45 a3 5b 0e c5
       2972.867 4426.05 2818.223 -2277.7273
000120 45 32 8a 45 ff cf 81 45 ae aa 89 c5 94 dd ea 45
       4422.2837 4153.9995 -4405.335 7515.6973
000130 ec b2 11 c5 2e 80 00 45 9b 2b b4 44 88 ae 93 45
       -2331.1826 2056.0112 1441.3627 4725.8164
000140 11 d1 af 45 8b 8c b0 44 ba a6 8f c4 63 a1 f9 45
       5626.1333 1412.392 -1149.2102 7988.1733
000150 e2 a3 b3 43 13 60 50 45 89 ae d8 c4 93 67 bc c5
       359.28033 3334.0046 -1733.4542 -6028.947
000160 65 c2 83 c5 35 5f 00 45 fc 83 b4 c4 b4 1e 11 c5
       -4216.2993 2053.9504 -1444.1245 -2321.919
000170 7c 31 f6 c5 f9 db 03 46 d8 87 8e c3 20 b1 34 45
       -7878.1855 8438.993 -285.06128 2891.0703
000180 80 26 8d 45 f4 35 c0 44 00 00 80 c4 a6 bb da 45
       4516.8125 1537.686 -1024.0 6999.456
000190 79 50 06 c4 aa 01 89 45 35 3b bf c4 f1 de b1 c5
       -537.2574 4384.208 -1529.8502 -5691.8677
0001a0 74 61 88 c5 19 7a e9 44 cd dd 69 c4 4b 5c d5 c4
       -4364.1816 1867.8156 -935.46564 -1706.8842
0001b0 9e 19 fc c5 fe c4 ea 45 fa 25 57 c4 ee 1f 1f 45
       -8067.202 7512.624 -860.5934 2545.9956
0001c0 fd 85 10 45 5d 5f 8a 45 a8 d3 0f 44 a3 b7 2c 44
       2312.3743 4427.9204 575.3071 690.8693
0001d0 3e 40 72 c3 02 75 b8 44 6f d2 90 c5 55 5f a9 c1
       -242.25095 1475.6565 -4634.304 -21.171549
0001e0 2f 4a a8 44 42 a8 2b c4 81 33 1d c6 82 41 7c 45
       1346.3182 -686.629 -10060.876 4036.0942
0001f0 ae 4f b9 c5 33 0f 17 44 82 52 61 c5 6d a5 a5 45
       -5929.96 604.2375 -3605.1567 5300.678
000200 ce 80 b3 c3 4c 26 5d 45 66 50 ae c4 be 01 a5 44
       -359.0063 3538.3936 -1394.5125 1320.0544
000210 bb da 46 c5 ac 87 22 c6 e2 8f 0f c6 65 3e 7d 44
       -3181.6707 -10401.918 -9187.971 1012.9749
000220 2c 01 e6 c5 0f 6a bf c4 c5 ff 78 c5 32 82 81 c6
       -7360.1465 -1531.3143 -3983.9856 -16577.098
000230 97 fb cc c5 d1 a0 e7 44 c4 6c 2f c4 2f ae c9 43
       -6559.4487 1853.0255 -701.69946 403.3608
000240 cd 8b 15 45 7b 2e bb 44 aa ca 92 c1 13 d3 32 45
       2392.7375 1497.4525 -18.348957 2861.1921
000250 d5 6f 35 45 3b d0 78 43 64 9b a8 c4 2c d8 a9 44
       2902.9895 248.8134 -1348.856 1358.7554
000260 2c 11 97 43 69 4d 8e 42 5b de 63 c5 6a 64 94 45
       302.13416 71.15119 -3645.8972 4748.552
000270 64 ac f6 c2 60 44 43 45 12 37 d0 44 83 5b 72 45
       -123.3367 3124.2734 1665.721 3877.7195
000280 91 2c 93 45 18 43 60 44 1c 02 42 c5 f0 0a df 45
       4709.571 897.04834 -3104.1318 7137.367
000290 6d e9 85 c4 8c 3d 3a 43 5d 79 50 c5 2b 10 0c c6
       -1071.2946 186.24042 -3335.5852 -8964.042
0002a0 0d 2d 0b c6 d3 36 15 44 5c 66 d3 c5 b7 cc e0 44
       -8907.263 596.8566 -6764.795 1798.3973
0002b0 cb a4 4f c6 a2 d3 fb 45 0f 3a 54 45 28 76 f6 45
       -13289.198 8058.454 3395.6287 7886.7695
0002c0 0e 9a d7 44 d6 75 03 43 0c b8 ef c4 21 b1 70 45
       1724.8142 131.4603 -1917.7515 3851.0706
0002d0 8e 0b 4e c5 6b 0a 6b 45 23 e2 53 c4 e6 2c 35 c6
       -3296.7222 3760.6511 -847.5334 -11595.225
0002e0 19 34 e1 c5 68 e1 1d 45 5f 93 6c c5 44 46 9e 45
       -7206.512 2526.088 -3785.2107 5064.783
0002f0 a6 09 46 c6 c0 7e 7f 45 7e c3 49 c4 6f 41 29 46
       -12674.412 4087.9219 -807.05457 10832.358
000300 82 53 d7 45 8c 84 19 45 98 30 8e c3 30 8a 10 46
       6890.4385 2456.2842 -284.37964 9250.547
000310 de 88 f9 45 4d fe 18 43 17 fa 61 c5 9f 23 3b 44
       7985.1084 152.99336 -3615.6306 748.5566
000320 a1 d1 63 c5 3a d3 5f 44 77 bf e7 c5 f8 1e 6e 45
       -3645.1018 895.3004 -7415.933 3809.9355
000330 60 b3 97 c5 69 3e 1a 46 2d 50 aa 45 de 46 20 46
       -4854.422 9871.603 5450.022 10257.717
000340 89 ca b9 45 b7 38 03 45 cb a6 2c c3 89 bd f3 45
       5945.317 2099.5447 -172.65154 7799.692
000350 1b e1 d2 45 da e0 7c c1 d4 96 30 c5 47 7a 64 44
       6748.138 -15.804895 -2825.4268 913.9106
000360 9c c0 4b c5 ce d6 2f 44 c9 53 ce c5 38 ad 47 45
       -3260.038 703.3563 -6602.473 3194.8262
000370 5a 22 81 c5 70 c9 03 46 81 45 a0 45 98 b9 05 46
       -4132.294 8434.359 5128.688 8558.398
000380 f8 21 12 c5 e5 fb 50 45 95 9c 0e c5 b7 db 69 c5
       -2338.123 3343.7434 -2281.7864 -3741.7322
000390 10 d0 89 c5 8a 90 13 c4 cc 4e 14 c5 e5 7a e9 c5
       -4410.008 -590.2584 -2372.9248 -7471.362
0003a0 32 07 ef c4 ee d1 80 44 ea 5e e6 c4 df f3 55 44
       -1912.2249 1030.5603 -1842.9661 855.8105
0003b0 b5 87 c6 c5 e2 e6 7f c5 08 0e ad c5 01 10 4a c4
       -6352.9634 -4094.4302 -5537.754 -808.25006
0003c0 50 c2 a9 45 02 5f 02 45 17 7a 10 c4 28 65 f7 45
       5432.289 2085.938 -577.90765 7916.6445
0003d0 48 37 a1 42 35 78 8a 45 f8 80 b3 c4 34 68 d0 c5
       80.60797 4431.026 -1436.0303 -6669.0254
0003e0 87 ab db c4 a0 90 13 45 e7 72 03 c5 70 0b 3e 44
       -1757.3602 2361.039 -2103.1814 760.1787
0003f0 d7 c1 e7 c5 d5 42 08 46 3d b8 82 c3 49 d9 1e 45
       -7416.23 8720.708 -261.43936 2541.5803

exp_avg_sq f4 [32, 16]
000000 02 d2 92 4d 9c 37 0c 4c 04 d8 4a 4b 09 5b ee 4d
       3.0790458e+08 3.6757104e+07 1.3293572e+07 4.9986794e+08
000010 8a e9 87 4d 4e 19 36 4e dc 62 fc 4d 0c 9e b4 4d
       2.8502867e+08 7.637779e+08 5.2929216e+08 3.7878208e+08
000020 bc 33 a7 4c 62 41 55 4d 24 de 70 4d be 41 f8 4d
       8.766205e+07 2.236145e+08 2.5256813e+08 5.2063226e+08
000030 68 38 8a 4c a9 ce 30 4e d1 18 23 4e 74 dc fd 4d
       7.246726e+07 7.415834e+08 6.8407814e+08 5.323854e+08
000040 9c a1 92 4d 91 58 ff 4a a9 f0 37 4b 95 f5 07 4e
       3.075081e+08 8.3671765e+06 1.2054697e+07 5.7025466e+08
000050 db f6 aa 4d db 81 a9 4d ba d4 b9 4d 23 75 9a 4d
       3.5853808e+08 3.5548246e+08 3.8971578e+08 3.23921e+08
000060 b3 bf 68 4c f5 eb 19 4d 40 31 8c 4d 7d 1d 17 4e
       6.1013708e+07 1.6139861e+08 2.9400474e+08 6.3382304e+08
000070 28 cf de 4b af 0b 2a 4e 52 40 08 4e e3 99 4e 4d
       2.9204048e+07 7.132231e+08 5.714792e+08 2.1663698e+08
000080 9c 46 70 4e 01 2e 9e 4e 43 ba 0d 4d b3 b8 04 4f
       1.0077898e+09 1.3269075e+09 1.4861214e+08 2.226697e+09
000090 fb 78 8c 4e 7d 27 3d 4e ca d6 31 4e 6b c1 d2 4e
       1.1783694e+09 7.9337043e+08 7.459109e+08 1.7679456e+09
0000a0 f7 8c 17 4f ed 13 1c 4e 77 0b 3c 4e f1 aa fa 4d
       2.542598e+09 6.546379e+08 7.88717e+08 5.2568835e+08
0000b0 3f ed 45 4f 33 cc 2c 4f 0f f1 b7 4e 0f 75 6d 4e
       3.3206597e+09 2.8990636e+09 1.5430143e+09 9.9596794e+08
0000c0 aa b4 ab 4e ca f1 da 4e 05 43 4e 4d 7a 68 3b 4f
       1.440372e+09 1.8366395e+09 2.1628117e+08 3.1441864e+09
0000d0 55 3c c2 4e 7e 3e 8a 4e a6 26 7c 4e ab 82 11 4f
       1.6293669e+09 1.1596756e+09 1.0575978e+09 2.4412598e+09
0000e0 d0 be 56 4f c8 a1 5f 4e 64 01 83 4e c4 56 46 4e
       3.6028293e+09 9.379804e+08 1.0989532e+09 8.3189376e+08
0000f0 9d f2 88 4f 86 c8 74 4f a9 6d 04 4f 07 7f a9 4e
       4.5952026e+09 4.1067822e+09 2.2217792e+09 1.4218372e+09
000100 87 e2 57 4e c0 71 a1 4d 54 f9 94 4c 34 50 9e 4e
       9.054868e+08 3.385733e+08 7.810525e+07 1.3280282e+09
000110 55 84 99 4e 7b d8 e2 4e ef 6f 78 4e e6 44 85 4e
       1.2877933e+09 1.902919e+09 1.0420213e+09 1.1179425e+09
000120 0e a3 1c 4e f1 bb 45 4e 65 c8 23 4e 07 47 aa 4e
       6.569829e+08 8.293571e+08 6.869548e+08 1.4283908e+09
000130 ba f0 f0 4d 84 36 f5 4e 4d 37 c8 4e 29 b8 be 4e
       5.052885e+08 2.0569953e+09 1.6795337e+09 1.5998701e+09
000140 d2 c8 23 4e 15 a2 3b 4e e1 cf 56 4c 70 44 ad 4e
       6.869618e+08 7.869904e+08 5.6311684e+07 1.4534717e+09
000150 48 70 2c 4e 83 62 fd 4d 4e 8b eb 4d fa 53 75 4e
       7.232599e+08 5.3138646e+08 4.939719e+08 1.02898035e+09
000160 93 cc b7 4e e4 80 c0 4d ec 4f e6 4d 92 3c 0c 4d
       1.5418188e+09 4.0370906e+08 4.8299968e+08 1.4704874e+08
000170 a5 c0 f7 4e 8f 89 d8 4e ca 51 72 4e 5c d0 a7 4d
       2.0782988e+09 1.8164468e+09 1.0163616e+09 3.5193126e+08
000180 7b 56 4d 4e d7 a6 75 4e 36 6a 98 4c 39 37 d6 4e
       8.612492e+08 1.030338e+09 7.99093e+07 1.7969716e+09
000190 21 b2 69 4e 5c ba 10 4e e4 59 0f 4e 05 74 99 4e
       9.801913e+08 6.070331e+08 6.0125824e+08 1.2872588e+09
0001a0 83 90 eb 4e 63 d7 e8 4d 53 bf 0d 4e d2 dd 4d 4d
       1.9760582e+09 4.883037e+08 5.945315e+08 2.1586666e+08
0001b0 18 ff 1c 4f 74 0d 04 4f be 1c 9c 4e 4a d3 d0 4d
       2.6339635e+09 2.2154742e+09 1.3095647e+09 4.379385e+08
0001c0 dd 10 c5 4d 81 f2 53 4e ba 52 c9 4c a8 25 40 4e
       4.132771e+08 8.889713e+08 1.0555131e+08 8.059233e+08
0001d0 03 1a 73 4c c1 79 94 4e 56 cd d0 4e f7 b1 3e 4e
       6.3727628e+07 1.2455036e+09 1.7515589e+09 7.9983354e+08
0001e0 d1 87 f1 4e 03 9b 43 4e b5 5c 9d 4e 4d f7 c1 4e
       2.026105e+09 8.20429e+08 1.3200493e+09 1.6271049e+09
0001f0 ad 85 05 4f fe 6b 74 4e c4 31 68 4e 04 98 42 4e
       2.2401303e+09 1.0251795e+09 9.738939e+08 8.161856e+08
000200 06 d5 6d 4e 98 ba 4a 4e 45 70 46 4c c3 70 e4 4e
       9.975402e+08 8.5030656e+08 5.2019476e+07 1.9162976e+09
000210 50 c1 77 4e b5 fc e1 4d d5 45 2a 4e 0f 30 4b 4e
       1.0391603e+09 4.7392938e+08 7.141758e+08 8.522311e+08
000220 72 9d d7 4e 7c 30 be 4d c9 04 d3 4d 24 e4 b6 4e
       1.8087099e+09 3.9885606e+08 4.4253827e+08 1.5342024e+09
000230 7b d1 08 4f c0 7f 0d 4f 73 12 a5 4e 66 02 2a 4e
       2.29543e+09 2.3739597e+09 1.3847249e+09 7.13071e+08
000240 77 88 40 4d c1 5b 3f 4b 02 5f 01 4b 92 45 b1 4d
       2.0188555e+08 1.2540865e+07 8.478466e+06 3.7176582e+08
000250 c9 e5 64 4d 38 e2 8a 4d 7a d6 85 4d 45 69 5f 4d
       2.4001653e+08 2.9126016e+08 2.806782e+08 2.3426363e+08
000260 d5 35 1a 4c 26 2c fd 4c 06 59 3e 4d 71 07 df 4d
       4.04253e+07 1.3273528e+08 1.9959408e+08 4.6772586e+08
000270 61 82 32 4b 6e da d5 4d 0b b6 bb 4d 6e 82 0b 4d
       1.1698785e+07 4.4848275e+08 3.9365872e+08 1.462863e+08
000280 f8 a8 04 4f bb 0b f0 4e 80 e4 39 4d 26 b1 7a 4f
       2.225666e+09 2.0136503e+09 1.949225e+08 4.2059136e+09
000290 12 68 07 4f b4 26 22 4e 95 53 24 4e 08 f7 e5 4e
       2.2717445e+09 6.8011136e+08 6.8923526e+08 1.929086e+09
0002a0 e8 d5 5f 4f 6a ee a0 4e e8 29 80 4e 09 90 93 4f
       3.7553377e+09 1.3499896e+09 1.075115e+09 4.9513805e+09
0002b0 43 eb 91 4f 4e 92 ae 4f 13 6c 5d 4f 12 f9 c2 4e
       4.896229e+09 5.8576476e+09 3.7148475e+09 1.6355515e+09
0002c0 f9 16 ca 4e d2 92 8f 4e df d2 92 4c 7e 63 3e 4f
       1.6952516e+09 1.204382e+09 7.697791e+07 3.1941914e+09
0002d0 f9 af bf 4e 82 77 a1 4d be 99 c3 4d 9c d7 bb 4e
       1.6079904e+09 3.3862048e+08 4.102041e+08 1.5757348e+09
0002e0 6f 0c fd 4e a4 07 91 4e 16 25 00 4e 8d aa 38 4f
       2.1227252e+09 1.2165985e+09 5.374785e+08 3.098185e+09
0002f0 c9 35 3b 4f 3a 75 89 4f b0 ce 29 4f 7b e2 82 4e
       3.1408643e+09 4.6123223e+09 2.848895e+09 1.0979404e+09
000300 a6 24 17 4e b1 a7 98 4b 36 2f c1 4b f2 10 8b 4e
       6.3394035e+08 2.0008802e+07 2.5321068e+07 1.1665718e+09
000310 9d 29 31 4e ce f8 30 4e 3e 78 3a 4e 89 90 22 4e
       7.430736e+08 7.422739e+08 7.821106e+08 6.818453e+08
000320 22 e5 f8 4c 38 26 af 4d 09 82 0e 4e 4f 98 9e 4e
       1.3049269e+08 3.673147e+08 5.9772166e+08 1.3303909e+09
000330 52 10 87 4c 38 97 b0 4e 2c e6 93 4e 1b 30 f4 4d
       7.08123e+07 1.4813501e+09 1.2406676e+09 5.1209917e+08
000340 52 af d8 4d c3 c3 29 4b de a7 80 4b c5 d0 47 4e
       4.5442106e+08 1.1125699e+07 1.6863164e+07 8.38087e+08
000350 33 36 f9 4d 60 e7 fe 4d 0e a0 06 4e 98 6b eb 4d
       5.2263485e+08 5.3457203e+08 5.646591e+08 4.9371213e+08
000360 48 f9 a0 4c 83 d1 70 4d 3f 8d cb 4d 61 44 63 4e
       8.439661e+07 2.525164e+08 4.2687894e+08 9.532273e+08
000370 ce 7d 47 4c 77 7e 7f 4e 54 b3 55 4e d5 28 b9 4d
       5.229548e+07 1.0716195e+09 8.9632486e+08 3.8830762e+08
000380 cf d7 08 4d f7 e4 25 4e 54 89 97 4c da ec 34 4d
       1.4349029e+08 6.958115e+08 7.944874e+07 1.8971382e+08
000390 fd 1a 0f 4e 38 d9 e5 4d 3c 60 0a 4e 84 62 5f 4e
       6.0022765e+08 4.8202726e+08 5.8039066e+08 9.369439e+08
0003a0 d0 1a 93 4e 76 78 75 4d ba 62 d9 4d cf fe 42 4e
       1.234004e+09 2.5739453e+08 4.5589075e+08 8.1786976e+08
0003b0 0e 68 d9 4e 04 41 d6 4c 95 16 74 4d ff d4 cc 4d
       1.8237376e+09 1.1233078e+08 2.5594504e+08 4.2956387e+08
0003c0 74 00 77 4e 6d 8f 7a 4e 68 41 9e 4c ae 25 f9 4e
       1.0360005e+09 1.0509259e+09 8.297146e+07 2.0899981e+09
0003d0 35 64 82 4e bc 8c 72 4e 51 31 71 4e 5b a7 b6 4e
       1.0938026e+09 1.01732736e+09 1.01163526e+09 1.5322106e+09
0003e0 fb ae e5 4e db b7 4d 4e dc 91 49 4e 59 7a 9d 4d
       1.926725e+09 8.628446e+08 8.4544486e+08 3.3025514e+08
0003f0 95 a1 20 4f e4 6b 14 4f d4 a6 c1 4e 53 c2 10 4e
       2.694944e+09 2.4900987e+09 1.624468e+09 6.071636e+08
